VAE/model/anomaly.pth (torch, 99168 bytes, 17 tensors)

weight f4 [16, 1, 3]
0	0x3f2ffa4d	0.68741304
1	0xbce7a252	-0.028275643
2	0x3f819514	1.012362
3	0x3f8ef11a	1.1167328
4	0xbb42280f	-0.0029625928
5	0xbeb8f5e3	-0.36125097
6	0xbf7d8530	-0.99031353
7	0xbf229ff8	-0.6352534
8	0xbe4732a7	-0.19452916
9	0x3f0545bf	0.5205955
10	0x3e157bb5	0.14597972
11	0x3e1d6a66	0.15372619
12	0xbeb8c297	-0.3608596
13	0xbf26f505	-0.6521762
14	0xbfa1ad4d	-1.2631012
15	0xbf9c140d	-1.2193619
16	0xbf0206e5	-0.5079177
17	0xbf7175cf	-0.94320387
18	0xbfa10a46	-1.258126
19	0x3d6cad15	0.05778225
20	0x3eee7719	0.4657524
21	0x3f83e146	1.0303123
22	0x3faf3086	1.3686683
23	0xbf9720d1	-1.180689
24	0x3f48d81d	0.7845476
25	0xbf965445	-1.1744467
26	0x3efc911c	0.4932946
27	0xbf9a0a44	-1.2034383
28	0x3f838e4e	1.0277803
29	0xbfa4d228	-1.2876635
30	0xbf13428b	-0.5752341
31	0xbf5ef813	-0.8709728
32	0x3f9ba5fb	1.2160028
33	0x3e35c255	0.17749913
34	0xbfb48b4a	-1.4105008
35	0xbf420674	-0.75791097
36	0x3cb51ec8	0.022109404
37	0xbf9f1904	-1.2429509
38	0x3f6531f0	0.89529324
39	0x3e9bb4de	0.30411428
40	0xbf1a2b28	-0.602221
41	0xbf89e670	-1.0773449
42	0xbf733985	-0.9500964
43	0x3fafb90a	1.3728344
44	0xbed9e08c	-0.42554128
45	0x3e811d4c	0.25217664
46	0xbf2babe5	-0.67059165
47	0xbf917423	-1.1363567

bias f4 [16]
0	0xbcf2374c	-0.029567383
1	0x3ca314e2	0.019907419
2	0xbc96a609	-0.018389719
3	0x3c13cff2	0.009021746
4	0xba9ef50d	-0.0012127474
5	0xbc796a78	-0.015223138
6	0xbc0a64c4	-0.008446876
7	0x3c92fb78	0.017942175
8	0xbc9cdcd9	-0.019148277
9	0xbcee52e3	-0.029092258
10	0xbc1a3bb7	-0.009413651
11	0xbc09db97	-0.008414171
12	0x3cbc7438	0.023004636
13	0xbc840319	-0.016114758
14	0x3c66f3ca	0.01409621
15	0xbbca885c	-0.006180806

weight f4 [32, 16, 3]
0	0xbd1d5fb6	-0.038421355
1	0xbe28b073	-0.1647356
2	0xbe2ef09a	-0.1708397
3	0xbe451d79	-0.19249524
4	0x3e308fbc	0.1724233
5	0x3e57727c	0.21039766
6	0x3d19c0b2	0.037537284
7	0xbe5ed180	-0.21759605
8	0xbe89c235	-0.2690598
9	0x3e32a589	0.17445959
10	0xbcf770cd	-0.030205155
11	0xbe6343fd	-0.22193904
12	0x3dba9f49	0.091124125
13	0x3ccafec7	0.02477969
14	0x3cb1765a	0.02166288
15	0x3e04c23b	0.12964718
16	0xbd845eb5	-0.064633764
17	0x3d86c6b3	0.065808676
18	0xbde5337a	-0.11191459
19	0xbdecb0e2	-0.11557175
20	0xbe5a362b	-0.21309726
21	0x3df303ec	0.118659824
22	0xbeb537d7	-0.35394165
23	0xbe9d1eda	-0.306876
24	0xbd0fc3cb	-0.035098832
25	0x3decdbf5	0.11565391
26	0x3d917814	0.07102981
27	0x3d5c893b	0.05384181
28	0x3e862db6	0.2620675
29	0x3a3bc04d	0.0007162139
30	0x3c1f32a0	0.00971666
31	0x3d4ecea3	0.050490033
32	0xbeaee104	-0.34156048
33	0x3dc7dc49	0.09758813
34	0x3d9c9028	0.07644683
35	0x3e89a6c2	0.2688504
36	0xbdfa534c	-0.12222919
37	0xbe4d52a0	-0.2005105
38	0xbe931617	-0.2872779
39	0x3ea27d11	0.31736043
40	0xbd80ccad	-0.06289039
41	0x3ea6fe08	0.32615685
42	0x3e853fcd	0.2602524
43	0x3dd96016	0.1061403
44	0x3d3fe4c8	0.046849042
45	0xbe053353	-0.1300786
46	0xbda3b66a	-0.07993777
47	0xbe3518fe	-0.17685315
48	0x3e65264e	0.22377893
49	0xbea1e6c3	-0.3162137
50	0xbdfb4abf	-0.12270116
51	0x3e843d7c	0.2582816
52	0xbe910be1	-0.28329375
53	0x3d285273	0.041094255
54	0x3d13da1d	0.03609668
55	0x3ea1e06a	0.31616527
56	0x3e244ed4	0.16045696
57	0xbe8e3ea3	-0.27782163
58	0x3c9e472c	0.019321047
59	0xbe588713	-0.21145277
60	0xbd840795	-0.06446759
61	0xbe49f450	-0.19722104
62	0xbd99a593	-0.07502284
63	0x3e529d1e	0.20567748
64	0x3e3250d7	0.1741365
65	0x3e80c820	0.25152683
66	0xbe8904b1	-0.26761392
67	0xbe6e4c0d	-0.23271199
68	0x3e6a8dae	0.22905609
69	0x3e901af6	0.2814557
70	0x3e6c1585	0.23055084
71	0x3e22ad9c	0.15886539
72	0xbe8e345e	-0.27774328
73	0xbd80ea39	-0.062946744
74	0xbe4adb83	-0.198103
75	0x3e630768	0.22170794
76	0xbea49178	-0.32142234
77	0x3d24847e	0.040165417
78	0xbe853807	-0.26019308
79	0x3dbf0ac8	0.09328228
80	0xbe98d8b1	-0.29852822
81	0x3e8fcc2c	0.28085458
82	0x3bf4781d	0.0074606077
83	0xbd8439b5	-0.06456319
84	0x3e851dcf	0.25999305
85	0xbe924754	-0.28570044
86	0x3e00891c	0.12552303
87	0x3e60adab	0.21941249
88	0x3e3a0e91	0.18169619
89	0xbcee56bf	-0.029094098
90	0x3e719749	0.23592867
91	0x3e4e6b68	0.2015816
92	0xbe8d1f7f	-0.27563092
93	0xbd33b5a0	-0.043874383
94	0x3e56698e	0.20938703
95	0x3cecbd45	0.028898844
96	0xbe9cae5a	-0.3060177
97	0x3eb036fe	0.34416956
98	0x3d8f14fe	0.06986426
99	0xbd2e64a7	-0.04257646
100	0xbe4c03ea	-0.19923368
101	0x3de9c512	0.11414541
102	0x3c7dbc1f	0.015486746
103	0x3cb46739	0.022021877
104	0x3e169125	0.14703806
105	0x3e2fbb46	0.17161283
106	0xbe53b649	-0.20675005
107	0xbe996524	-0.29959977
108	0xbe29ee0f	-0.16594718
109	0x3e84c15b	0.2592877
110	0x3e96ea2e	0.2947554
111	0x3d81d744	0.06339887
112	0x3dbec8f1	0.0931567
113	0x3e1aed89	0.15129675
114	0xbdaa5648	-0.08317238
115	0xbeac9779	-0.33709314
116	0x3eb0248c	0.34402883
117	0xbdf29e4c	-0.11846599
118	0xbe49a260	-0.19690847
119	0xbd876f53	-0.0661303
120	0xbe4a65a3	-0.19765334
121	0x3d1ad041	0.037796263
122	0x3e5cfeb7	0.21581541
123	0xbe94c4d8	-0.2905643
124	0xbde12b4c	-0.10994586
125	0xbe56ce1b	-0.2097706
126	0xbe1e4b46	-0.15458402
127	0xbe5c1f88	-0.21496403
128	0x3e8eb697	0.2787368
129	0xbe021727	-0.12704144
130	0xbda83d8b	-0.082148634
131	0x3e56b6c6	0.2096816
132	0xbe64ef82	-0.2235699
133	0xbe6dab06	-0.23209772
134	0xbeb21b07	-0.34786245
135	0xbeaa08fd	-0.33209983
136	0xbe10f203	-0.1415482
137	0x3d602fd4	0.054733112
138	0xbea513c9	-0.32241657
139	0x3c067b59	0.008208119
140	0x3e341afa	0.17588416
141	0xbbda62ca	-0.0066646086
142	0x3e36d226	0.17853603
143	0xbe477cfe	-0.19481274
144	0x3d2bcfd8	0.041946262
145	0xbe0f8b24	-0.14017922
146	0xbe2d2925	-0.16910227
147	0x3d47b041	0.048752073
148	0xbe7c0e54	-0.24614841
149	0xbdc43cc2	-0.09581901
150	0x3df32789	0.11872775
151	0xbe86d4b5	-0.26334158
152	0x3dc97784	0.09837249
153	0x3d98edb1	0.07467211
154	0xbea69767	-0.32537386
155	0x3d890811	0.06690992
156	0xbc5ac963	-0.013353678
157	0xbd6470fc	-0.055771813
158	0xbe7e1efe	-0.2481651
159	0x3e3c9178	0.18414867
160	0x3e11b8c5	0.1423064
161	0x3dfb1288	0.12259394
162	0xbe753b45	-0.23948391
163	0x3ea49d38	0.32151198
164	0xbe91ae38	-0.2845323
165	0xbd083456	-0.033253036
166	0x3e5612c1	0.20905592
167	0xbdace07c	-0.084412545
168	0x3de85a66	0.11345367
169	0x3ea21b17	0.31661293
170	0xbe203356	-0.15644583
171	0x3d841061	0.064484365
172	0xbe774bd7	-0.24150024
173	0x3e15c5ee	0.14626285
174	0xbe85e346	-0.26149958
175	0x3e082fc8	0.13299477
176	0xbd9985b3	-0.07496204
177	0x3e2fc010	0.1716311
178	0x3e85782f	0.26068255
179	0x3d4eca56	0.05048593
180	0x3e15f829	0.14645447
181	0x3d8d419b	0.06897279
182	0xbe132e29	-0.14373077
183	0xbe889b34	-0.2668091
184	0xbe0ed872	-0.13949755
185	0xbe668fb4	-0.22515756
186	0x3c9d1afc	0.019177906
187	0x3e2407c9	0.16018595
188	0xbea0294c	-0.31281507
189	0xbe84ec38	-0.2596147
190	0xbd25093c	-0.04029201
191	0xbddf198d	-0.10893545
192	0xbe95b4b7	-0.29239437
193	0xbe822b16	-0.25423497
194	0x3e92818a	0.28614455
195	0xbe883702	-0.26604468
196	0x3e05b5b6	0.13057598
197	0xbe894d79	-0.2681692
198	0x3dbd5bd2	0.09246029
199	0x3daaad8a	0.08333881
200	0x3e5525c7	0.20815192
201	0x3e5c66ad	0.21523543
202	0xbd0167b8	-0.031593055
203	0xbe134edc	-0.14385551
204	0x3e4d7e6d	0.20067759
205	0x3e533481	0.20625497
206	0x3e52a717	0.20571552
207	0x3db4f615	0.08835999
208	0x3c4e605a	0.012596214
209	0x3e35660b	0.17714708
210	0x3df9b035	0.12191812
211	0x3ddafaa3	0.106923364
212	0xbe8575ca	-0.26066428
213	0xbe1ac475	-0.15114005
214	0x3e8c95f1	0.27458146
215	0xbe66e41b	-0.22547953
216	0xbe41c11b	-0.1892132
217	0x3e2910b7	0.16510282
218	0x3e40e437	0.18837057
219	0x3e2450f8	0.16046512
220	0xbba877af	-0.0051412205
221	0xbe18dc35	-0.14927752
222	0x3d002e2b	0.03129403
223	0xbea140ff	-0.314949
224	0xbe742bef	-0.23844884
225	0x3d6f9837	0.058494773
226	0xbe17932b	-0.14802234
227	0x3d25887f	0.040413376
228	0x3e9e0da8	0.30869794
229	0xbe17e5fd	-0.14833827
230	0x3cfec647	0.031100405
231	0xbe09a569	-0.13442005
232	0xbea7497a	-0.32673246
233	0x3e4443a3	0.19166426
234	0x3d821486	0.06351571
235	0xbea4f8e0	-0.32221127
236	0xbe862a4f	-0.26204154
237	0x3e85106d	0.25989094
238	0x3d9538e4	0.07286242
239	0xbe893d29	-0.26804474
240	0xbe5e312b	-0.21698444
241	0xbdfd39b0	-0.12364519
242	0xbea6aa43	-0.32551774
243	0x3cd7106d	0.02625295
244	0x3ea177f5	0.31536832
245	0xbdaae31e	-0.083441004
246	0x3e9849ba	0.2974375
247	0x3d961e7c	0.07330033
248	0xbe46f02c	-0.19427556
249	0xbe2de7f1	-0.1698301
250	0x3dd79520	0.1052649
251	0x3e5edf85	0.21764953
252	0x3e7717e1	0.24130203
253	0x3c8846e2	0.016635362
254	0x3d9a735e	0.07541536
255	0xbeb6c96c	-0.35700548

bias f4 [32]
0	0xbbe51d6b	-0.0069920323
1	0x3c7b657d	0.015344021
2	0xbc2e709a	-0.0106469635
3	0xbc0f48bb	-0.008745368
4	0xbc9f3359	-0.019433664
5	0xbc78d206	-0.015186792
6	0xbcaa88b8	-0.020817146
7	0x3ba28c9b	0.004960609
8	0x3c2f8036	0.01071172
9	0xba4d3b51	-0.0007828968
10	0x3c75e066	0.015007114
11	0x3c8d1265	0.017220685
12	0xbc3c55be	-0.011495052
13	0xbc2673ca	-0.010159442
14	0x3c3fdd19	0.011710429
15	0xbcdb1cca	-0.026747126
16	0x3bdaf530	0.0066820607
17	0x3c01631b	0.007897164
18	0xbb87dfa4	-0.004146533
19	0x3c067af2	0.008208023
20	0x396cdc0b	0.00022588686
21	0xbbd8b18c	-0.006612962
22	0xbc433755	-0.011915048
23	0xbbaeb99d	-0.0053321854
24	0x3ce82a36	0.02834044
25	0xbc638c13	-0.013888377
26	0xbcf35d10	-0.029707462
27	0xbc83b1d4	-0.016076006
28	0xbc9a51f3	-0.018837905
29	0xbbd8c660	-0.006615445
30	0xbb87aaa3	-0.0041402145
31	0x3b1e535b	0.002415857

weight f4 [64, 32, 3]
0	0x3c2b233e	0.010445414
1	0xbe594161	-0.21216346
2	0xbd10a20b	-0.035310786
3	0x3d461476	0.048359357
4	0x3e806902	0.25080115
5	0xbe5c5ec2	-0.21520522
6	0x3e13e50e	0.14442846
7	0x3d113dd6	0.035459362
8	0xbe0ab4a9	-0.13545479
9	0x3b83281c	0.004002584
10	0x3cbee838	0.02330409
11	0x3d249149	0.040177617
12	0xbdb620cb	-0.088929735
13	0xbe368fd7	-0.17828308
14	0xbc8b557d	-0.017008537
15	0x3dd46a39	0.10371823
16	0xbe42d4f1	-0.19026543
17	0x3e6a5686	0.22884569
18	0x3cea85e3	0.028628295
19	0xbdf6316a	-0.12021144
20	0xbe2d70c8	-0.16937554
21	0x3da2c3b3	0.07947483
22	0x3e7e017f	0.24805258
23	0x3e53d064	0.20684963
24	0x3e83b716	0.2572562
25	0x3e0eb184	0.13934904
26	0x3dd88313	0.105718754
27	0x3da1fb15	0.07909218
28	0x3c071f72	0.008247243
29	0x3deb3b69	0.11485941
30	0xbe101f97	-0.1407455
31	0x3d8e7aae	0.06956993
32	0x3e269edc	0.16271538
33	0xbd3ad9c1	-0.045617823
34	0xbe1d1463	-0.15339808
35	0x3e36e025	0.17858942
36	0xbe75abbb	-0.23991291
37	0xbe0fcc77	-0.14042841
38	0xbda96857	-0.08271854
39	0x3e72c0e7	0.23706399
40	0xbce21cef	-0.027601687
41	0x3df346a0	0.11878705
42	0x3e44cfc4	0.19219881
43	0xbe32c31f	-0.17457245
44	0x3d042970	0.03226608
45	0xbe2b1731	-0.16708066
46	0xbe6eb66a	-0.23311773
47	0x3e179919	0.14804496
48	0x3d0056f7	0.031332936
49	0x3dfc1619	0.12308902
50	0x3e4e97c1	0.20175077
51	0x3d3ee443	0.046604406
52	0x3e274d0d	0.16337986
53	0x3db2c3e9	0.08728773
54	0x3dd68ada	0.104757026
55	0x3c3daffe	0.011577604
56	0xbdd28868	-0.10279924
57	0x3d624ff2	0.055252023
58	0xbe2468b3	-0.16055565
59	0x3e4d4d97	0.2004913
60	0x3df1c102	0.118043914
61	0x3d0b0bc5	0.03394677
62	0xbdeac366	-0.114630505
63	0xbdecb947	-0.11558776
64	0x3e7d7dd7	0.24755035
65	0xbe0695cf	-0.13143085
66	0x3e7e36de	0.24825618
67	0x3dd0f9c7	0.10203891
68	0x3be4ae86	0.0069788126
69	0x3e7338f9	0.23752202
70	0xbd1f1b0c	-0.038844153
71	0xbe2b6810	-0.16738915
72	0x3dd27a33	0.10277214
73	0x3c43b318	0.011944555
74	0x3d077fd6	0.0330809
75	0xbd4855e8	-0.04891005
76	0x3daa6cca	0.08321531
77	0x3ddda7d4	0.10823026
78	0xbdc9b6f2	-0.09849347
79	0xbc9c0f21	-0.019050183
80	0xbe6544d3	-0.22389536
81	0xbe596b53	-0.21232347
82	0xbde2e142	-0.11078121
83	0x3e624f3c	0.22100538
84	0x3e2cbeeb	0.16869704
85	0xbda7ae78	-0.08187574
86	0xbe140c55	-0.1445783
87	0x3dfe0a91	0.12404359
88	0xbbcabe0e	-0.006187207
89	0xbd9881c7	-0.07446628
90	0x3d8b5f1c	0.0680525
91	0xbd198444	-0.037479654
92	0xbcd670d2	-0.026176844
93	0x3d6b84ae	0.05749958
94	0xbdb40a15	-0.087909855
95	0x3d99e42e	0.07514225
96	0xbd71b6b2	-0.059012122
97	0x3e73369a	0.23751298
98	0xbbcde340	-0.006283194
99	0xbe237b8f	-0.15965103
100	0xbe787de0	-0.24266768
101	0xbdec6fb6	-0.11544745
102	0x3c6b5db3	0.014365601
103	0x3d5b9658	0.053610176
104	0xbdd7abd9	-0.10530824
105	0x3ceac219	0.028657006
106	0xbe0c706f	-0.13714765
107	0x3e56c9c8	0.20975411
108	0x3d3558f2	0.044274278
109	0x3d3e4e29	0.046461258
110	0xbe516ac0	-0.20450878
111	0xbe02669e	-0.12734458
112	0xbd3c943a	-0.046039797
113	0xbdbc10b5	-0.09182874
114	0x3d421709	0.04738525
115	0x3e2d3702	0.16915515
116	0x3dc29f35	0.095030226
117	0xbd32d332	-0.043658443
118	0xbd49a05e	-0.049225204
119	0xbdc0c50d	-0.094125845
120	0xbe6fd9fd	-0.23423
121	0xbe49bfe7	-0.19702111
122	0xbc2921f5	-0.010323037
123	0x3b838425	0.0040135556
124	0xbe5f3cef	-0.21800588
125	0xbe72e7e3	-0.2372127
126	0xbe605d0f	-0.21910499
127	0x3e391d30	0.1807754
128	0xbe572b0a	-0.21012512
129	0xbe381614	-0.17977172
130	0xbe244a7f	-0.16044043
131	0xbdb39066	-0.08767776
132	0xbd9ebdb1	-0.077510245
133	0x3e7aa22d	0.24475928
134	0x3e606700	0.21914291
135	0xbcffa393	-0.031205928
136	0x3d781883	0.06057025
137	0xbd118420	-0.035526395
138	0x3e3b16a3	0.18270354
139	0x3d5cd7e0	0.053916812
140	0xbe81229d	-0.2522172
141	0x3e75fa77	0.24021326
142	0xbde7ed70	-0.113245845
143	0x3dd71204	0.10501483
144	0x3c48ef34	0.012264062
145	0x3dab2ca7	0.08358126
146	0x3e229cc6	0.15880117
147	0xbdb51b65	-0.08843116
148	0xbe1b3166	-0.15155563
149	0xbc857de0	-0.016295373
150	0x3bc7cef0	0.006097667
151	0xbde6d2e5	-0.11270694
152	0xbe7fe9bc	-0.24991506
153	0xbd606fec	-0.054794237
154	0x3e40b6bd	0.18819709
155	0xbd0d9775	-0.03456827
156	0xbdb61fe1	-0.08892799
157	0xbe00eb7f	-0.12589835
158	0xbe2a9a72	-0.16660479
159	0x3e0c8ed1	0.13726355
160	0xbe29fb04	-0.16599661
161	0xbd329927	-0.04360309
162	0x3dae5979	0.08513159
163	0xbdab088c	-0.083512396
164	0xbe30733e	-0.17231461
165	0xbaf64958	-0.0018790169
166	0x3d1f8890	0.038948596
167	0xbdd813d8	-0.1055066
168	0xbe5110ca	-0.20416561
169	0x3dac34bc	0.08408496
170	0xbddb7afc	-0.10716817
171	0xbe489837	-0.19589315
172	0xbe12f07e	-0.14349553
173	0xbc1a9f53	-0.0094374
174	0x3e81e49f	0.25369737
175	0x3e4c1929	0.19931473
176	0x3e66f561	0.22554542
177	0xbd442d21	-0.0478946
178	0x3e80231d	0.2502679
179	0xbe1dbc19	-0.15403785
180	0x3e403984	0.1877194
181	0xb9ab455c	-0.00032667338
182	0xbe92417d	-0.2856559
183	0xbe55b3ae	-0.20869324
184	0xbe0c5938	-0.13705909
185	0x3c7c671a	0.015405441
186	0x3cea29cc	0.028584383
187	0x3e77d9b3	0.2420414
188	0xbe0e25ae	-0.13881561
189	0x3c2acb5e	0.010424463
190	0xbdab7352	-0.08371605
191	0x3e1e3e0d	0.15453358
192	0xbe48bd79	-0.19603528
193	0x3e03450f	0.12819313
194	0x3e7cb7b5	0.24679454
195	0xbe75cdfe	-0.24004361
196	0x3cf459cc	0.029827975
197	0xbd3ef26f	-0.04661792
198	0xbd87bfc1	-0.06628371
199	0x3d021c43	0.031765234
200	0x3e271b45	0.16318996
201	0x3e2cab27	0.16862164
202	0x3e220adb	0.15824454
203	0xbe73afcb	-0.23797528
204	0x3af5ba72	0.0018747582
205	0xbe236bc6	-0.15959081
206	0xbcf059f1	-0.029339762
207	0x3db88e5a	0.090115264
208	0xbe49bf1f	-0.19701813
209	0x3e04dd93	0.12975149
210	0xbe507b1f	-0.20359467
211	0xbe5a7782	-0.21334651
212	0xbc479608	-0.012181766
213	0x3cfb87ab	0.03070434
214	0xbdf6c9d6	-0.12050216
215	0xbd5cd24e	-0.0539115
216	0xbe4a91d2	-0.19782189
217	0xbe68db2b	-0.22739856
218	0xbdf7656d	-0.12079892
219	0x3e8c625b	0.2741879
220	0xbd8ea710	-0.069654584
221	0xbcb421f9	-0.021988856
222	0xbd7e82f2	-0.062136598
223	0x3e57240e	0.21009848
224	0x3d3623a0	0.04446757
225	0x3d32cd11	0.043652598
226	0xbe3e1343	-0.18562035
227	0xbc577000	-0.0131492615
228	0x3cc91015	0.024543801
229	0xbe5f090e	-0.21780798
230	0x3d69e53a	0.057103373
231	0xbe5cd0a1	-0.2156396
232	0x3dbc7c30	0.092033744
233	0x3dd6e486	0.10492806
234	0x3d88be30	0.066769004
235	0x3dbeaf43	0.09310772
236	0x3dacd855	0.084396996
237	0xbc3ab587	-0.011395819
238	0xbd49abc9	-0.049236093
239	0x3e453cfa	0.19261542
240	0x3e1f6463	0.15565638
241	0x3d066d90	0.03281933
242	0xbe4f07c8	-0.20217812
243	0x3e1b2430	0.15150523
244	0xbe0a8419	-0.13526954
245	0x3d717e40	0.058958292
246	0x3de15fe4	0.11004618
247	0x3dc2ef87	0.095183425
248	0x3dba8b2d	0.09108577
249	0xbd35d750	-0.04439479
250	0x3e784915	0.24246629
251	0xbdb0d6a9	-0.08634693
252	0xbda43106	-0.08017163
253	0xbe661a81	-0.22471048
254	0xbda141a4	-0.07873848
255	0xbe323412	-0.17402676

bias f4 [64]
0	0x3cca8831	0.024723144
1	0xbac9bb67	-0.0015390933
2	0xbc377986	-0.011198407
3	0x39accf72	0.00032960955
4	0xbc91d989	-0.017803924
5	0xbbac05bb	-0.0052497066
6	0x3c3f223d	0.011665878
7	0x3c4bc088	0.01243604
8	0x3c9df605	0.01928235
9	0xb964aa48	-0.00021807209
10	0x3b66a950	0.0035196133
11	0xbc167804	-0.009183887
12	0x3c2a072f	0.010377689
13	0x3cc97b4d	0.024594927
14	0xbc1f880e	-0.009737028
15	0x3bdb7fcf	0.0066985856
16	0x3be6667b	0.0070312596
17	0x3b871209	0.004122023
18	0xbca25581	-0.019816162
19	0xbc8ca085	-0.017166385
20	0xbbedce8e	-0.0072572893
21	0xbac8c2d9	-0.0015316858
22	0xbbf3a9b9	-0.007436004
23	0x3c4c3f16	0.012466213
24	0x3bbf3826	0.005835551
25	0x3c1c33d4	0.009533841
26	0x3cce7bb9	0.02520548
27	0x3cdd0114	0.026978053
28	0xbbef8573	-0.0073096096
29	0x3b8b6378	0.004253801
30	0x3cd001fa	0.025391567
31	0xbc505249	-0.012714931
32	0x3c5df964	0.013548229
33	0x3c49c5a8	0.012315191
34	0x3bf2d510	0.007410653
35	0xbc033382	-0.008007886
36	0x3bf6fc8b	0.0075374297
37	0xbc92ac11	-0.017904313
38	0x3c663a90	0.014052048
39	0x3c6c8258	0.014435373
40	0x3c9ca0b7	0.019119604
41	0xbb8fe332	-0.0043910975
42	0xbcb065f6	-0.021532994
43	0xbc94e520	-0.018175662
44	0xbb4ecf1b	-0.003155655
45	0xbb94513c	-0.0045262855
46	0x3c5bae90	0.013408318
47	0xbc58ed81	-0.013240219
48	0x391eb3e7	0.00015135073
49	0x3ab5f09b	0.001388091
50	0xbb950fb6	-0.004548992
51	0x3ce3f9eb	0.027829131
52	0xbc53d40e	-0.012928976
53	0xbc8b7aab	-0.017026266
54	0x3c57b799	0.013166332
55	0x3c069f5b	0.008216704
56	0x3bccb0b2	0.0062466497
57	0xbc498b25	-0.012301241
58	0x3b5e66b5	0.003393573
59	0xbd1a9f7d	-0.037749756
60	0xbc947e88	-0.018126741
61	0x3cf84022	0.030304018
62	0xbc994868	-0.018711284
63	0xbcdc23d5	-0.026872555

weight f4 [3, 768]
0	0xbd883fd8	-0.06652802
1	0x3d5b2dc3	0.05351044
2	0xbd3c3538	-0.04594919
3	0xbd90c05c	-0.0706794
4	0xbc6fe7be	-0.014642654
5	0x3b2face3	0.002680593
6	0xbd682002	-0.05667115
7	0xbd989494	-0.07450214
8	0xbdb29f34	-0.08721772
9	0xbd4c14f1	-0.04982466
10	0x3bf60b2d	0.0075086565
11	0xbd484632	-0.04889507
12	0x3d01ce03	0.03169061
13	0x3d1760ab	0.036957424
14	0xbd8e47df	-0.06947302
15	0xbcb06c4e	-0.021536019
16	0xbd5ba5b4	-0.053624824
17	0xbcba1d42	-0.02271903
18	0x3d26e0af	0.04074162
19	0xbd78e639	-0.060766432
20	0x3cf15d57	0.029463453
21	0x3d2bc669	0.041937266
22	0xbc4245a4	-0.011857424
23	0xbdae0010	-0.08496106
24	0x3c70aa3a	0.014689023
25	0xbc8ab86d	-0.016933644
26	0xbad23b00	-0.0016039312
27	0x3cff6def	0.03118035
28	0xbc4309ba	-0.011904174
29	0xbca0093a	-0.01953565
30	0xbbb1e7ed	-0.005429259
31	0xbce599df	-0.028027473
32	0x3cce1d13	0.025160348
33	0xbd5d0c44	-0.053966776
34	0xbd655fa1	-0.055999402
35	0xbca26abd	-0.019826287
36	0xbdc18c61	-0.09450603
37	0x3c2c0651	0.010499553
38	0x3cff9545	0.031199107
39	0x3ccea2a3	0.025224036
40	0xbca13ac4	-0.019681342
41	0x3c8e6902	0.017384056
42	0x3caebd49	0.021330493
43	0xbcb4b06b	-0.022056779
44	0x3d7bad42	0.06144453
45	0xbd7f5c07	-0.062343623
46	0x3d14a554	0.03629048
47	0xbdb6a721	-0.08918596
48	0xbd3b1fc1	-0.04568458
49	0x3d8b6975	0.06807224
50	0x3d81f6d6	0.06345908
51	0xbd9977d1	-0.07493556
52	0x3d84dcfd	0.06487463
53	0xbd9e68de	-0.077348456
54	0xbd541941	-0.051781897
55	0x3d96aa73	0.07356729
56	0x3c9976f0	0.018733472
57	0xbd713430	-0.05888766
58	0x3b0e1adb	0.0021683488
59	0xbccc8bc8	-0.024968997
60	0x3d7a2a0e	0.061075263
61	0xbba3c774	-0.004998142
62	0xbd6b9dbd	-0.057523478
63	0xbc11124a	-0.008854458
64	0xbdb79f10	-0.08965886
65	0xbd8fdf4d	-0.07025013
66	0x3d83c589	0.06434161
67	0x3d584316	0.052798353
68	0x3d03c677	0.032171693
69	0xbda9190a	-0.08256729
70	0x3d99e6c9	0.07514722
71	0xbd8d6a70	-0.06905067
72	0x3d885be6	0.06658153
73	0x3b830b88	0.0039991774
74	0x3d6f39cb	0.058404725
75	0x3d697005	0.056991596
76	0xbcae9863	-0.021312898
77	0xbd058fc4	-0.03260781
78	0xbd2dbdd9	-0.04241738
79	0xbd368726	-0.04456248
80	0x3c5b8f5a	0.013400877
81	0xbd8a831c	-0.067632884
82	0x3b243c01	0.002506018
83	0x3d0d2573	0.034459542
84	0xbd8005f8	-0.062511384
85	0xb8be4521	-9.072782e-05
86	0xbd04faa0	-0.032465577
87	0x3d5f30d8	0.05448994
88	0xbd82d2e6	-0.06387882
89	0x3dafef78	0.08590597
90	0x3c1a538f	0.009419336
91	0xbc761d11	-0.015021578
92	0xbd534d02	-0.051587112
93	0x3d560136	0.05224725
94	0x3d2b5153	0.041825604
95	0x3d736697	0.05942401
96	0xbd8ed4aa	-0.06974156
97	0xbc761e3a	-0.015021855
98	0xbc901c1c	-0.017591529
99	0x3cd6c9cf	0.026219277
100	0xbd385e37	-0.045011725
101	0x3d382780	0.044959545
102	0x3c431bf3	0.011908519
103	0x3cf75f69	0.030196862
104	0x3ba0fc78	0.004912909
105	0xbce7058a	-0.028200883
106	0x3c5e8f15	0.013583918
107	0x3cc6fd4f	0.024290709
108	0xbb68d93b	-0.003552987
109	0xbda48968	-0.08034021
110	0xbcf0d142	-0.029396657
111	0x3d7db32d	0.061938453
112	0xbd259e97	-0.040434446
113	0xbd789496	-0.060688578
114	0xbcfa7ca1	-0.030577006
115	0x3d26de95	0.040739615
116	0xbc5987eb	-0.013277034
117	0xbc0e2208	-0.008675106
118	0xbdcb982a	-0.09941132
119	0xbd25be8c	-0.040464923
120	0x3d715346	0.058917306
121	0x3cfcbc46	0.030851495
122	0xbd6b6e2e	-0.057478122
123	0xbd515c5d	-0.051113475
124	0xbd84e11a	-0.06488247
125	0xbba1a0f4	-0.004932517
126	0xbd0d5a12	-0.034509726
127	0xbd15b880	-0.036552906
128	0xbd97d706	-0.07414059
129	0xbbc8ad42	-0.0061241696
130	0xbccb3d75	-0.024809578
131	0x3d4548d3	0.048165154
132	0xbd91db41	-0.071218975
133	0x3cfd1294	0.030892648
134	0x3d87a637	0.066235
135	0x3d1c55f8	0.038167924
136	0x3cea6b19	0.028615521
137	0xbd629a91	-0.055323187
138	0x3d9267ca	0.071487024
139	0x3d75cc48	0.06000927
140	0xbd7470de	-0.05967795
141	0x3cb85c12	0.02250484
142	0x3ab1b42b	0.0013557723
143	0xbb909ce1	-0.0044132327
144	0x3c4c2c76	0.012461772
145	0x3d49003d	0.049072493
146	0xbdded013	-0.10879531
147	0xbd9167ed	-0.070999004
148	0xbc941c74	-0.018079974
149	0xbc3269d6	-0.010889491
150	0x3d1659c6	0.03670671
151	0xbda43f2b	-0.08019861
152	0xbd93e4db	-0.07221385
153	0xbd2dceaf	-0.042433437
154	0xbd679c19	-0.05654535
155	0xbc398e3a	-0.011325413
156	0xbd3a3bc2	-0.045467146
157	0x3c230936	0.0099509265
158	0xbc81022f	-0.015748112
159	0x3da4943c	0.08036086
160	0xbd1da54e	-0.038487725
161	0x3a10ba4a	0.00055209233
162	0xbd924fc7	-0.071441226
163	0xbd8cae7e	-0.06869219
164	0xbd9a4d30	-0.075342536
165	0xbda96c4e	-0.082726106
166	0x3d0f1f65	0.03494205
167	0xbcee0b33	-0.029058075
168	0xba2f7fb4	-0.00066947495
169	0xbd8790cd	-0.066194154
170	0x3cae6603	0.021288877
171	0xbb16eadc	-0.002302817
172	0xbd2ae057	-0.041717853
173	0xbd226713	-0.03964908
174	0x3cd8d04f	0.026466517
175	0x3c816119	0.01579337
176	0xbd7a7621	-0.061147813
177	0xbdbb887b	-0.09156891
178	0x3c69b246	0.014263695
179	0xbb0cdcad	-0.0021493838
180	0xbd82c1a0	-0.06384587
181	0x3c9962d4	0.018723883
182	0x3c80076a	0.015628535
183	0xbdbc6c82	-0.09200384
184	0xbd5ef2f5	-0.05443092
185	0xbcf7d798	-0.03025417
186	0x3d0a0a32	0.03370113
187	0xbcf4a749	-0.029864924
188	0x3d8d0fe0	0.068877935
189	0x3d3bf334	0.045886233
190	0x3d9c9e9a	0.07647438
191	0x3cf80379	0.030275093
192	0x3b633fd9	0.0034675507
193	0xbdaae12e	-0.08343731
194	0xbd88f4d9	-0.06687326
195	0x3d88d716	0.066816494
196	0x3dc3f536	0.09568255
197	0x3d023d50	0.031796753
198	0x3d50d91c	0.0509883
199	0xbd970891	-0.07374681
200	0x3d234f03	0.039870273
201	0xbd862c73	-0.06551447
202	0xbd3bc3a2	-0.045840867
203	0x3cb543af	0.022127
204	0xbdda0c7d	-0.10646913
205	0x3cd02985	0.025410423
206	0x3c60cdbc	0.013720926
207	0xbc8fe4d6	-0.017565172
208	0x3d271f7b	0.040801506
209	0x3cb50d62	0.022101108
210	0x3d1ae33c	0.037814364
211	0x3dad2a2f	0.084553115
212	0x3ac1a6f2	0.0014774485
213	0x3c8df28b	0.017327568
214	0x3d66a584	0.05631019
215	0xbd843d53	-0.06457009
216	0x3be6d26f	0.0070441286
217	0x3c6e6409	0.014550217
218	0x3d559b3c	0.052149996
219	0x3d7f99da	0.062402584
220	0x3cafb4e8	0.021448568
221	0x3d5be701	0.0536871
222	0xbd29cb11	-0.041453425
223	0x3cd78b7d	0.02631163
224	0x3d89a8ae	0.06721626
225	0xbcdef336	-0.027215581
226	0x3d7b704b	0.061386388
227	0xbd46496b	-0.04840986
228	0x3cbd7282	0.02312589
229	0xbddbb2b0	-0.10727441
230	0x3d779062	0.06044043
231	0x3ccf68ff	0.02531862
232	0x3d9ef280	0.07761097
233	0x3d8b84e2	0.06812455
234	0x3d6f8496	0.058476053
235	0xbd9460e2	-0.072450414
236	0x3bbdfa26	0.0057976423
237	0xbd9af817	-0.07566851
238	0x3d15f88e	0.036613993
239	0x3da1d7a7	0.079024605
240	0xbd2a2222	-0.041536458
241	0xbcabd5cc	-0.02097597
242	0x3db506e1	0.08839203
243	0xbca0b0f7	-0.019615633
244	0xbcd030ea	-0.025413949
245	0x3d9b67fa	0.07588191
246	0xbaf2cd74	-0.0018524365
247	0xbd6f454b	-0.058415692
248	0xbda2c1b4	-0.07947102
249	0xbdb52ca3	-0.088464044
250	0x3cbc798c	0.023007177
251	0x3d80b3eb	0.06284317
252	0x3d73bc2d	0.05950563
253	0xbd612de2	-0.054975398
254	0x3d6e6d3f	0.058209654
255	0x3d131ab5	0.03591414

bias f4 [3]
0	0xbc9112c1	-0.017709138
1	0x3a931252	0.001122067
2	0x3c1f2523	0.009713444

weight f4 [3, 768]
0	0xbcf6a3ff	-0.030107496
1	0xbd4d1c48	-0.0500758
2	0xbd884479	-0.06653685
3	0xbd54d1f6	-0.051958047
4	0x3d609a0d	0.054834414
5	0x3d32fb74	0.043696836
6	0xbcc57f8b	-0.024108669
7	0x3d603220	0.054735303
8	0x3da19494	0.07889667
9	0x3db82a14	0.08992401
10	0xbd5f3cf0	-0.054501474
11	0x3d6e30a6	0.058151864
12	0xbd10108d	-0.035172034
13	0xbdb89481	-0.090127
14	0x3da37512	0.07981314
15	0xbd8acf7a	-0.06777854
16	0xbd91af62	-0.0711353
17	0x3d8ef4af	0.069802634
18	0x3da26504	0.079294235
19	0xbda57e69	-0.080807514
20	0x3d5efb8a	0.054439105
21	0x3d77e88a	0.0605245
22	0xbc9a8355	-0.018861452
23	0xbd97b55c	-0.074076384
24	0xbc1caab9	-0.009562188
25	0x3ba76428	0.005108375
26	0x39b02406	0.00033596175
27	0x3c644be1	0.013934107
28	0xbc532ca0	-0.012889057
29	0xbbd8b00b	-0.006612783
30	0x3c193c84	0.009352807
31	0xbc9e4961	-0.0193221
32	0xbda3dfa3	-0.0800164
33	0x3d972dbd	0.07381771
34	0xbd88cd0e	-0.06679736
35	0x3d9142fe	0.07092856
36	0x3d3e4db0	0.046460807
37	0xbbedcfa3	-0.0072574182
38	0xbd889729	-0.066694565
39	0xbd410773	-0.047126245
40	0x3d169948	0.036767274
41	0x3d43ac68	0.04777184
42	0xbd3598e8	-0.044335276
43	0x3d668393	0.056277823
44	0xbd9438e3	-0.07237413
45	0x3d14f44e	0.0363658
46	0x3da7b4cb	0.081887804
47	0x3cae9e3b	0.021315685
48	0x3b04084e	0.0020146552
49	0xbd38a2b4	-0.04507704
50	0xbd90f70e	-0.07078372
51	0xbdb0997f	-0.08623027
52	0x3c5d6423	0.013512644
53	0xbd044b04	-0.032298103
54	0xbdbe1dcf	-0.09283029
55	0xbd795fb8	-0.0608823
56	0xbda8b0c7	-0.082368426
57	0x3dd35c82	0.10320379
58	0xbd8fc6a3	-0.07020309
59	0xbcf1774c	-0.02947583
60	0x3dc85081	0.0978098
61	0xbbbc8e44	-0.005754264
62	0x3d8be27d	0.068303086
63	0xbd9be29e	-0.07611583
64	0x3c40da1e	0.011770753
65	0x3c235a46	0.009970253
66	0xbd6e833b	-0.05823062
67	0x3caa9e56	0.020827454
68	0x3d1e3c3c	0.038631663
69	0xbc655b8d	-0.013998878
70	0x3d903588	0.0704146
71	0x3cde067b	0.0271027
72	0x3d9ce6fd	0.07661245
73	0x3da9bd62	0.08288075
74	0xbcc6faf0	-0.024289578
75	0xbd864ce6	-0.06557636
76	0x3cdcbcb4	0.02694545
77	0x3b1c1fb1	0.00238226
78	0xbd386287	-0.045015838
79	0x3c9d75ee	0.019221272
80	0xbd92bd2b	-0.07164987
81	0xbd602778	-0.05472514
82	0x3c0097ba	0.007848674
83	0x3d8cd44a	0.068764284
84	0xbdac3b27	-0.0840972
85	0x3d598642	0.053106554
86	0xbddba8f7	-0.10725587
87	0xbd39e655	-0.045385677
88	0x3d73be75	0.059507806
89	0xbdcb7e5c	-0.099362105
90	0x3ce5cb47	0.028051032
91	0xbd82a9d9	-0.06380052
92	0xbdbaf799	-0.09129257
93	0x3d8dd2b5	0.06924955
94	0xbd847f03	-0.06469538
95	0xbd1fd619	-0.03902254
96	0x3c0958c8	0.0083829835
97	0xbd9c600b	-0.07635506
98	0xbc710ba1	-0.014712245
99	0xba7c48bc	-0.00096238754
100	0xbb975c82	-0.004619182
101	0xbd7379e9	-0.059442434
102	0x3c57ec7a	0.013178939
103	0xbdbc7c19	-0.09203357
104	0x3ddc0c81	0.107445724
105	0xbda21801	-0.07914735
106	0x3d754b84	0.05988647
107	0x3d672ac4	0.05643727
108	0xbb2da44b	-0.0026495631
109	0xbd6a0147	-0.057130124
110	0xbb81e15e	-0.0039636334
111	0xbd47eae6	-0.048808
112	0xbda47e24	-0.08031872
113	0x3d947e2f	0.0725063
114	0x3da43ae4	0.08019045
115	0x3d2d544a	0.042316712
116	0x3d9996a6	0.07499437
117	0xbba1ab9e	-0.0049337884
118	0xbd518251	-0.05114967
119	0x3dd19e4b	0.1023527
120	0x3b927ab9	0.004470196
121	0xbd091d56	-0.033475243
122	0x3b82ec8a	0.003995483
123	0x3d9a485f	0.07533335
124	0xbda54516	-0.08069818
125	0xbd1fe536	-0.039036952
126	0xbc712c1b	-0.014719988
127	0x3d0b2738	0.03397295
128	0x3d4ce83b	0.05002616
129	0x3d45b264	0.04826583
130	0xbd35f297	-0.044420805
131	0xbd20f18e	-0.039292865
132	0x3d932e01	0.07186509
133	0xbb481e44	-0.0030535618
134	0x3b0d2865	0.002153897
135	0x3d123f79	0.035705063
136	0x3d733778	0.05937907
137	0xbd5e9d66	-0.054349326
138	0x3d6ea4fe	0.058262818
139	0xbd85131e	-0.06497787
140	0x3c4fa31d	0.012673167
141	0x3d22253c	0.03958629
142	0xbcd5b750	-0.026088387
143	0x3c11c9b6	0.008898189
144	0xbdadc2ea	-0.084844425
145	0xba030ac9	-0.00049988605
146	0xbd4d4b5b	-0.050120693
147	0xbd4163e6	-0.04721441
148	0xbb20b20d	-0.002452019
149	0xbaea1099	-0.001785773
150	0x3ca73224	0.020409651
151	0x3d954bda	0.07289858
152	0x3bafec01	0.00536871
153	0xbd37d45a	-0.04488025
154	0x3d267ec4	0.040648237
155	0x3bc5d942	0.006037862
156	0xbdb88e08	-0.09011465
157	0x3d177589	0.036977325
158	0xbda17a98	-0.07884711
159	0xbcb02a52	-0.021504555
160	0x3b54beaa	0.0032462277
161	0x3d0e08a6	0.034676217
162	0xbda04b44	-0.07826856
163	0xbdc928dd	-0.09822247
164	0xbdaede09	-0.085384436
165	0x3d86a7b0	0.065749526
166	0xbd712753	-0.058875393
167	0x3c265563	0.010152194
168	0x3dbf3f3e	0.09338234
169	0xbcad64e4	-0.021166272
170	0x3d685dcb	0.056730073
171	0x3d05a30c	0.032626197
172	0xbca7f579	-0.020502793
173	0xbd654239	-0.055971358
174	0xbdc2df14	-0.09515205
175	0x3c7c3c49	0.0153952325
176	0x3d86a5a2	0.06574561
177	0x3da59a00	0.08086014
178	0x3cd2df43	0.025741225
179	0x3bbe78f9	0.005812761
180	0x3c3d167f	0.011541008
181	0xbd9f00e5	-0.077638425
182	0x3d0dada1	0.034589414
183	0xbd273c34	-0.0408289
184	0xbd75a41d	-0.059970964
185	0x3c0300ba	0.007995779
186	0xbce7883f	-0.02826321
187	0xbc5c686e	-0.013452632
188	0x3da49272	0.08035745
189	0x3c93d5e7	0.018046333
190	0x3cf0f0d8	0.029411718
191	0xbd948737	-0.07252353
192	0x3d024ee3	0.031813513
193	0xbca799f9	-0.020459162
194	0x3d379ffa	0.0448303
195	0xbd428aae	-0.047495537
196	0xbdc4c9df	-0.09608816
197	0x3ce35e8f	0.02775505
198	0x3c369c59	0.011145675
199	0xbda2c8e1	-0.07948471
200	0x3d502955	0.050820667
201	0xbd15a2b4	-0.03653212
202	0x3cd1a5fd	0.025591845
203	0x3db3fdb1	0.08788622
204	0x3bcfa455	0.0063367286
205	0xbd4a4768	-0.049384505
206	0x3da6ad63	0.0813854
207	0x3d2cb155	0.042161305
208	0xbd190840	-0.037361383
209	0x3c592133	0.013252544
210	0xbda42c72	-0.0801629
211	0xbd9e7e35	-0.07738916
212	0xbd8a83c7	-0.06763416
213	0xbd4b0fdd	-0.049575675
214	0xbd3072f4	-0.043078378
215	0x3cefda2a	0.029278833
216	0xbc1f3ecb	-0.009719561
217	0xbd12918f	-0.035783347
218	0x3d1845d7	0.03717598
219	0x3daa1545	0.08304838
220	0x3a5a5bd3	0.0008329723
221	0xbca964d9	-0.02067797
222	0xbd6ccd9a	-0.057813264
223	0xbd84511e	-0.064607844
224	0x3d66e40b	0.056369822
225	0xbd94b05b	-0.072602
226	0xbb8bfd87	-0.004272166
227	0x3d11673f	0.035498854
228	0xbdc148e4	-0.09437731
229	0x3d348c57	0.04407915
230	0x3d92e277	0.07172101
231	0x3c9268ca	0.017872233
232	0x3cf99377	0.030465825
233	0xbca96343	-0.020677214
234	0xbcc9282c	-0.024555288
235	0xbc93e4e5	-0.018053481
236	0x3da5b031	0.080902465
237	0x3d4e40e8	0.05035487
238	0xbc4cd17e	-0.012501119
239	0xbd6ac511	-0.057316843
240	0xbd6adb03	-0.057337772
241	0x3c42e625	0.011895691
242	0x3d170659	0.036871288
243	0x3d03b523	0.032155167
244	0x3db13993	0.086535595
245	0xbcf4dfbb	-0.02989184
246	0xbc976dae	-0.018484917
247	0x3d9fc6b8	0.078015745
248	0xbd74aaee	-0.059733324
249	0xbc5f4c86	-0.013629084
250	0xbd78aa77	-0.060709443
251	0xbd4b21a0	-0.049592614
252	0xbd2f55c9	-0.04280642
253	0xbd11febd	-0.035643328
254	0xbd18cb15	-0.03730305
255	0xbdc451de	-0.095859274

bias f4 [3]
0	0xbcae2b6e	-0.021260943
1	0xbd125e23	-0.035734307
2	0xbc7cc1af	-0.015427037

weight f4 [768, 3]
0	0xbf94cd28	-1.1625109
1	0x3e8cd129	0.27503327
2	0x3f8f64fc	1.1202693
3	0x3f8e120a	1.1099255
4	0x3f86eab7	1.0540379
5	0x3f4836ac	0.7820842
6	0x3eec4706	0.46147937
7	0xbefe7d78	-0.497051
8	0x3f372c12	0.7155162
9	0xbf12ada2	-0.5729619
10	0xbf91680e	-1.135988
11	0x3d29d817	0.041465845
12	0x3f9d19a3	1.2273449
13	0xbf1030e2	-0.5632459
14	0x3f073e64	0.52829576
15	0xbedffb12	-0.4374624
16	0xbfac5248	-1.346261
17	0x3e9af697	0.30266258
18	0x3f8c922e	1.098211
19	0x3fa5aa46	1.2942588
20	0xbf95119e	-1.1646001
21	0x3f66f2a9	0.9021402
22	0x3f4d382c	0.80163836
23	0x3fa4ce2b	1.2875417
24	0x3e7fea75	0.24991782
25	0xbf3bc0dc	-0.73341155
26	0x3f6a98fb	0.9163968
27	0x3d554e7c	0.0520768
28	0xbfafdf6f	-1.3740062
29	0x3fa63516	1.298495
30	0x3f1a803f	0.6035194
31	0x3f0f4960	0.55971336
32	0x3fa64505	1.2989813
33	0x3f571686	0.84018743
34	0x3d363157	0.044480648
35	0xbde9dfdf	-0.11419653
36	0x3de0f9a9	0.10985119
37	0x3fa71cfe	1.3055723
38	0xbfadb51e	-1.3570898
39	0x3eafd4dc	0.34342086
40	0x3fb66c25	1.4251753
41	0x3f5102ec	0.81645083
42	0x3fa4f88b	1.2888349
43	0x3f0ae2c0	0.54252243
44	0x3f50fe37	0.816379
45	0x3f9f1bda	1.2430375
46	0x3f8de721	1.108616
47	0x3e4c528b	0.19953363
48	0x3f1bc1f5	0.6084283
49	0x3f9492ff	1.160736
50	0x3f9c0ad5	1.2190806
51	0x3fa595fd	1.2936398
52	0xbef4f19e	-0.4784059
53	0xbec67e04	-0.38768017
54	0x3f5a7f79	0.8535076
55	0x3f063198	0.52419424
56	0xbf22dd3e	-0.6361884
57	0x3f4a2f6b	0.78978604
58	0xbfb1bf7a	-1.3886559
59	0x3d6fdeca	0.058562078
60	0x3f49a0de	0.7876109
61	0x3f93eaa2	1.1555979
62	0x3f814b31	1.0101072
63	0xbf62291b	-0.8834397
64	0x3f44fcb8	0.7694812
65	0x3efdc6e6	0.4956581
66	0x3d5f30a2	0.05448974
67	0xbf526eaf	-0.8220014
68	0xbf87ebf5	-1.0618883
69	0xbf3b2c3d	-0.7311438
70	0xbf88ada8	-1.0677996
71	0x3f34d66e	0.70639694
72	0x3f2e7762	0.68150914
73	0x3ceaafec	0.02864834
74	0xbf0a3310	-0.53984165
75	0xbbb48960	-0.0055095404
76	0x3d0ba639	0.03409407
77	0xbef336b6	-0.4750268
78	0x3fabc5de	1.3419759
79	0x3d2947d7	0.041328277
80	0x3f7ba828	0.9830346
81	0x3ef85fd0	0.485106
82	0xbe922720	-0.28545475
83	0x3f04e824	0.5191672
84	0x3f792483	0.9732134
85	0xbeb56167	-0.35425875
86	0x3f97bae5	1.1853911
87	0xbf970c99	-1.180072
88	0xbd6fb98c	-0.05852656
89	0x3f6e1e26	0.9301475
90	0x3f691769	0.91051346
91	0x3f8ea799	1.1144897
92	0x3e8d022b	0.27540717
93	0xbe546217	-0.20740543
94	0xbf0d4a87	-0.55191845
95	0xbfad4c33	-1.3538879
96	0x3f0e18d8	0.5550666
97	0xbf9f3d1a	-1.2440522
98	0xbebc82cb	-0.36818537
99	0xbd59874b	-0.05310754
100	0xbe349021	-0.17633106
101	0xbf573894	-0.84070706
102	0xbf847dd9	-1.0350906
103	0xbe108a7c	-0.14115328
104	0x3f09b7e3	0.53796214
105	0xbf465041	-0.7746621
106	0xbf8689d0	-1.0510807
107	0xbf46c72d	-0.7764767
108	0xbdeffb42	-0.117178455
109	0xbe1f14d0	-0.15535283
110	0x3fb688c9	1.4260494
111	0xbfa1044b	-1.2579435
112	0xbcfaf803	-0.03063584
113	0x3f76775d	0.96275884
114	0xbf21f40e	-0.6326302
115	0x3e9be842	0.30450636
116	0xbf6ce183	-0.92531604
117	0x3e8c9e6d	0.2746462
118	0xbcf3ce5f	-0.029761491
119	0xbed3351d	-0.4125146
120	0x3f9f9695	1.2467829
121	0x3d01cbb8	0.031688422
122	0xbe66936a	-0.22517172
123	0xbf68c080	-0.9091873
124	0x3dbcc519	0.09217281
125	0xbf9a22d3	-1.2041878
126	0xbf8a8031	-1.0820371
127	0xbf9a2e4f	-1.2045382
128	0xbfa18ddb	-1.2621416
129	0x3fa30204	1.273499
130	0xbf4b66ac	-0.7945354
131	0xbf912951	-1.1340734
132	0xbf5a9faf	-0.8539991
133	0x3f8b2630	1.0871029
134	0xbefd6e83	-0.49498376
135	0x3e531871	0.20614792
136	0x3fa1c434	1.2638001
137	0x3eb8eb58	0.36117053
138	0x3f73f06f	0.9528875
139	0xbf5f5673	-0.87241286
140	0xbf58b408	-0.84649706
141	0xbf3f7bf5	-0.7479852
142	0xbe012161	-0.1261039
143	0xbe8dd5a3	-0.27702054
144	0x3f61a4e9	0.8814226
145	0xbfabdd9d	-1.3427006
146	0xbf138a02	-0.5763246
147	0x3df919c0	0.121631145
148	0xbf2de1c7	-0.67922634
149	0xbf58f80a	-0.8475348
150	0xbeb00610	-0.34379625
151	0x3f87dd7b	1.0614465
152	0xbf6ea005	-0.9321292
153	0x3f67de09	0.90573174
154	0x3eecd5c9	0.46256855
155	0x3f5aa490	0.8540735
156	0x3df2f373	0.118628405
157	0x3f92effe	1.147949
158	0xbf36eb3a	-0.7145268
159	0x3f6ecf91	0.9328547
160	0xbfb928b6	-1.4465549
161	0xbf013d35	-0.5048402
162	0xbf9e693d	-1.2375866
163	0xbfb68b2f	-1.4261225
164	0x3e9bccb8	0.30429626
165	0x3f8005d7	1.0001782
166	0xbf25d081	-0.64771277
167	0x3e5fb1e1	0.21845199
168	0xbf96abc3	-1.1771168
169	0x3f7e44cb	0.9932372
170	0x3f8f791c	1.1208835
171	0xbefb3855	-0.49066415
172	0xbd8b4231	-0.067997344
173	0xbe0b13e5	-0.13581808
174	0x3f7e73a5	0.9939521
175	0x3f53955c	0.8264978
176	0xbe829090	-0.25500917
177	0x3fa31793	1.2741569
178	0xbeb95c31	-0.3620315
179	0x3f8de709	1.1086131
180	0x3f87ce6b	1.0609869
181	0x3f477ded	0.7792652
182	0x3f8987c4	1.0744557
183	0xbe23a0ec	-0.15979356
184	0xbeae039c	-0.3398713
185	0xbf3a3380	-0.7273483
186	0x3f3b8d3e	0.73262393
187	0x3f236d4f	0.63838667
188	0x3f364b6b	0.7120883
189	0xbf9a9fe7	-1.2080048
190	0x3e306769	0.17226948
191	0x3df81b27	0.12114554
192	0xbf0cee2d	-0.5505093
193	0x3fa27050	1.2690525
194	0x3f88b237	1.0679387
195	0xbebb79d1	-0.36616376
196	0xbd200080	-0.039062977
197	0xbfaf914c	-1.3716216
198	0x3fa28741	1.2697526
199	0x3f4dda41	0.80411154
200	0x3f1d702c	0.61499286
201	0xbf920f3b	-1.1410898
202	0x3e9dd6fa	0.30828077
203	0x3f3b3885	0.73133117
204	0xbdd3c648	-0.103405535
205	0xbe82666f	-0.25468776
206	0x3f1b4651	0.6065417
207	0x3f76ffc1	0.96484
208	0x3f322404	0.69586205
209	0xbfa3682e	-1.2766168
210	0x3f3e63cb	0.7437102
211	0xbe33a77a	-0.17544356
212	0xbfa4c1a6	-1.2871597
213	0xbf4e6507	-0.80622905
214	0xbe9e2c1f	-0.30893037
215	0xbe382d49	-0.17986025
216	0xbf86af19	-1.0522186
217	0x3f765271	0.96219546
218	0xbf870daf	-1.0551051
219	0x3e60c77c	0.21951097
220	0x3f04811a	0.51759493
221	0xbf77d668	-0.9681153
222	0xbf92343a	-1.1422188
223	0x3e9092d3	0.28237018
224	0xbf78d594	-0.97200894
225	0xbee7177a	-0.451351
226	0x3fac1b5d	1.3445851
227	0x3f3f34fa	0.7469021
228	0x3ea57620	0.32316685
229	0x3effd8bf	0.49970052
230	0xbf307a88	-0.6893697
231	0xbf94b9e0	-1.1619225
232	0x3fa9a783	1.3254246
233	0xbf0f3e33	-0.55954283
234	0xbf18a6e1	-0.59629637
235	0xbf670268	-0.90238047
236	0x3ee446d1	0.4458528
237	0xbed670a4	-0.41882813
238	0xbf309848	-0.6898236
239	0x3f507850	0.8143358
240	0xbf6952c9	-0.91141945
241	0xbe1acd81	-0.15117456
242	0x3f547b1d	0.83000356
243	0x3f3e5f56	0.7436422
244	0x3fa1ac1a	1.2630646
245	0xbf4e096e	-0.8048314
246	0xbf46443d	-0.77447873
247	0x3ea9847e	0.33108896
248	0x3f5b472d	0.8565548
249	0x3e4ff1b9	0.20307054
250	0x3fb85c3e	1.440315
251	0x3ed17d2a	0.40915805
252	0x3f8e003f	1.1093825
253	0xbf93090b	-1.1487135
254	0x3f8415d1	1.0319158
255	0x3d1c5e7f	0.038176056

bias f4 [768]
0	0xbd8fd62e	-0.070232734
1	0xbdacded1	-0.08440936
2	0x3cd57392	0.026056085
3	0xbd81e853	-0.063431405
4	0x3dc92de8	0.09823209
5	0x3dc5a0d0	0.09649813
6	0xbd6eac9a	-0.058270074
7	0x39b968cf	0.00035364038
8	0xbb0bad17	-0.0021312886
9	0x3c494994	0.012285609
10	0xbcb41771	-0.021983834
11	0x3d3646e3	0.044501197
12	0x3c8cbfc5	0.017181287
13	0x3d1e00f2	0.03857512
14	0x3d84fd2d	0.06493602
15	0x3d294181	0.041322235
16	0x3db8369b	0.0899479
17	0x3d36a547	0.044591215
18	0x3d167cd6	0.036740147
19	0x3d32a84c	0.04361753
20	0x3ba0d7a6	0.00490852
21	0xbd350b94	-0.044200495
22	0xbd90e2a0	-0.07074475
23	0xbca8f81d	-0.020626122
24	0x3d809297	0.0627796
25	0x3dc02d04	0.09383586
26	0x3c7e2fd5	0.015514334
27	0x3dae36bf	0.08506536
28	0x3d1cde3f	0.038297888
29	0xbdc0f3c7	-0.09421497
30	0x3dcc7eb7	0.099851064
31	0x3d634a89	0.055491004
32	0xbc599c31	-0.013281868
33	0xbd212098	-0.039337724
34	0xbd2d9e46	-0.04238727
35	0xbd799065	-0.06092872
36	0x3d0cd664	0.034384146
37	0x3d9ccb6a	0.07655986
38	0x3d3b1f3b	0.04568408
39	0x3d973f6b	0.07385143
40	0x3d4c9f91	0.049956862
41	0xbdda8410	-0.1066972
42	0x3ddb8571	0.10718811
43	0x3d920c76	0.07131283
44	0x3a0e2173	0.00054218544
45	0xbd076c35	-0.03306218
46	0xbd0b5596	-0.034017168
47	0xbd9efcc3	-0.07763054
48	0x3c1c81f9	0.009552472
49	0xbce62a3e	-0.028096315
50	0x3d31ab3b	0.04337619
51	0xbd60858f	-0.05481487
52	0x3dceb95b	0.100939475
53	0x3d929d83	0.07158949
54	0x3dad7933	0.084703825
55	0x3d8a59d9	0.06755418
56	0xbd5b374f	-0.053519543
57	0xbd68214c	-0.05667238
58	0xbc6c065d	-0.014405814
59	0x3aea27a4	0.0017864597
60	0x3d72b71a	0.05925665
61	0x3d7599f2	0.059961267
62	0x3c9a11d8	0.018807337
63	0x3c86aa89	0.01643874
64	0xbd503241	-0.050829176
65	0xbd8f068d	-0.06983671
66	0xbc8bc575	-0.017061928
67	0xbccbe577	-0.02488969
68	0x3c985d53	0.018599188
69	0xbd03fa78	-0.032221287
70	0x3dcb573e	0.099287495
71	0xbc28bf5b	-0.010299529
72	0x3c3249b4	0.01088183
73	0xbb934621	-0.004494444
74	0xbd951315	-0.0727903
75	0xbd178588	-0.03699258
76	0xbdadbccf	-0.08483278
77	0xbdd3ed06	-0.10347943
78	0xbdcbfee6	-0.099607274
79	0x3aeb755e	0.0017964055
80	0xbcb034ce	-0.021509554
81	0x3c9b56cf	0.018962292
82	0x3c6c4124	0.014419828
83	0x3d753fe6	0.05987539
84	0xbd833be8	-0.064079106
85	0xbd8514ec	-0.06498131
86	0xbba22f25	-0.0049494677
87	0xbca9a172	-0.020706866
88	0x3d3eac15	0.04655083
89	0x3dfbcf37	0.122953825
90	0x3d26152a	0.040547527
91	0x3a2fb943	0.00067033264
92	0xbd8fc942	-0.07020809
93	0xbc111e32	-0.008857297
94	0xbd883567	-0.06650811
95	0x3c3e9aa6	0.011633551
96	0x3d38bc17	0.04510125
97	0x3d734f35	0.05940171
98	0x3d81edf4	0.06344214
99	0x3d59b3a8	0.05314985
100	0x3dc6b655	0.09702746
101	0x3cd39c03	0.025831228
102	0x3d9870ca	0.07443388
103	0x3da1a3ab	0.07892545
104	0xbc778576	-0.015107503
105	0xbd547f6d	-0.051879335
106	0xbd0cc9df	-0.034372207
107	0xbcfb24c3	-0.030657178
108	0x3d408847	0.047004964
109	0x3d9ed707	0.07755857
110	0x3d44b366	0.04802265
111	0x3d92ae94	0.071622044
112	0x3d8a71b6	0.0675997
113	0x3c82c680	0.015963793
114	0x3de94d28	0.113916695
115	0x3cd42e5c	0.025901012
116	0x3b8c03c0	0.004272908
117	0xbd5d1fa3	-0.05398525
118	0xbcc37952	-0.023861561
119	0xbd899ccf	-0.06719362
120	0xbd2a8dc2	-0.041639097
121	0xbce7da16	-0.028302234
122	0x3c6f88da	0.01462003
123	0x3ca2dd39	0.019880878
124	0x3ca33600	0.01992321
125	0x3d47c4be	0.048771612
126	0x3ddafde2	0.106929556
127	0x3c80346f	0.015650002
128	0x3c8a5eb0	0.016890854
129	0xbd047324	-0.03233637
130	0x3ca5ac64	0.020223804
131	0xbce4b727	-0.027919365
132	0x3d9127c7	0.07087665
133	0x3dd291dd	0.102817275
134	0x3c970da2	0.018439118
135	0x3dc7a1df	0.09747671
136	0xbc8e5574	-0.017374732
137	0xbde37b94	-0.11107555
138	0x3dc16c2d	0.09444461
139	0x3d85b249	0.06528146
140	0x3b0a8c81	0.0021140876
141	0xbcc20eca	-0.023688693
142	0xbc9bd22e	-0.01902112
143	0xbd8ace93	-0.06777682
144	0x3d97fac6	0.07420878
145	0x3dc9b97b	0.09849831
146	0x3c4ccef7	0.012500516
147	0x3db4d71e	0.08830093
148	0xbd06eb0a	-0.032938994
149	0xbdbe08aa	-0.09278996
150	0x3d3fc753	0.04682095
151	0x3d04cc6f	0.032421526
152	0xba1309d5	-0.000560907
153	0xbcb3d618	-0.021952674
154	0xbcdb6b5a	-0.026784588
155	0xbd05a3a9	-0.03262678
156	0xbd87bcfe	-0.06627844
157	0xbdcbe68c	-0.09956083
158	0xbccdbd9d	-0.025114829
159	0xbdb7f5fe	-0.08982466
160	0xbbd5938b	-0.0065178326
161	0x3db73e89	0.089474745
162	0xbda89987	-0.08232408
163	0xbd54a92f	-0.05191916
164	0x3b538dae	0.0032280493
165	0x3c51d17d	0.012806294
166	0x3d030d93	0.031995367
167	0x3d79b9be	0.060968153
168	0xbd8d23ed	-0.06891618
169	0xbde0c35b	-0.10974761
170	0xbcd20d75	-0.025641182
171	0xbdc90ed6	-0.09817283
172	0x3b578723	0.0032886944
173	0x3db97602	0.09055711
174	0xbdc3562c	-0.0953792
175	0xbd779910	-0.060448706
176	0x3bf97c1b	0.0076136715
177	0x3cdea577	0.02717851
178	0x3d1a2fd2	0.03764326
179	0x3d7fb6c3	0.062430155
180	0xbd6eee24	-0.058332577
181	0xbda29e31	-0.07940329
182	0xbd2eb7be	-0.0426557
183	0xbd3b6f0c	-0.0457602
184	0xbd0661a7	-0.032807972
185	0x3d7f4f85	0.062331695
186	0xbd9531ac	-0.07284865
187	0xbd532fba	-0.051559187
188	0xbcb99540	-0.022654176
189	0x3cdb835e	0.02679604
190	0x3d5bff77	0.053710427
191	0x3d243f82	0.04009963
192	0x3baa1580	0.0051905513
193	0xbcbb3440	-0.022852063
194	0xbd9033dc	-0.070411414
195	0x3bb44c56	0.005502264
196	0xbdb8eacd	-0.0902916
197	0xbdb1f6e4	-0.08689669
198	0xbd7c5fec	-0.061614916
199	0xbd2840bf	-0.04107737
200	0xbcbf981d	-0.023387963
201	0x3ce0b10c	0.027428173
202	0x3d0d540d	0.034503985
203	0x3c89778c	0.016780637
204	0x3d7ec9cd	0.06220417
205	0x3dbbcc2e	0.091698036
206	0x3cc3f9f4	0.023922898
207	0x3da9a861	0.08284069
208	0x3d223880	0.039604664
209	0xbdde277a	-0.10847373
210	0x3dc75f19	0.09734935
211	0x3d056fec	0.03257744
212	0xbc14e2aa	-0.009087244
213	0xbd23d065	-0.039993662
214	0xbc2c11de	-0.010502307
215	0xbd7a7d59	-0.061154697
216	0x3d3384ab	0.043827694
217	0x3d99ee2b	0.0751613
218	0x3d574803	0.05255891
219	0x3d91d27a	0.07120223
220	0x3d5dc2df	0.05414092
221	0xbdaec6b8	-0.08533996
222	0x3d984fbb	0.074370824
223	0x3d4ee804	0.050514236
224	0xbc21587a	-0.009847755
225	0xbd03e0e7	-0.032196905
226	0x3ca6b2a8	0.020348862
227	0xbd343953	-0.04399998
228	0xbda35bb1	-0.07976473
229	0xbdeb7d9b	-0.11498567
230	0x3c895808	0.01676561
231	0xbdd76168	-0.10516626
232	0x3d54ab85	0.051921386
233	0x3ddf0b5f	0.10890841
234	0xbda8bcfd	-0.08239172
235	0xbd915b2e	-0.07097469
236	0xbbea0187	-0.0071412954
237	0x3cd4d69d	0.025981242
238	0x3d6c2187	0.05764916
239	0x3d78d777	0.06075236
240	0x3bf4196e	0.0074493205
241	0x3d3dac51	0.04630691
242	0x3cbb755b	0.022883108
243	0x3d5ec710	0.05438906
244	0x3d5466f4	0.051855996
245	0xbbf19ecc	-0.0073736664
246	0x3d98ff4e	0.074705705
247	0x3d698092	0.05700738
248	0x3bb748f6	0.0055934144
249	0xbcaedf82	-0.021346811
250	0xbb697365	-0.003562176
251	0xbd09ac27	-0.033611443
252	0xbca9e423	-0.020738667
253	0xbd7b87e9	-0.06140891
254	0xbcb40dac	-0.021979176
255	0xbd5fb2bc	-0.054613814
