VAE/model/normal.pth (torch, 98634 bytes, 17 tensors)

weight f4 [16, 1, 3]
0	0xbf52e468	-0.8237977
1	0xbf28e135	-0.6596864
2	0xbdacbe71	-0.08434761
3	0xbfa31332	-1.2740233
4	0xbf8e8919	-1.1135589
5	0x3eb944f0	0.36185408
6	0x3f34d147	0.7063183
7	0x3f2dbad5	0.6786321
8	0xbe1387d5	-0.14407285
9	0xbef8483f	-0.4849262
10	0xbed54626	-0.41655082
11	0xbf8a9202	-1.0825808
12	0xbf14456b	-0.57918423
13	0xbf24239a	-0.64116824
14	0x3e7078de	0.23483607
15	0xbca53cc2	-0.020170573
16	0x3eb741f7	0.35792515
17	0x3f995e74	1.198195
18	0xbf17d91d	-0.59315664
19	0xbc9c4d53	-0.01907984
20	0xbdfa6702	-0.122266784
21	0x3f8004e0	1.0001488
22	0x3c2d813b	0.010589893
23	0xbf3f75c3	-0.74789065
24	0x3f9c9f0b	1.2236036
25	0x3f958965	1.1682554
26	0xbf22fc8b	-0.636666
27	0xbf875607	-1.0573128
28	0x3f62165c	0.8831537
29	0xbee02160	-0.43775463
30	0xbe6d712e	-0.23187706
31	0xbfa05c64	-1.2528195
32	0xbf92100f	-1.1411151
33	0xbee9690b	-0.45587954
34	0x3f400a7e	0.7501601
35	0x3f36d44a	0.7141768
36	0x3f073d8a	0.52828276
37	0x3f904d46	1.1273582
38	0x3f17f0b5	0.59351665
39	0xbef8b3c5	-0.48574653
40	0xbf3169ad	-0.69301873
41	0xbf844cd7	-1.033595
42	0xbf22a9fb	-0.6354062
43	0x3e8aeaa6	0.27132148
44	0xbe39efec	-0.18157929
45	0x3ee4f579	0.4471853
46	0xbf745083	-0.9543535
47	0x3e80edba	0.2518137

bias f4 [16]
0	0xbd97844e	-0.07398282
1	0xbe0af842	-0.13571265
2	0x3d825013	0.06362929
3	0xbb3390ea	-0.0027399608
4	0x3e0284c7	0.12745963
5	0x3d77ca6b	0.060495775
6	0x3c7b3597	0.015332601
7	0xbd812a6d	-0.0630692
8	0x3e270a5f	0.1631255
9	0x3e717c94	0.23582679
10	0x3e4a6fcb	0.19769208
11	0xbd7086b5	-0.058722217
12	0x3e2e3df2	0.17015818
13	0x3e68d764	0.22738415
14	0xbd2d31d0	-0.042283833
15	0x3e2c63e9	0.16834988

weight f4 [32, 16, 3]
0	0x3e327dfb	0.1743087
1	0x3ea29c8d	0.31760064
2	0xbe31f990	-0.17380357
3	0xbc4943f8	-0.012284271
4	0xbd8efddf	-0.06982016
5	0x3e7bbe9f	0.24584435
6	0x3ea72a9c	0.32649696
7	0x3e58327d	0.2111301
8	0xbe3d4975	-0.18485053
9	0x3e6109fe	0.21976468
10	0x3e150055	0.14550908
11	0xbe1d7861	-0.15377952
12	0xbe2cbc8a	-0.16868797
13	0xbea9be75	-0.3315312
14	0x3e6b721f	0.22992752
15	0xbd30d250	-0.04316932
16	0xbc40e7f7	-0.011774055
17	0x3e95b62e	0.29240555
18	0x3e83baba	0.257284
19	0x3e1a2d6d	0.15056391
20	0x3e5c75ff	0.21529387
21	0xbc84dd5e	-0.016218837
22	0xbeb0ebce	-0.34554905
23	0xbe22944a	-0.1587688
24	0xbe8ca11d	-0.2746667
25	0xbe422848	-0.18960679
26	0x3d0fcdbf	0.035108324
27	0x3e4bf836	0.19918904
28	0xbe942004	-0.28930676
29	0xbe4c9173	-0.1997736
30	0x3dec108e	0.11526595
31	0x3bb636ce	0.0055607324
32	0x3da5e317	0.080999546
33	0x3e3d4378	0.18482769
34	0xbe2c905b	-0.16851942
35	0xbea47308	-0.32119012
36	0xbe604f43	-0.21905236
37	0xbce4c718	-0.027926967
38	0xbe91c4e6	-0.28470534
39	0xbe9c5086	-0.30530185
40	0x3d1b6365	0.037936587
41	0xbe829e29	-0.25511292
42	0xbea7a8f3	-0.32746086
43	0xbd77be60	-0.06048429
44	0x3e17b284	0.14814192
45	0x3c33e723	0.0109804
46	0x3e950f17	0.29113075
47	0x3dd42780	0.103590965
48	0x3e91d155	0.2848002
49	0xbe12015d	-0.14258333
50	0x3d952868	0.072830975
51	0x3e22e5d8	0.15907991
52	0xbe527290	-0.20551515
53	0x3e2bafbf	0.1676626
54	0xbe51a42e	-0.20472786
55	0xbd820e5d	-0.06350396
56	0xbeb00fd8	-0.34387088
57	0x3e0930b3	0.13397484
58	0x3e97d17d	0.29652014
59	0x3d0ac790	0.033881724
60	0x3d8e6ab2	0.06953944
61	0xbe4cc184	-0.19995695
62	0x3daf3b9d	0.08556292
63	0x3ea2aa4d	0.31770554
64	0xbeabf616	-0.33586186
65	0xbe672c38	-0.22575462
66	0x3e97968f	0.29607055
67	0xbdcdc088	-0.10046488
68	0x3b02271e	0.0019859741
69	0x3d3177fe	0.043327324
70	0x3d267c19	0.040645692
71	0x3e6c155a	0.2305502
72	0xbd325ee6	-0.043547533
73	0xbe1ebabd	-0.15500923
74	0xbe6fdf1c	-0.23424953
75	0xbea0e87f	-0.3142738
76	0xbe97a4d3	-0.29617938
77	0xbc3b91ef	-0.0114483675
78	0xbe61b996	-0.22043452
79	0xbe89ef39	-0.26940325
80	0x3e61663b	0.22011654
81	0xbe5a1d76	-0.21300301
82	0xbe251b93	-0.161238
83	0xbb1cebc2	-0.0023944234
84	0x3e05178c	0.12997264
85	0x3eb7a488	0.35867715
86	0x3d85431a	0.06506939
87	0xbe0ed840	-0.1394968
88	0x3c8076d9	0.015681671
89	0xbea586a7	-0.32329294
90	0xbd9c10eb	-0.07620414
91	0x3e264b1f	0.16239594
92	0x392db266	0.00016565024
93	0xbe9fdbd2	-0.31222397
94	0xb984d97e	-0.00025339046
95	0xbe8e907e	-0.27844614
96	0xbcac8878	-0.021061167
97	0x3e6ebd0d	0.23314305
98	0xbd24ccd4	-0.0402344
99	0x3df9cef1	0.12197674
100	0x3cd070c7	0.025444401
101	0x3dd32222	0.10309245
102	0x3d8eab58	0.06966275
103	0x3e059c36	0.13047871
104	0xbe39ae23	-0.18132834
105	0xbd1894a0	-0.037251115
106	0xbea28012	-0.31738335
107	0x3e5be7ac	0.21475095
108	0xbdb9a44a	-0.09064539
109	0xbe0956d8	-0.13412035
110	0xbd2c9a06	-0.042139076
111	0xbe50bd54	-0.20384723
112	0xbe8a0087	-0.26953527
113	0xbe7e1837	-0.24813925
114	0xbda2b45c	-0.07944557
115	0x3e737801	0.23776247
116	0xbdda9df2	-0.10674657
117	0xbdda7bd5	-0.1066815
118	0xbda8e981	-0.08247662
119	0x3e85f937	0.26166698
120	0x3e9c59d7	0.30537292
121	0xbe88f153	-0.26746616
122	0x3e91f3b5	0.28506246
123	0xbdee238b	-0.11627873
124	0x3e2e4577	0.17018686
125	0x3e0a1e05	0.13488014
126	0xbe21cc74	-0.15800649
127	0xbe9ab5d5	-0.30216852
128	0x3ea19c84	0.31564724
129	0x3e97bef9	0.29637888
130	0xbe934cf2	-0.28769642
131	0x3db1bd07	0.08678632
132	0xbda6f83a	-0.08152814
133	0x3e2a831c	0.16651577
134	0xbea026f6	-0.31279725
135	0xbe7a1e6b	-0.24425666
136	0x3e95d939	0.2926729
137	0xbe16d1d0	-0.14728475
138	0x3d9a30af	0.07528817
139	0xbe6c3db8	-0.23070419
140	0x3eab09dd	0.33405963
141	0x3e6d0634	0.23146898
142	0x3d0f4333	0.034976196
143	0xbe56aa88	-0.2096349
144	0xbdc49776	-0.095992014
145	0x3e816713	0.25273952
146	0xbe8b0e2d	-0.27159253
147	0x3e8fa71a	0.28057176
148	0xbea5d09d	-0.32385722
149	0x3ea496d8	0.32146335
150	0x3e5ed3fa	0.2176055
151	0x3d1ef1bf	0.038804766
152	0xbe3a3e7f	-0.18187903
153	0x3e68a416	0.22718844
154	0xbe9a9e80	-0.3019905
155	0x3ea76dc8	0.32700944
156	0xbe59f32f	-0.21284173
157	0xbe945376	-0.28969926
158	0xbdf7021a	-0.12060948
159	0x3e9ec60f	0.31010482
160	0xbe9f6042	-0.31128126
161	0x3e85d9ac	0.26142633
162	0x3e97d85c	0.29657257
163	0x3e3feb7d	0.18742175
164	0xbeb30254	-0.34962714
165	0x3e888f64	0.26671898
166	0x3dbe40a7	0.09289675
167	0x3d3306b7	0.043707576
168	0xbe4d4f90	-0.20049882
169	0xbe5a62c4	-0.21326739
170	0xbe455278	-0.1926974
171	0xbe5d3086	-0.21600541
172	0x3df5bd28	0.11998969
173	0x3d71e3c6	0.059055112
174	0x3e03aedd	0.12859674
175	0xbe012153	-0.12610368
176	0xbdfd49dd	-0.12367604
177	0xbeac287f	-0.33624646
178	0x3e08504b	0.1331188
179	0xbe119977	-0.14218698
180	0xbe8a1922	-0.269723
181	0x3e679318	0.22614706
182	0x3eae0836	0.3399064
183	0x3cca7e2d	0.024718368
184	0x3dcea2dc	0.10089657
185	0x3e9fa042	0.31176955
186	0x3e5fba58	0.21848428
187	0xbe02c382	-0.12769893
188	0x3e92c412	0.28665215
189	0xbcc1aba9	-0.023641424
190	0x3e9e02a4	0.3086139
191	0xbd925076	-0.07144253
192	0xb6fbf063	-7.5083676e-06
193	0xbc33fac3	-0.010985079
194	0x3e679a17	0.22617374
195	0xba815fc7	-0.0009870463
196	0xbeb1b636	-0.34709328
197	0xbea22d7b	-0.31675324
198	0xbc19d009	-0.009387978
199	0x3eaef316	0.34169835
200	0xbddd9988	-0.108202994
201	0x3e32245d	0.17396684
202	0x3e916025	0.28393665
203	0xbe3b804e	-0.18310663
204	0xbc24e05b	-0.010063256
205	0x3d49fd33	0.049313735
206	0x3e2d5d2d	0.16930075
207	0xbe4cb26b	-0.19989936
208	0xbd4b0328	-0.049563557
209	0xbeb69b20	-0.35665226
210	0x3d81237d	0.06305597
211	0xbded9ddc	-0.11602375
212	0x3df658d0	0.120286584
213	0x3c52d728	0.01286868
214	0x3d8a42d2	0.06751026
215	0xbe89854c	-0.2685951
216	0x3e1877c0	0.14889431
217	0xbe174d9d	-0.14775701
218	0xbda80a2a	-0.08205064
219	0xbec30637	-0.3809068
220	0xbe8a1b05	-0.2697374
221	0x3dd85d30	0.10564649
222	0xbe99a12a	-0.3000577
223	0x3e43aebd	0.19109626
224	0xbe94e5e2	-0.29081637
225	0xbeb024e1	-0.34403136
226	0x3e7b1690	0.24520326
227	0xbe2a6aab	-0.16642253
228	0x3e7ee08e	0.24890348
229	0xbc2f87b6	-0.010713508
230	0x3e67abf9	0.22624196
231	0xbe9488e0	-0.29010677
232	0xbe6412c2	-0.2227278
233	0x3d5f50c2	0.054520376
234	0xbc378b8c	-0.011202704
235	0x3e266dd9	0.16252841
236	0xbe740cc4	-0.23832995
237	0x3ca31a10	0.019909889
238	0x3e8a3713	0.26995143
239	0x3e12874c	0.14309424
240	0xbdfddd6b	-0.12395748
241	0xbde91d6e	-0.113825664
242	0xbe6a06bf	-0.22854136
243	0x3c5e108a	0.013553748
244	0x3dfeabb7	0.12435096
245	0x3e2d37b2	0.16915777
246	0xbd9f5d55	-0.077814735
247	0x3e633c5c	0.22190994
248	0x3e3542bc	0.17701238
249	0x3e28d4fc	0.16487497
250	0x3e9326f9	0.2874067
251	0x3e023234	0.12714463
252	0x3ba10610	0.004914053
253	0xbe8e3b34	-0.27779543
254	0x3e8fd437	0.28091595
255	0xbd3ad14d	-0.04560976

bias f4 [32]
0	0xbe8df58d	-0.27726403
1	0x3cab4734	0.020907976
2	0x3c8863ea	0.016649205
3	0xbdb5a6b2	-0.08869685
4	0x3d74ac56	0.059734665
5	0x3d867c8d	0.06566725
6	0xbe313597	-0.17305599
7	0x3e01b981	0.1266842
8	0xbd87b6c5	-0.066266574
9	0x3d3fb787	0.046805885
10	0x3e47d4cd	0.19514771
11	0x3e0a6fec	0.13519257
12	0x3db29842	0.08720447
13	0x3d8ae1b0	0.06781328
14	0xbd15981a	-0.03652201
15	0x3c186ef7	0.0093038
16	0x3db98208	0.090580046
17	0xbd0e79f1	-0.03478426
18	0xbc678911	-0.0141318
19	0x3db878c1	0.09007407
20	0xbe043af6	-0.12913117
21	0x3e45db89	0.19322027
22	0xbe079b9b	-0.13242953
23	0x3d9285de	0.071544394
24	0xbd14a6ab	-0.03629176
25	0xbe41e057	-0.18933235
26	0xbcf90c8c	-0.03040149
27	0xbec9a9c8	-0.39387345
28	0x3ed34edf	0.4127111
29	0x3d683db7	0.05669948
30	0xbf0b48a1	-0.544077
31	0xbd773a06	-0.06035807

weight f4 [64, 32, 3]
0	0xbd68ee8e	-0.05686813
1	0xbe745aac	-0.23862714
2	0x3e06b076	0.13153252
3	0x3e2cf465	0.16890104
4	0xbdde9609	-0.10868461
5	0xbe0d8cbc	-0.13823217
6	0x3e5bc1f6	0.21460709
7	0xbddf3226	-0.10898237
8	0x395ef63f	0.00021263304
9	0x3e106c7c	0.14103884
10	0x3ddafff9	0.10693354
11	0xbe534b52	-0.20634201
12	0x3e4a411e	0.19751403
13	0x3e384791	0.1799605
14	0xbe32d067	-0.17462312
15	0x3e524ac0	0.20536327
16	0xbd9c1933	-0.07621994
17	0xbe62c615	-0.22145875
18	0xbe07183a	-0.13192835
19	0x3e150fb8	0.14556777
20	0x3e0f27fa	0.13980094
21	0x3db7a4c0	0.089669704
22	0x3de5e0d1	0.11224521
23	0x3e047995	0.12937005
24	0xbe2aafad	-0.16668577
25	0xbc8f7ed4	-0.017516531
26	0x3e1ddcb3	0.15416221
27	0x3da6e6f0	0.081495166
28	0xbe3424e4	-0.17592198
29	0x3bdae78c	0.0066804346
30	0x3e4aef99	0.19817962
31	0x3e01c98f	0.12674545
32	0x3dfb83a9	0.122809716
33	0xbdcb7f99	-0.09936447
34	0xbd5a130b	-0.053240817
35	0x3e327b4a	0.17429844
36	0xbdc7af05	-0.09750179
37	0x3d9efe99	0.077634044
38	0xbb111302	-0.0022136574
39	0x3dc72ab8	0.09724945
40	0xbdc9462a	-0.09827836
41	0xbdb9f0a1	-0.090790994
42	0x3e396e1c	0.1810841
43	0xbd21a627	-0.039465096
44	0xbe669ce8	-0.22520792
45	0xbc8eac2a	-0.017416079
46	0x3e512665	0.20424803
47	0x3e0bc841	0.1365061
48	0x3b1f65d2	0.0024322164
49	0xbe51fef6	-0.20507416
50	0x3e2ec0aa	0.17065683
51	0x3e2d5441	0.16926672
52	0xbe45224c	-0.19251364
53	0xbe8ff24c	-0.28114545
54	0xbe64060a	-0.22267929
55	0xbe1c689d	-0.15274282
56	0xbe100b12	-0.14066723
57	0x3e3185bd	0.17336173
58	0x3d8cff12	0.06884588
59	0xbd69bbe4	-0.057063952
60	0xbe69f748	-0.22848237
61	0xbe4e5ce0	-0.20152617
62	0x3d6422a7	0.05569711
63	0xbdef9d5d	-0.116999365
64	0xbe227222	-0.1586385
65	0x3e4bc166	0.19897994
66	0xbe1a5051	-0.15069701
67	0xbe1fd222	-0.15607503
68	0xbe41d33e	-0.18928239
69	0xbde18e76	-0.110135004
70	0x3b2b813b	0.0026169557
71	0xbd81f53c	-0.06345603
72	0x3e44474b	0.19167821
73	0xbe6229d5	-0.2208627
74	0x3daa55d4	0.08317152
75	0x3dddd79e	0.10832141
76	0x3dd7d684	0.105389625
77	0x3dfa9f8c	0.122374624
78	0x3e07bd6c	0.13255852
79	0xbc9672ff	-0.018365381
80	0xbdaf0284	-0.08545402
81	0x3d03452c	0.03204839
82	0xbe329709	-0.17440428
83	0x3e043e1d	0.1291432
84	0xbe106324	-0.14100319
85	0x3dec9d0b	0.11553391
86	0x3da4ce13	0.08047118
87	0xbdb7b1d7	-0.08969467
88	0x3da55720	0.080732584
89	0x3e41eef7	0.18938814
90	0xbac5ba31	-0.0015085397
91	0x3d0ad11b	0.033890825
92	0x3e593f3f	0.21215533
93	0x3e665d83	0.2249661
94	0xbda3199a	-0.079638675
95	0xbd633d00	-0.055478096
96	0xbd8ed1ad	-0.06973586
97	0xbdecab51	-0.115561135
98	0xbd5ce159	-0.053925846
99	0xbe25c1d0	-0.16187215
100	0x3cc00714	0.023440875
101	0x3e55db68	0.20884478
102	0xbe70c32b	-0.2351195
103	0x3d73cb15	0.059519846
104	0x3d0c48a5	0.034248967
105	0xbd87b145	-0.06625608
106	0x3ddf8218	0.10913485
107	0x3e0e5341	0.13898946
108	0x3e3df093	0.18548803
109	0xbe23e2af	-0.16004442
110	0xbe167555	-0.14693196
111	0xbd87d889	-0.06633098
112	0x3d1a3e45	0.03765704
113	0xbcee6035	-0.02909861
114	0x3e09c830	0.13455272
115	0x3e1afa00	0.1513443
116	0x3e00f438	0.12593162
117	0xbdc9c4ae	-0.09851967
118	0x3e6dc463	0.23219447
119	0xbdd850d9	-0.105622955
120	0x3e03e1c3	0.1287909
121	0xbe0fbeeb	-0.14037673
122	0x3e623906	0.22092065
123	0xbe97cd75	-0.2964894
124	0xbe102f16	-0.14080462
125	0x3c2e38df	0.010633676
126	0x3c4a5176	0.012348523
127	0xbe2b0070	-0.16699386
128	0xbe4d4f26	-0.20049724
129	0xbde52281	-0.11188222
130	0x3c552136	0.013008406
131	0xbd0e29c5	-0.034707803
132	0x3d86e465	0.065865315
133	0xbd306fb5	-0.043075282
134	0x3d583dbd	0.052793253
135	0x3e3e1319	0.18561973
136	0x3e0eadd9	0.13933505
137	0x3e6f676f	0.233793
138	0x3dce660c	0.10078058
139	0xbd3c86c0	-0.046026945
140	0xbddad669	-0.10685427
141	0x3dfe385b	0.12413093
142	0xbdfec8e3	-0.1244066
143	0x3e7094f3	0.2349432
144	0xbe81a3d2	-0.25320297
145	0xbcfd64ac	-0.030931793
146	0xbe82ab2d	-0.25521222
147	0xbc9f2d7c	-0.019430868
148	0xbdd5e9c9	-0.104449816
149	0x3cf506d5	0.029910484
150	0x3e444add	0.19169183
151	0xbd8dd017	-0.069244556
152	0xbe36be1a	-0.17845955
153	0xbdaba9c6	-0.08381991
154	0xbe42cccd	-0.19023438
155	0x3d653fc7	0.055969026
156	0xbe5e2a04	-0.21695715
157	0x3e129d98	0.1431793
158	0xbe37dc3b	-0.17955105
159	0xbe6378b2	-0.2221401
160	0xbe27bedb	-0.163814
161	0x3c870e30	0.016486257
162	0x3e23615b	0.15955107
163	0x3e464139	0.19360818
164	0x3dd36f39	0.103239484
165	0xbdc5448c	-0.09632215
166	0xbdafb974	-0.08580294
167	0xbde5e128	-0.11224586
168	0x3c61e415	0.013787289
169	0xbe17484a	-0.1477367
170	0x3dec7bf2	0.11547078
171	0x3d96ac29	0.07357056
172	0xbd9d42e3	-0.07678773
173	0x3d9b0bd9	0.07570619
174	0xbcf91533	-0.030405616
175	0x3de7a222	0.11310221
176	0x3dd40326	0.10352163
177	0xbd8de1d9	-0.06927843
178	0x3d832fda	0.06405611
179	0x3e73bb37	0.23801886
180	0xbdb790bc	-0.08963153
181	0x3c6f334d	0.014599633
182	0x3d69faa0	0.05712378
183	0x3e1de2d3	0.15418558
184	0xbe2baa04	-0.16764075
185	0xbe6f5a61	-0.2337432
186	0x3aacd974	0.0013187365
187	0x3e2a888f	0.16653655
188	0x3e69b7f4	0.22824079
189	0xbdaf6860	-0.0856483
190	0xbe53f2f1	-0.20698144
191	0xbe1cba15	-0.1530536
192	0x3e1f8bff	0.15580748
193	0x3dbaa915	0.09114281
194	0x3c99bf52	0.018767986
195	0x3d8e62e0	0.06952453
196	0x3d547a7f	0.051874634
197	0xbcb4dc89	-0.022077816
198	0x3b14cbf4	0.0022704573
199	0xbcba474d	-0.022739077
200	0x3e26476a	0.1623818
201	0xbccbba2e	-0.02486905
202	0xbd69c71a	-0.057074644
203	0x3dcb0656	0.09913318
204	0x3e0c9196	0.13727412
205	0x3e2b6351	0.16737105
206	0xbe178e37	-0.14800344
207	0xbe54fa92	-0.2079871
208	0x3d09b7d3	0.033622574
209	0xbe37118b	-0.17877786
210	0xbc672964	-0.014108989
211	0x3e1cd8cb	0.15317075
212	0xbd95bd1c	-0.073114604
213	0x3d3965b9	0.045263026
214	0xbe42843a	-0.18995753
215	0xbd81cb07	-0.063375525
216	0x3e27f8a3	0.16403441
217	0x3e2d6a36	0.16935048
218	0x3e1ae959	0.15128078
219	0xbde3464f	-0.11097395
220	0xbe36c280	-0.17847633
221	0xbcc8d49c	-0.024515443
222	0xbcdad3e4	-0.026712365
223	0x3e29ad8b	0.16570108
224	0xbe67197f	-0.2256832
225	0x3e467010	0.19378686
226	0x3dd43e34	0.10363427
227	0xbe47c038	-0.1950692
228	0xbe17bb12	-0.14817455
229	0xbe09b88e	-0.13449308
230	0xbe4b91e8	-0.19879878
231	0xbe295208	-0.16535199
232	0x3dcdc1aa	0.10046704
233	0x3e20cc05	0.15702827
234	0xbc2fc008	-0.010726936
235	0x3e0d9a42	0.13828376
236	0x3e32f374	0.17475682
237	0xbd5d9fc3	-0.05410744
238	0x3d9517f6	0.07279961
239	0x3e48d258	0.1961149
240	0x3b23c788	0.0024990756
241	0xbe2150b0	-0.15753436
242	0x3de18f92	0.11013712
243	0xbe4e1037	-0.20123373
244	0x3d7a1bb5	0.06106158
245	0xbd087cd8	-0.033322185
246	0xbe161cf5	-0.14659484
247	0xbe27f212	-0.16400936
248	0x3d89eb0e	0.06734286
249	0xbdd0b03b	-0.10189863
250	0xbe3faedd	-0.18719049
251	0x3c897e9b	0.016784003
252	0xbdfeecb7	-0.124474935
253	0xbdbc2146	-0.09186034
254	0xbe5ae0af	-0.21374772
255	0x3d218e39	0.039442275

bias f4 [64]
0	0x3d801a4a	0.06255014
1	0xbd8acfef	-0.067779414
2	0x3d27c309	0.040957484
3	0xbe0a4ee3	-0.13506655
4	0xbda292b0	-0.07938135
5	0xbcdbfd84	-0.026854284
6	0x3b7c0f36	0.0038461215
7	0x3cc59176	0.024117213
8	0xbd0a56e9	-0.03377429
9	0xbc942c5e	-0.018087562
10	0x3dad3219	0.08456821
11	0xbc43330a	-0.011914024
12	0x3d43bc13	0.047786783
13	0xbccc476f	-0.024936406
14	0x3cbb8100	0.02288866
15	0x3da86ae6	0.08223514
16	0xbbc5f7c8	-0.0060415007
17	0x3c7d5cef	0.015464052
18	0x3d2ea6f6	0.042639695
19	0xbf0b02b8	-0.54301023
20	0xbbe5b782	-0.007010401
21	0x3bfda1e8	0.007740248
22	0x3e3ce9d4	0.18448573
23	0xbc5b4d20	-0.013385087
24	0xbd857264	-0.06515959
25	0x3cd4d49f	0.025980292
26	0xbb537039	-0.0032262935
27	0x3e670c34	0.22563249
28	0xbd851bfb	-0.064994775
29	0x3d81798d	0.06322012
30	0x3cad051f	0.021120606
31	0x3d1d4b92	0.038402148
32	0xbccd82f6	-0.025086861
33	0xbf4b43b9	-0.7940021
34	0x3d53c5b1	0.051702205
35	0x3d815f70	0.063170314
36	0xbca8e7f3	-0.020618415
37	0xbc6c47ce	-0.014421416
38	0xbd2e4e3d	-0.042555083
39	0x3d4184a8	0.04724565
40	0xbd861a2a	-0.06547959
41	0xbbf6bfd8	-0.007530194
42	0xbd5529ec	-0.052041933
43	0x3c40d57d	0.01176965
44	0x3d5716df	0.052512046
45	0xbbdaab27	-0.006673235
46	0x3b60e819	0.0034318028
47	0xbd97818c	-0.07397756
48	0x3ec0562e	0.3756575
49	0x3dfedb00	0.12444115
50	0xbd471363	-0.048602473
51	0xbdbbc40a	-0.09168251
52	0x3e0c25ac	0.13686246
53	0xbce19618	-0.02753739
54	0x3d8a30d9	0.06747598
55	0x3be4692b	0.006970545
56	0xbacd0523	-0.001564179
57	0x3cdc70a4	0.02690918
58	0xbd687a62	-0.05675734
59	0xbdd20656	-0.10255115
60	0x3c25f8ff	0.010130166
61	0xbd79ee7e	-0.06101846
62	0xbef2b1a7	-0.47401163
63	0xbd327f16	-0.04357823

weight f4 [3, 768]
0	0x3ce3bbb7	0.02779947
1	0x3c7a321d	0.015270737
2	0xbd287064	-0.04112281
3	0x3c9065f1	0.017626734
4	0x3d0aeecd	0.033919144
5	0xbcb469a6	-0.022023033
6	0xbc6b9327	-0.014378346
7	0xbc6f43af	-0.014603539
8	0x3cdfe23d	0.027329559
9	0xbbcd450a	-0.0062643336
10	0xbc9237fc	-0.017848961
11	0xbb6b3aa2	-0.0035893102
12	0x3c6633bc	0.01405042
13	0xbd47b4f2	-0.048756547
14	0xb83acd14	-4.453685e-05
15	0x3d26b370	0.04069847
16	0xbda5737a	-0.08078666
17	0xbc7527a9	-0.014963069
18	0x3b08e911	0.0020890872
19	0x3c2914fc	0.0103199445
20	0x3d0847e1	0.033271674
21	0x3bf63b96	0.0075144274
22	0x3a596ea2	0.00082943786
23	0x3bf7a2a3	0.0075572296
24	0xbb1a476c	-0.0023541106
25	0x3d0d8447	0.034549978
26	0xbb3fd8af	-0.002927344
27	0xbc9124e1	-0.01771778
28	0x3c12d189	0.00896109
29	0x3b3de63b	0.002897634
30	0x3caa1c9b	0.020765593
31	0xbc8ba752	-0.017047558
32	0x3d7cf60c	0.061758086
33	0xb98a2028	-0.0002634537
34	0xbd925302	-0.07144739
35	0xbdac8619	-0.084240146
36	0x3da56bea	0.080772236
37	0x3d593e27	0.05303779
38	0x3d04314a	0.03227357
39	0x3ca85f75	0.02055333
40	0xbcb69744	-0.022288926
41	0xbc59be32	-0.013289975
42	0xbc7bc856	-0.015367588
43	0xbd8f76b7	-0.07005065
44	0x3c85847b	0.016298523
45	0x3d337cb2	0.04382009
46	0xbcfe99d6	-0.031079214
47	0xbda73962	-0.08165242
48	0x3c324d7f	0.010882734
49	0x3ced3487	0.028955711
50	0x3ce7e4e2	0.028307382
51	0xbcb43603	-0.021998411
52	0x3c5e3925	0.013563429
53	0xbc8ba35f	-0.017045675
54	0x3d10f383	0.03538848
55	0xbd709530	-0.058736026
56	0x3d0ce1d2	0.034395047
57	0xbd175751	-0.036948506
58	0xbd75cc2b	-0.060009163
59	0x3d627864	0.055290595
60	0xbcfb785b	-0.030697038
61	0xbcec49be	-0.028843757
62	0xbd9ba78d	-0.07600317
63	0xbd5e7750	-0.054313004
64	0x3cbfecf2	0.023428414
65	0xba826879	-0.0009949348
66	0xbb11fbbc	-0.002227529
67	0x3d022daf	0.03178185
68	0xbc1bd679	-0.0095115835
69	0xbd6f4bf2	-0.058422036
70	0x3cd8f4c8	0.026483908
71	0x006ad290	9.810098e-39
72	0x006acfc8	9.8091e-39
73	0x806ad058	-9.809302e-39
74	0xbc77ddac	-0.015128534
75	0x3c5c9e20	0.013465434
76	0x3d75cd77	0.0600104
77	0x3c3376dc	0.010953631
78	0x3c043b06	0.008070713
79	0x3c5e2076	0.013557544
80	0xbd6390d5	-0.055558044
81	0x3d10ea9e	0.03538
82	0xbdb557fb	-0.088546716
83	0xb85f8e18	-5.329968e-05
84	0x3d49ccae	0.049267463
85	0x3cba8780	0.02276969
86	0x3ca24934	0.019810297
87	0xbce0e0b1	-0.027450891
88	0x3cf3acc9	0.029745476
89	0xbc6a73f5	-0.014309873
90	0xbc59d397	-0.013295076
91	0x3a99979b	0.0011718156
92	0xbccb734d	-0.024835253
93	0xbd083a96	-0.033258997
94	0xbacb5fb9	-0.0015516198
95	0xbc532ed8	-0.012889586
96	0xbce71e71	-0.028212758
97	0x3d25ed38	0.040509433
98	0xbd4629c5	-0.04837968
99	0xbd03d523	-0.032185685
100	0xbd4912c1	-0.04909015
101	0xbd70753f	-0.058705565
102	0xbdb217ac	-0.08695921
103	0x3d32802a	0.043579258
104	0xbd901bc6	-0.07036547
105	0xbd914638	-0.07093471
106	0xb95b8247	-0.00020934
107	0x3b6bd267	0.0035983564
108	0xbc3cfe47	-0.011535234
109	0x3c082f56	0.008312067
110	0xbcf79f00	-0.030227184
111	0xbbb46851	-0.0055055995
112	0x3945c632	0.00018861218
113	0xbd429e24	-0.047514096
114	0xbcf145df	-0.029452262
115	0xbce80dbb	-0.02832686
116	0x3c55912d	0.013035101
117	0xbd6ef3d6	-0.05833801
118	0x3d1b70e5	0.03794946
119	0xbd9f3251	-0.07773269
120	0x3c8f0d88	0.017462507
121	0xbd6d2da0	-0.05790484
122	0xbd0b0e85	-0.033949394
123	0xbd2131e8	-0.039354235
124	0x3d4b0b67	0.04957142
125	0x3bf0f492	0.007353374
126	0x3d21d4cd	0.039509583
127	0x3d2f8a8a	0.04285673
128	0xbd924d54	-0.071436554
129	0x3c621b7d	0.013800499
130	0x3dc65d01	0.09685708
131	0x3cefbdc3	0.02926529
132	0xbd233cb5	-0.039852817
133	0x3a8c5492	0.0010706356
134	0xbd8c1233	-0.06839409
135	0xbd05b0ea	-0.03263942
136	0xbc167b25	-0.009184633
137	0xbd5a5683	-0.05330516
138	0x3c75f45c	0.015011873
139	0xbd920b9d	-0.07131121
140	0x3d377135	0.044785697
141	0x3d217e32	0.03942699
142	0x3d594d1c	0.053052053
143	0xbd99ac3e	-0.07503556
144	0xbd0377d8	-0.032096714
145	0xbc8608a0	-0.016361535
146	0x3d2952ea	0.04133884
147	0x3d1a70fd	0.03770541
148	0xbd21d6b5	-0.0395114
149	0x3ce7e1fa	0.028305996
150	0xbcc73c71	-0.024320813
151	0x3ca40731	0.02002296
152	0x3a5e2f09	0.0008475637
153	0xbd0e81e9	-0.03479186
154	0xba8214f9	-0.0009924463
155	0xbd839177	-0.064242296
156	0xbd544b99	-0.051829908
157	0x3c199a05	0.0093751
158	0x3d12fff1	0.035888616
159	0x3d36207c	0.044464573
160	0xbcde21dc	-0.027115755
161	0x3d142d9f	0.03617632
162	0x3b5ea68d	0.0033973784
163	0x3d9a0539	0.075205274
164	0x3c4e65a7	0.012597478
165	0xbd637390	-0.05553013
166	0xbd8bd1d9	-0.06827135
167	0x3d85ffdc	0.06542942
168	0xb95a26f2	-0.00020804608
169	0x3cf59555	0.029978434
170	0x3ccbec39	0.024892913
171	0xbd4e059d	-0.050298322
172	0x3d23f2cf	0.040026482
173	0x3ae30a76	0.0017321843
174	0x3b70871d	0.0036701628
175	0x3c49a675	0.012307753
176	0xbaf626b3	-0.0018779844
177	0xbc735638	-0.014852099
178	0x3d22d6e2	0.03975571
179	0xbc54cdce	-0.012988521
180	0x3cf95c45	0.030439505
181	0xbba4ab44	-0.0050252993
182	0xbab24155	-0.0013599793
183	0xbc30ccb8	-0.010790996
184	0x3b38c718	0.002819484
185	0xbc2104af	-0.009827777
186	0xbc1db5b9	-0.009625846
187	0x3ca1bfff	0.019744871
188	0xbcaad76e	-0.020854678
189	0xbc35ad48	-0.011088677
190	0xbda1a317	-0.07892435
191	0x3d21a9e9	0.03946868
192	0x3d0b3622	0.033987172
193	0x3c88c37a	0.016694773
194	0x3cad75bc	0.021174304
195	0xbc844940	-0.01614821
196	0xba0c8279	-0.0005360018
197	0x3b4ca5ac	0.0031226678
198	0xbcd2a422	-0.02571303
199	0xbbe46ea9	-0.0069711995
200	0xbd0471c2	-0.03233505
201	0xbd32dc43	-0.04366709
202	0x3d1c5066	0.03816261
203	0x3d6c73e3	0.057727706
204	0xbda1eed9	-0.07906885
205	0xbc2cb7bb	-0.010541852
206	0xb98ec9be	-0.0002723466
207	0xbcc08b7b	-0.02350401
208	0x39d660b8	0.00040889322
209	0xbcf73220	-0.030175269
210	0x3cdc0a11	0.026860269
211	0xbc4b4bc9	-0.012408205
212	0x3d23c35d	0.039981235
213	0xbd9b1179	-0.07571692
214	0xbd8e41ac	-0.0694612
215	0xbdaf9bd6	-0.08574645
216	0xbcf41c1b	-0.029798558
217	0x3d046c7a	0.032330014
218	0xbd3ad9c2	-0.045617826
219	0x3bbfd723	0.0058545037
220	0xba54ac3d	-0.00081128237
221	0x3cb3db35	0.021955112
222	0xbc8d3645	-0.017237792
223	0xbcf9bb83	-0.03048492
224	0x3cfd544f	0.03092399
225	0x3d6bf43a	0.05760596
226	0xbc5837bc	-0.013196882
227	0x3b895618	0.0041911714
228	0x3bdb9a10	0.0067017153
229	0xbd35b636	-0.044363223
230	0xbcdcaa99	-0.026936816
231	0xbd57e04b	-0.052704137
232	0xbc6a560a	-0.01430274
233	0xb786e6dc	-1.6081547e-05
234	0xbd78b765	-0.060721774
235	0xbd83a891	-0.06428636
236	0x3cf50beb	0.02991291
237	0x3e002948	0.12515748
238	0xba9b7100	-0.0011859238
239	0x3bf639e7	0.0075142267
240	0x3d126c2d	0.035747696
241	0x3c3d67b0	0.011560366
242	0x3d83e935	0.06440965
243	0xbcd1b414	-0.025598563
244	0x3d5b5d0b	0.05355553
245	0xbd1a3b64	-0.037654296
246	0x3c5d4a8c	0.013506543
247	0xbd82d31a	-0.06387921
248	0xbdac4784	-0.08412078
249	0xbd2f67e1	-0.042823676
250	0xbdba1272	-0.090855494
251	0x3d82164d	0.0635191
252	0x3cbb5e33	0.022872066
253	0xbd84420a	-0.064579085
254	0x3d18af23	0.0372764
255	0x3c5c80d1	0.013458447

bias f4 [3]
0	0x3d308522	0.043095715
1	0x3c2cf554	0.010556538
2	0xbb912546	-0.004429492

weight f4 [3, 768]
0	0x3d8ff67a	0.070294335
1	0xbca1bebf	-0.019744275
2	0xba6a3adc	-0.00089351623
3	0xbd5213b2	-0.051288314
4	0x3d9a70ec	0.075410694
5	0x3c4a1372	0.012333738
6	0xbd365b11	-0.04452044
7	0xbd528aa0	-0.051401734
8	0xbd4faf1d	-0.05070411
9	0xbda2220d	-0.07916651
10	0xbd94e464	-0.072701246
11	0x3d3b26ad	0.04569118
12	0x3d9dbcaa	0.077020004
13	0xbd85658d	-0.0651351
14	0x3d8d1d77	0.068903856
15	0x3d74c97b	0.05976246
16	0xbd3d120f	-0.0461598
17	0x3afa37cc	0.0019090115
18	0xbc14b1ab	-0.0090755625
19	0x3da703b6	0.08155005
20	0xbd648010	-0.055786192
21	0xbd80b7d9	-0.06285066
22	0xbd2be3af	-0.041965183
23	0xbcc77489	-0.02434756
24	0x3d2a35cc	0.04155521
25	0x3ca99bcc	0.020704173
26	0x3d91fbef	0.07128131
27	0xbc3a281c	-0.011362102
28	0xbcf9f924	-0.030514307
29	0xbd1613f5	-0.036640126
30	0xba9ff3fe	-0.0012203453
31	0x3c96777b	0.01836752
32	0xbc8b1091	-0.016975673
33	0xbd1b0dab	-0.03785483
34	0xbb4a3290	-0.0030852892
35	0x3d654789	0.055976424
36	0x3c9f81cd	0.019471074
37	0xbc4281c4	-0.011871759
38	0x3e134aa5	0.14383943
39	0x3d8da7c6	0.06916766
40	0xbd29d26f	-0.04146045
41	0x3db46ed2	0.088102
42	0xbd4adf39	-0.049529288
43	0xbc8f9dd9	-0.017531322
44	0x3e022aa0	0.12711573
45	0x3e9cc658	0.30620074
46	0xbcdb0fb3	-0.026740884
47	0x3d0b5417	0.03401574
48	0x3d6a0df1	0.0571422
49	0xbd52eca3	-0.051495206
50	0x3cb8e418	0.022569701
51	0xbcee63d8	-0.029100344
52	0xbc931814	-0.017955817
53	0xb80c9051	-3.3513006e-05
54	0xbcd44322	-0.025910918
55	0x3d3cab49	0.046061788
56	0x3c2bc7d4	0.010484654
57	0xbd83d4fc	-0.06437108
58	0x3dade9b2	0.084918395
59	0x3dbd1ba7	0.0923379
60	0xbd17d2c7	-0.037066247
61	0x3d87eccd	0.06636963
62	0x3da94db9	0.082667775
63	0x3d8e54d4	0.069497734
64	0x3db2fb4d	0.08739338
65	0x3dbe2b3f	0.09285592
66	0xbcc9effd	-0.024650568
67	0x3d338aa9	0.04383341
68	0xbd906710	-0.070509076
69	0xbdb6aebe	-0.08920048
70	0x3d92b1b7	0.07162803
71	0x006ad090	9.809381e-39
72	0x006ad2e0	9.81021e-39
73	0x806ad290	-9.810098e-39
74	0x3d9fae24	0.077968866
75	0x3b23d8e1	0.0025001096
76	0x3d4142f4	0.047182992
77	0x3d66243d	0.056186903
78	0x3c971475	0.018442372
79	0x3d86def5	0.065854944
80	0xbcd77254	-0.026299633
81	0x3d33f6a9	0.043936405
82	0x3d97b931	0.07408369
83	0xbcc9f414	-0.024652518
84	0xbd945bd1	-0.07244075
85	0x3d47a5bc	0.04874204
86	0x3dd0171a	0.10160656
87	0xbd3fee39	-0.046858046
88	0xbb90eb5c	-0.0044225883
89	0x3a04d852	0.00050676346
90	0xbd021c1e	-0.031765096
91	0xbd523482	-0.051319607
92	0x3d9a133f	0.07523202
93	0x3dac7a4b	0.08421763
94	0x3ce742cf	0.028230099
95	0xbd9a2a81	-0.07527638
96	0x3c6a9f29	0.014320173
97	0xbd7aad2b	-0.061200302
98	0x3d77e4f0	0.060521066
99	0x3d2bf3d2	0.041980572
100	0x3d984a06	0.07435994
101	0x3db23f5a	0.087034896
102	0x3d3a33c4	0.045459524
103	0x3d855d68	0.065119565
104	0x3d7f31f8	0.062303513
105	0x3db3c033	0.087768935
106	0xb858b0ae	-5.166296e-05
107	0x3c8f088e	0.017460134
108	0x3bb0dfa8	0.0053977557
109	0xbbb84175	-0.0056230375
110	0x3d39ad80	0.045331478
111	0xbcaa8be8	-0.020818666
112	0x3ab3015b	0.001365702
113	0xbc98fc6f	-0.018675057
114	0xbaf93510	-0.0019013006
115	0x3bd5e703	0.006527783
116	0xbd13ff72	-0.036132284
117	0x3c66bc89	0.014083036
118	0x3dd8477e	0.10560511
119	0xbd4ec9bc	-0.050485358
120	0xbd6ee0fb	-0.058320027
121	0xbd6754b5	-0.056477267
122	0xbd8cca46	-0.06874518
123	0x3d1ebab5	0.038752276
124	0xbd75d9e6	-0.060022257
125	0x3bcca061	0.0062447046
126	0xbd6654d8	-0.056233257
127	0xbd131a69	-0.03591386
128	0xbcd77609	-0.0263014
129	0xbda40926	-0.080095574
130	0x3d257e34	0.04040356
131	0x3de3091c	0.11085722
132	0x3e02b034	0.12762529
133	0x3d5bb25e	0.0536369
134	0x3dbc2072	0.09185876
135	0x3ae7a69b	0.0017673554
136	0xbc88062a	-0.016604502
137	0x3daf1dd4	0.08550611
138	0xbc3e1944	-0.0116027035
139	0x3be104c8	0.006867025
140	0x3dd269be	0.10274075
141	0x3d801114	0.062532574
142	0x3b4be940	0.003111437
143	0x3bfc4b51	0.007699408
144	0xbd30e964	-0.04319133
145	0xbd63c456	-0.055607162
146	0x3d21a2e2	0.039461978
147	0x3cfa6c07	0.03056909
148	0x3d194e93	0.03742845
149	0x3dc54dd8	0.09633988
150	0x3d257da9	0.040403042
151	0xbda1c80a	-0.078994825
152	0xbac4f4cb	-0.0015026567
153	0xbce2fdb5	-0.027708868
154	0xbd904a38	-0.07045406
155	0xbb2386cc	-0.0024952171
156	0xbd31b908	-0.04338935
157	0x3d450d69	0.048108492
158	0xbd34dcf8	-0.044156045
159	0x3d59104c	0.052994058
160	0x3d95827e	0.0730028
161	0x3d999f5e	0.075011
162	0xbb2f1459	-0.002671501
163	0x3d2e992e	0.042626552
164	0xbc3973c5	-0.0113191055
165	0xbc8671fe	-0.016411778
166	0x3e0d1b37	0.13779913
167	0x3da07daa	0.078364685
168	0x38be433c	9.0724294e-05
169	0x3da043bb	0.078254186
170	0xbc770ee5	-0.015079235
171	0x3cbef8e5	0.023312042
172	0x3d306928	0.043069035
173	0xbccebcd4	-0.025236525
174	0x3d62f486	0.055408977
175	0x3dbe6439	0.0929646
176	0xbcd42e27	-0.025900913
177	0xbcfefa61	-0.03112525
178	0xbd249cdf	-0.040188666
179	0xbd0a9754	-0.033835724
180	0x3c65aeb5	0.014018704
181	0xbce4b1eb	-0.02791687
182	0x3c1d3497	0.009595058
183	0x3d0a57e2	0.033775218
184	0xbd22f922	-0.039788373
185	0xbcebed42	-0.028799657
186	0xbd97d93a	-0.074144796
187	0xbcf338dd	-0.0296902
188	0xbd2ef3d9	-0.04271302
189	0x3d81e6f5	0.0634288
190	0xbd412846	-0.04715755
191	0xbd340995	-0.04395445
192	0x3c8f6e5c	0.017508678
193	0xbd29791b	-0.04137526
194	0x3d513bcc	0.051082417
195	0x3dacb189	0.084323
196	0xbd4a6024	-0.049408093
197	0xbc689100	-0.014194727
198	0x3cec5034	0.028846838
199	0xbd63e330	-0.055636585
200	0xbbdcc248	-0.0067370273
201	0x3d91548b	0.070962034
202	0x3dcb16d7	0.09916466
203	0xbc22a3c3	-0.009926739
204	0xbbaac036	-0.0052109016
205	0x3d5185b7	0.05115291
206	0x3d680a2a	0.05665032
207	0x3d557715	0.05211552
208	0x3d3db437	0.046314444
209	0x3c8dbd41	0.017302157
210	0x3e21ad94	0.15788871
211	0x3dc83d92	0.097773686
212	0x3dbfdab2	0.09367885
213	0x3da915ba	0.08256097
214	0x3e01b34b	0.12666051
215	0xbd47d200	-0.048784256
216	0x3a936b32	0.0011247157
217	0xbd667a22	-0.05626882
218	0x3d6e7142	0.05821348
219	0x3ce3348d	0.02773502
220	0xbcf010ce	-0.029304888
221	0x3c32a983	0.010904673
222	0xbc4baaa8	-0.012430824
223	0x3cd178ca	0.025570292
224	0x3b70e2ce	0.003675628
225	0x3c57e483	0.01317704
226	0xbd85e81c	-0.06538412
227	0xbdb42185	-0.08795456
228	0x3da84f60	0.082182646
229	0x3e0b1278	0.13581264
230	0x3dd2c410	0.10291302
231	0x3d964fbc	0.07339427
232	0x3d8cea87	0.0688067
233	0x3d61994d	0.05507784
234	0xbd4b59f0	-0.049646318
235	0x3ccabcfe	0.024748322
236	0x3c4b1f99	0.01239767
237	0x3ebbbe86	0.36668795
238	0x3a527e0b	0.0008029646
239	0xbd96398c	-0.07335195
240	0x3d316cd9	0.043316696
241	0xbcd1904b	-0.0255815
242	0xbd6a8002	-0.057250984
243	0xbc4489eb	-0.011995773
244	0x3d41c063	0.047302615
245	0x3d839714	0.064253
246	0x3dee0d75	0.116236605
247	0xbc16ca5a	-0.009203518
248	0x3c495d58	0.012290321
249	0x3cbb1426	0.022836756
250	0x3d437233	0.04771633
251	0x3da53943	0.080675624
252	0xbd0a5087	-0.033768203
253	0xb9c360b2	-0.00037265342
254	0x3c3300d4	0.01092549
255	0xbd3150c2	-0.043289907

bias f4 [3]
0	0xbdab21b8	-0.08356041
1	0xbcf33993	-0.02969054
2	0xbc2ebb49	-0.010664769

weight f4 [768, 3]
0	0x3f8f2511	1.1183187
1	0xbe2895df	-0.16463421
2	0x3f1051ea	0.5637499
3	0xbe66e0b3	-0.22546653
4	0x3ea34974	0.31891978
5	0x3f97e703	1.1867374
6	0xbf575b27	-0.8412346
7	0xbf234b96	-0.6378721
8	0xbf3690af	-0.7131452
9	0xbe6091ff	-0.21930693
10	0xbec16b01	-0.3777695
11	0x3f5e7883	0.86902636
12	0xbf9b85e1	-1.2150232
13	0xbc4746fc	-0.01216292
14	0xbf16890b	-0.5880286
15	0xbf0a3bfa	-0.53997767
16	0x3e957cf1	0.29196885
17	0xbf872f34	-1.056128
18	0x3f151afd	0.58244306
19	0xbfa88c99	-1.3167907
20	0xbe5b5fd0	-0.21423268
21	0xbf685662	-0.9075681
22	0x3efe2b01	0.49642184
23	0x3fa96980	1.3235321
24	0x3ef39bc5	0.4757978
25	0xbf74ef39	-0.95677525
26	0x3e795eea	0.24352613
27	0xbe2edcab	-0.17076366
28	0xbf5bb7f8	-0.8582759
29	0xbefd94ff	-0.49527737
30	0xbeaace8f	-0.33360717
31	0xbe10079a	-0.140654
32	0xbf344c3e	-0.70428836
33	0x3fad67e0	1.3547325
34	0x3eb530ab	0.35388693
35	0xbf90a967	-1.1301697
36	0x3ebd9f99	0.37035826
37	0x3ed2cae2	0.41170412
38	0xbf1b182c	-0.6058376
39	0x3f90d342	1.1314471
40	0xbe3d3382	-0.1847668
41	0xbf9ec7ba	-1.2404702
42	0xbeef2062	-0.46704394
43	0x3bd3bda1	0.0064618145
44	0xbed2e81f	-0.4119272
45	0x3f8a74ca	1.0816891
46	0xbeff4ce7	-0.4986336
47	0xbf021a64	-0.5082152
48	0x3f36cabe	0.7140311
49	0xbf2bb6e1	-0.67075926
50	0x3ee88e55	0.4542109
51	0x3f9cfcab	1.2264608
52	0xbf5a6a95	-0.8531888
53	0xbf3a87ed	-0.72863656
54	0x3f9670e1	1.1753198
55	0x3f8265c3	1.0187305
56	0x3e7b4e5e	0.24541613
57	0x3f067f9c	0.52538466
58	0xbf3032df	-0.68827623
59	0xbf23bab6	-0.63956773
60	0xbf7e936c	-0.994437
61	0x3f27759f	0.6541385
62	0x3ecf6081	0.40503314
63	0x3db87be4	0.09008005
64	0xbea2485f	-0.3169584
65	0x3f0dba5b	0.5536248
66	0xbeac0290	-0.33595705
67	0xbc8ed07f	-0.017433403
68	0x3e5ff734	0.21871644
69	0xbe23d931	-0.1600082
70	0x3e847c3e	0.2587604
71	0x3fbd7cbc	1.4803691
72	0xbf11c053	-0.5693409
73	0xbe571704	-0.21004874
74	0xbf618380	-0.8809128
75	0xbe68f24c	-0.22748679
76	0xbf8224e1	-1.0167505
77	0x3f9c54db	1.2213396
78	0x3f6c3dd4	0.9228184
79	0xbe81fe1a	-0.25389177
80	0xbe1e15dc	-0.15438026
81	0x3ea69a37	0.32539532
82	0x3f78dadd	0.9720896
83	0xbd792bb0	-0.06083268
84	0xbe8ae73a	-0.27129537
85	0x3f23411d	0.6377123
86	0x3ede5575	0.43424574
87	0xbf5888b3	-0.84583586
88	0xbc8d0746	-0.017215382
89	0x3f092444	0.5357096
90	0xbe8cbc9b	-0.27487645
91	0x3f87ecc5	1.0619131
92	0x3f34176f	0.70348257
93	0xbec1a4f6	-0.37821168
94	0xbed61514	-0.41812956
95	0x3cd4a9ae	0.025959816
96	0x3f2d53cd	0.67705995
97	0x3f14d980	0.5814438
98	0xbe898e88	-0.26866555
99	0xbdb25fb9	-0.08709664
100	0x3ea47ec7	0.32127973
101	0x3b08c591	0.0020869712
102	0x3eb4f2e6	0.35341567
103	0x3f530be6	0.8244003
104	0x3d87e12d	0.06634746
105	0x3f55ef9f	0.8356876
106	0xbfa41a9a	-1.2820618
107	0x3f16a61d	0.5884722
108	0x3e600035	0.21875079
109	0xbf55710b	-0.83375615
110	0x3ed80544	0.42191517
111	0xbfa0025e	-1.2500722
112	0xbf86e797	-1.0539426
113	0xbf8aa342	-1.0831072
114	0xbf2b2b5b	-0.6686303
115	0x3f852595	1.0402094
116	0x3f436e18	0.76339865
117	0x3efe92ad	0.4972128
118	0xbde5e928	-0.11226112
119	0x3e34cff8	0.17657459
120	0xbf00c691	-0.5030299
121	0xbda6e836	-0.081497595
122	0xbe2da302	-0.16956714
123	0xbee2724b	-0.44227824
124	0x3e3393b0	0.17536807
125	0x3f6700e8	0.9023576
126	0x3f33cd40	0.7023506
127	0xbd85f8a5	-0.06541566
128	0x3e66c655	0.22536595
129	0x3f077a21	0.5292073
130	0xbf0f545b	-0.5598809
131	0x3f6b5787	0.9193043
132	0xbeda2144	-0.42603505
133	0x3f4bb090	0.7956629
134	0xbf849daa	-1.0360615
135	0xbf3ac90d	-0.7296303
136	0xbb5970a9	-0.0033178723
137	0xbf40a586	-0.7525257
138	0xbdf5afa1	-0.11996389
139	0xbee40a98	-0.44539332
140	0x3f7b55eb	0.98177975
141	0xbf8e6b69	-1.1126529
142	0xbe8ff85d	-0.28119174
143	0x3f754791	0.95812327
144	0xbf397697	-0.7244658
145	0x3f72c754	0.948354
146	0xbf9e8ccd	-1.2386719
147	0x3f8ede32	1.1161559
148	0xbf83a7cc	-1.0285583
149	0xbf253d72	-0.64546883
150	0x3e24d04b	0.16095082
151	0xbdf62d6e	-0.12020384
152	0xbf017bba	-0.50579417
153	0xbf3fd6cf	-0.74937147
154	0xbf377fd0	-0.716794
155	0x3f3dac0b	0.7409064
156	0xbc8bf8b0	-0.017086357
157	0xbd82f5c0	-0.06394529
158	0x3f208ddd	0.62716466
159	0x3f416ed6	0.7555975
160	0xbeeed9e9	-0.46650627
161	0x3e728d38	0.23686683
162	0x3f28569e	0.6575717
163	0x3ef68a15	0.48152223
164	0x3f7495b8	0.9554095
165	0xbd72ec94	-0.05930765
166	0xbf8163b3	-1.0108551
167	0x3ec8e855	0.39239755
168	0xbeddfe7c	-0.4335822
169	0x3df642e3	0.120244764
170	0xbf27c6fb	-0.65537995
171	0x3f302bc0	0.6881676
172	0x3ea93029	0.33044556
173	0x3edd6e7b	0.43248352
174	0x3ee58c77	0.4483373
175	0x3f034c05	0.5128787
176	0x3dc674c8	0.09690243
177	0x3f7e8536	0.99422014
178	0x3f2f1644	0.6839335
179	0xbf569707	-0.838242
180	0xbe1e1819	-0.1543888
181	0xbf318978	-0.69350386
182	0xbf7adebc	-0.97996116
183	0x3f646037	0.8920931
184	0x3d59a882	0.053139217
185	0xbf9c6c3a	-1.2220528
186	0x3d8dd1a8	0.069247544
187	0xbf879887	-1.0593423
188	0xbf074f06	-0.52854955
189	0x3e9978b3	0.299749
190	0x3f7ad8ab	0.9798686
191	0xbf2090ed	-0.6272114
192	0x3eefb3b1	0.4681678
193	0xbf6e64d7	-0.9312262
194	0x3f84fff9	1.0390617
195	0x3f7df21d	0.9919756
196	0x3e49af47	0.19695769
197	0xbde78229	-0.11304123
198	0xbf7eaf06	-0.99485815
199	0x3e0be36b	0.13660972
200	0xbea7053d	-0.32621184
201	0xbea8688d	-0.32892266
202	0x3f11ed3c	0.57002616
203	0x3f9e45b4	1.2365022
204	0xbf4d3ecd	-0.8017395
205	0x3f43d5c7	0.76498073
206	0xbf246fdb	-0.6423318
207	0xbeb9efaf	-0.36315677
208	0xbbac0fe0	-0.005250916
209	0x3f65de52	0.8979236
210	0xbf096daf	-0.5368299
211	0x3ef18dd7	0.47178528
212	0x3f0b85d4	0.5450108
213	0x3f9372ad	1.1519371
214	0x3f8db8fd	1.1072079
215	0x3e076209	0.13220991
216	0x3f8bfd24	1.0936627
217	0xbf11c958	-0.5694785
218	0xbf08480c	-0.53234935
219	0xbf65c9a5	-0.8976081
220	0x3f0297fb	0.51013154
221	0xbf0d6865	-0.5523742
222	0x3d1726be	0.03690218
223	0x3f2d99e1	0.67812926
224	0x3f44b05c	0.76831603
225	0xbf4b72be	-0.7947196
226	0x3eaeb1a6	0.3411991
227	0xbde44a90	-0.11147034
228	0xbf12fd1f	-0.5741748
229	0x3f86bb66	1.052594
230	0xbf778414	-0.9668591
231	0x3dfb79b1	0.1227907
232	0xbbac4b56	-0.005258004
233	0x3e7802ac	0.24219769
234	0x3f8838fa	1.0642388
235	0xbe9e0c4d	-0.3086876
236	0x3e68d581	0.22737695
237	0x3ed2b8fc	0.41156757
238	0x3f349272	0.7053596
239	0x3f704f77	0.93871254
240	0xbebe0e55	-0.3712031
241	0x3dd74de2	0.10512902
242	0x3f7c4c16	0.985536
243	0x3ebd84f3	0.37015495
244	0x3f8902e0	1.0704002
245	0xbe9493e0	-0.2901907
246	0x3d8c8eb8	0.06863159
247	0xbf3c1b92	-0.7347957
248	0xbf26223e	-0.64896
249	0xbed86ff0	-0.42272902
250	0x3f5d8c04	0.8654177
251	0x3f280014	0.6562512
252	0x3daab6cc	0.08335647
253	0x3f3f4cda	0.7472664
254	0x3e984c22	0.29745585
255	0x3ee46af5	0.44612852

bias f4 [768]
0	0x3cbc6a7c	0.022999994
1	0xbc08c8e1	-0.0083486745
2	0x3d801ac8	0.06255108
3	0x3d694ed5	0.056959946
4	0xbcabeac6	-0.020985972
5	0xbc51bea4	-0.0128018
6	0x3ce727e9	0.028217273
7	0x3ca84b0c	0.020543598
8	0x3bde5824	0.0067854095
9	0xbd0cdd3c	-0.034390673
10	0x3c924ac4	0.017857917
11	0x3ea58473	0.32327613
12	0xbd420e75	-0.04737707
13	0xbd89a9ed	-0.06721864
14	0xbd3f86ae	-0.0467593
15	0xbd3b59c8	-0.04573992
16	0xbd839f18	-0.06426829
17	0xbc119041	-0.0088844905
18	0xbc682293	-0.014168399
19	0x3cb9e8c4	0.022694
20	0xbd79c654	-0.060980156
21	0xbd051ad0	-0.032496274
22	0x3d304e37	0.04304334
23	0x3ee8b8c2	0.4545346
24	0xbd4ba922	-0.049721844
25	0x39736b90	0.00023214356
26	0xbd21de3f	-0.03951859
27	0xbdb58c33	-0.088646315
28	0xbd9791e7	-0.074008755
29	0x3c4296b2	0.011876749
30	0xbcde0356	-0.0271012
31	0xbdc3c6ff	-0.0955944
32	0x3b927e67	0.0044706347
33	0xbbaa379a	-0.0051946165
34	0xbd6287e6	-0.055305384
35	0x3ed0c7f7	0.4077756
36	0x3c835ecc	0.016036414
37	0xbdc7a5b7	-0.097484045
38	0xbd3b3ac9	-0.04571036
39	0xbdc5b62a	-0.09653886
40	0xbcf73919	-0.030178593
41	0xbd312f1c	-0.043257818
42	0xbde2318d	-0.11044607
43	0xbddc3060	-0.10751414
44	0xbd6ebc92	-0.058285303
45	0xbd7014b3	-0.05861349
46	0x3c6c6d43	0.014430347
47	0xbe5cc2fe	-0.21558759
48	0x3b536078	0.0032253545
49	0xbcfa3194	-0.030541219
50	0xbcc395cd	-0.023875142
51	0x3d2fb8bc	0.042900786
52	0x3d9b7df1	0.07592381
53	0x3d1f6b47	0.038920667
54	0x3d5bad74	0.053632215
55	0x3c9d447f	0.0191977
56	0x3baf8e9f	0.005357578
57	0x3e1cd889	0.15316977
58	0x3b27f5dd	0.0025628724
59	0x3d6384dd	0.05554663
60	0xbda50877	-0.08058255
61	0xbc0144a7	-0.007889903
62	0xbd0934cd	-0.03349762
63	0xbc83e597	-0.016100688
64	0xbd1fd84f	-0.039024647
65	0xbc5c49ce	-0.013445331
66	0x3c2e884a	0.010652611
67	0xbd11f22e	-0.03563135
68	0xbb8029f7	-0.0039112526
69	0xbd813dab	-0.0631059
70	0xbd4a2056	-0.049347244
71	0x3eb2e7db	0.34942517
72	0x3b5d04ec	0.0033724857
73	0x3db177c4	0.086654216
74	0x3d244013	0.04010017
75	0x3d9e6bac	0.077353805
76	0x3d9dd7f3	0.07707205
77	0x3d5d9623	0.05409826
78	0x3cdd2204	0.026993759
79	0x3da3c663	0.07996824
80	0x3d891a9c	0.066945285
81	0x3e1dbcc8	0.15404046
82	0x3d19e11d	0.0375682
83	0xbeab5d9e	-0.33469862
84	0xbdd3e09d	-0.10345576
85	0x3d70ae63	0.058760058
86	0x3b3a4020	0.002841957
87	0xbc888388	-0.016664281
88	0x3cf794b3	0.030222273
89	0x3d3fe9a4	0.046853676
90	0xbb72dcba	-0.0037057833
91	0x3d4809bc	0.04883741
92	0x3c2027b1	0.009775088
93	0x3da706f9	0.08155627
94	0xbcac0b83	-0.021001583
95	0xbe105aa5	-0.14097078
96	0xbd0ba80c	-0.03409581
97	0x3c973d25	0.018461773
98	0x3cc7afca	0.024375815
99	0x3d0f6b53	0.03501446
100	0x3d8c2c77	0.068444185
101	0x3d9ced94	0.07662502
102	0x3d36a19c	0.044587716
103	0x3d9b77ad	0.07591186
104	0x3db97460	0.090554
105	0x3bc719bd	0.0060760663
106	0x3d9253c1	0.07144881
107	0x3e624ff4	0.22100812
108	0x3cc64d3b	0.024206748
109	0x3dad4adc	0.08461544
110	0x3e0128aa	0.12613168
111	0x3d963008	0.0733338
112	0x3c7fe34d	0.015618158
113	0x3ccb6205	0.024827013
114	0x3d974836	0.0738682
115	0x3dd5d568	0.10441095
116	0x3d1aa0a8	0.03775087
117	0x3e3ecc2a	0.1863257
118	0x3ddb01b2	0.10693683
119	0xbf1bfecf	-0.6093568
120	0xbda7c614	-0.08192077
121	0xbd58dbdc	-0.05294405
122	0xbd540861	-0.051765803
123	0xbd55965e	-0.052145354
124	0xbd980bef	-0.07424151
125	0xbd4d5404	-0.05012895
126	0xbd136ae7	-0.035990622
127	0xbc9e929e	-0.019357022
128	0xbd181650	-0.037130654
129	0xbd141b99	-0.03615913
130	0xbc83a488	-0.016069666
131	0x3f2e36c8	0.6805234
132	0xbe1371cf	-0.14398883
133	0x3d5f351c	0.05449401
134	0x3db0ee14	0.0863916
135	0x3d30ad09	0.04313377
136	0x3d7daef0	0.06193441
137	0x3d9f357e	0.07773875
138	0x3d6534dd	0.055958617
139	0x3dc79997	0.09746092
140	0x3de4ece1	0.111779936
141	0x3d840a3f	0.06447267
142	0x3dc90ab2	0.09816493
143	0x3e0f28b8	0.13980377
144	0xbb23468e	-0.002491388
145	0x3c9eea7c	0.01939892
146	0x3cb7a092	0.022415433
147	0x3d868258	0.0656783
148	0x3dc8ea9a	0.09810372
149	0x3d20e2b8	0.039278716
150	0x3d73b8a1	0.059502248
151	0x3d59468b	0.05304579
152	0x3db90bd3	0.090354584
153	0x3d223459	0.039600704
154	0x3d72a948	0.05924347
155	0x3c12a556	0.008950552
156	0x3d8084cc	0.06275329
157	0x3db453e4	0.08805063
158	0x3d9c9318	0.076452434
159	0x3dd27c81	0.102776535
160	0x3dab70af	0.08371102
161	0x3da1cc10	0.0790025
162	0x3dd4d605	0.103923835
163	0x3d49330e	0.049120955
164	0x3da46399	0.08026809
165	0xbdab4b7e	-0.08364008
166	0x3e4a1162	0.19733194
167	0xbf204fdf	-0.62621874
168	0xbcbc7a56	-0.023007553
169	0x3d008fc6	0.031387113
170	0xbd859d9f	-0.065242045
171	0x3b9db3ef	0.0048127095
172	0x3df35918	0.11882228
173	0x3d0b5c00	0.034023285
174	0x3d0d51a3	0.034501683
175	0x3ccb0176	0.02478097
176	0x3d958c6b	0.07302173
177	0xbd690a70	-0.05689472
178	0x3d76bf76	0.060241185
179	0xbee2a30d	-0.44265023
180	0xbdb8e8c3	-0.09028771
181	0xbc056cbd	-0.008143601
182	0x3d040a94	0.03223665
183	0xbce68b18	-0.028142497
184	0x3d4cbf71	0.04998726
185	0x3caf88b2	0.021427486
186	0x3aa6d3c5	0.0012727907
187	0xb82635cf	-3.9627597e-05
188	0x3d660c53	0.056164097
189	0xbdb7142c	-0.08939394
190	0x3acfdd2c	0.0015858761
191	0x3ecc4bb7	0.39901516
192	0xbd802958	-0.06257886
193	0x3dab0748	0.08350998
194	0x3d9bf347	0.07614761
195	0x3d8e6aec	0.069539875
196	0x3df11109	0.11770827
197	0x3d8d0cc0	0.068871975
198	0x3d95d5f1	0.07316197
199	0x3dd2640c	0.10272989
200	0x3dc4bcfc	0.096063584
201	0x3d06a9f9	0.032876942
202	0x3d8a6258	0.06757039
203	0x3db310df	0.08743452
204	0xbd077ea0	-0.033079743
205	0xbd0e90c2	-0.03480602
206	0xbdc2df1f	-0.09515213
207	0xbe00c7ee	-0.12576267
208	0xbdee4506	-0.11634259
209	0xbd989d18	-0.07451838
210	0xbd21a140	-0.03946042
211	0xbd2f6f39	-0.04283068
212	0xbde4289d	-0.11140559
213	0xbd80ec82	-0.0629511
214	0xbde51354	-0.11185327
215	0x3f15b4ae	0.5847882
216	0x3c8133b6	0.015771728
217	0xbd792549	-0.060826574
218	0xbda9e26b	-0.08295139
219	0xbd61fc44	-0.05517222
220	0xbd6fa28a	-0.05850462
221	0xbcc13d96	-0.023588937
222	0xbd5fe92a	-0.054665722
223	0xbd7c4841	-0.061592344
224	0xbd276bca	-0.04087428
225	0xbd1cee63	-0.03831328
226	0xbcbcb996	-0.023037713
227	0x3eef25a9	0.4670842
228	0xbd4257cd	-0.047447015
229	0x3d038bc1	0.0321157
230	0x3db37444	0.0876241
231	0x3d843cf0	0.064569354
232	0x3e153fa0	0.14575052
233	0x3dd015fe	0.10160445
234	0x3d814e1b	0.063137256
235	0x3e095962	0.13413003
236	0x3db399de	0.08769582
237	0x3d9e6f0b	0.077360235
238	0x3df707f3	0.12062063
239	0x3d461426	0.04835906
240	0x3ccba7e2	0.024860326
241	0x3da7a431	0.08185614
242	0x3d6f184e	0.058372788
243	0x3b2127fe	0.0024590488
244	0x3c69697f	0.014246344
245	0x3c08723a	0.008328015
246	0x3d76c26a	0.060244
247	0x3d39aa36	0.04532834
248	0x3cb373ff	0.021905897
249	0x3cfa00b4	0.030517913
250	0x3c856081	0.016281368
251	0xbe835db1	-0.25657418
252	0x3d603491	0.05473763
253	0xbd13c734	-0.036078647
254	0xbd625e0f	-0.055265483
255	0xbc0864e3	-0.0083248345
