VAE/model/normal2.pth (torch, 99232 bytes, 17 tensors)

weight f4 [16, 1, 3]
0	0xbe875af0	-0.26436567
1	0xbeece859	-0.46271017
2	0x3fa1b0b7	1.2632054
3	0xbf79e403	-0.97613543
4	0x3f108970	0.56459713
5	0x3f3712ee	0.7151326
6	0xbf49bd50	-0.7880449
7	0x3f957820	1.1677284
8	0x3edb45c7	0.42826673
9	0x3e399ee0	0.18127012
10	0xbf4058ab	-0.75135297
11	0xbf59ca13	-0.85073966
12	0xbf8d467a	-1.1037133
13	0xbf4b7a87	-0.79483837
14	0xbf29ecd3	-0.6637699
15	0xbf0d3b74	-0.55168843
16	0xbf1feb66	-0.62468565
17	0x3f966903	1.1750797
18	0x3eee5480	0.46548843
19	0x3f8b7a58	1.0896711
20	0x3d952c68	0.072838604
21	0x3f1a799c	0.6034181
22	0xbe0fd65e	-0.14046618
23	0xbf323de1	-0.6962567
24	0x3f8dd2c4	1.1079946
25	0x3fa20845	1.2658774
26	0xbe7c7e81	-0.24657632
27	0x3eb6e755	0.35723367
28	0x3e169f55	0.14709218
29	0x3f0c8649	0.548924
30	0xbdb49116	-0.088167354
31	0x3f22f1ee	0.63650405
32	0x3f0c64ef	0.5484151
33	0x3eafae60	0.34312725
34	0x3ebff7b2	0.37493664
35	0x3d93372b	0.07188257
36	0x3f5cb571	0.8621436
37	0x3e2abb6c	0.16673058
38	0x3f534cd0	0.8253908
39	0x3e874081	0.264164
40	0x3d620bd8	0.055187076
41	0x3f351982	0.70742047
42	0xbee3548e	-0.44400448
43	0xbf43278b	-0.7623221
44	0xbe03496b	-0.12820975
45	0x3ea2ef94	0.3182341
46	0x3eb2b385	0.34902588
47	0xbf6e7337	-0.93144554

bias f4 [16]
0	0x3d258385	0.04040863
1	0x3e7839b9	0.2424077
2	0x3e0d72dc	0.13813347
3	0x3e090c04	0.1338349
4	0xbd794c50	-0.060863793
5	0xbc8781c6	-0.016541373
6	0x3e64e009	0.22351088
7	0x3cdcb075	0.02693961
8	0xbdeaeae7	-0.11470585
9	0xbd812074	-0.06305018
10	0xbe0c7240	-0.13715458
11	0x3e34d075	0.17657645
12	0xbcde5cde	-0.027143892
13	0x3d9e4a13	0.07728972
14	0x3edda24e	0.4328789
15	0xbd904b32	-0.07045592

weight f4 [32, 16, 3]
0	0x3dc12d27	0.0943244
1	0x3e17e8a4	0.14834839
2	0xbe7847b9	-0.2424611
3	0x3e2b3b6d	0.16721888
4	0xbe223ab4	-0.15842706
5	0x3de031e4	0.10947016
6	0x3d8dff1c	0.06933424
7	0x3d877f2b	0.06616052
8	0x3e03fe48	0.1288997
9	0x3ce052be	0.027383205
10	0x3e8a5d08	0.27024102
11	0x3e282069	0.16418613
12	0xbc8a64e1	-0.016893806
13	0x3e98699a	0.29768068
14	0x3daba9e1	0.08382011
15	0x3c26406b	0.010147194
16	0xbe08deb8	-0.1336621
17	0xbe53c73b	-0.20681469
18	0x3c5822f7	0.01319193
19	0x3e126576	0.14296517
20	0xbe4ed9ef	-0.20200323
21	0xbdadccd1	-0.08486331
22	0xbe98766b	-0.29777846
23	0xbc428e4b	-0.011874746
24	0xbdadc1dc	-0.08484241
25	0xbe807656	-0.25090283
26	0xbe80ec3a	-0.25180227
27	0x3e93033a	0.287134
28	0x3d0f734a	0.035022058
29	0x3ea77113	0.32703456
30	0x3d16f04e	0.036850266
31	0xbe5b7929	-0.21432938
32	0xbd312996	-0.04325255
33	0xbe404d3d	-0.18779464
34	0x3dcca68a	0.09992702
35	0x3c6be1dc	0.014397111
36	0xbc965cbe	-0.01835477
37	0x3e1a66a4	0.15078217
38	0xbd397483	-0.04527713
39	0x3a27411e	0.00063802477
40	0x3d6a65c6	0.057225965
41	0x3e4c1cf0	0.19932914
42	0x3e47b6e5	0.19503362
43	0xbe8d5a09	-0.27607754
44	0x3cd72571	0.02626297
45	0xbe6efd80	-0.2333889
46	0xbe907cc2	-0.28220183
47	0xbb71d065	-0.0036897894
48	0xbe86e456	-0.26346081
49	0x3e6a0f0d	0.22857304
50	0xbdb044cd	-0.08606873
51	0x3e476da0	0.19475412
52	0x3e052c93	0.13005285
53	0x3d3553db	0.044269424
54	0xbda1984c	-0.078903764
55	0xbe97b77f	-0.29632184
56	0xbe8d8782	-0.27642447
57	0x3e8eb07c	0.27869022
58	0x3e7d141a	0.247147
59	0xba9ba349	-0.0011874224
60	0x3e106d48	0.14104187
61	0x3e336329	0.17518295
62	0xbd3967cf	-0.045265015
63	0x3e87ed24	0.2654811
64	0xbe63e5bf	-0.2225561
65	0x3eafbda1	0.34324363
66	0x3d5e070d	0.054205943
67	0x3e6b0e0d	0.22954579
68	0x3dfc80ec	0.123292774
69	0x3db808a1	0.08986021
70	0x3e67f9d8	0.22653902
71	0xbe77cf9d	-0.24200292
72	0x3e8b5c6e	0.27218956
73	0x3e803ebf	0.2504787
74	0xbd3c8be7	-0.04603186
75	0xbc2002f8	-0.009766333
76	0x3e7550c8	0.23956597
77	0x3e6b7d08	0.22996914
78	0xbe269337	-0.16267096
79	0xbea469d8	-0.32112002
80	0xbea9599e	-0.33076185
81	0xbe23b83f	-0.15988253
82	0x3e35405a	0.1770033
83	0x3e91fd45	0.28513542
84	0x3e832e9b	0.25621495
85	0x3d2240cc	0.039612576
86	0x3e6b5cc0	0.229846
87	0x3cb99f61	0.022659006
88	0xbdd52046	-0.10406546
89	0xbe0b97f7	-0.13632189
90	0x3e753d81	0.23949243
91	0x3e15b49d	0.1461968
92	0x3e6194af	0.22029375
93	0x3b06c77e	0.0020565684
94	0x3ea66818	0.32501292
95	0xbc80da96	-0.01572923
96	0xbe6f323a	-0.23359004
97	0xbd5395f9	-0.051656697
98	0x3ca80305	0.020509252
99	0xbca535e5	-0.0201673
100	0x3eb82ab2	0.35970074
101	0x3ea26c99	0.31723478
102	0xbd4daf4d	-0.050216008
103	0xbe363b07	-0.17795955
104	0x3d5e3cb3	0.054257106
105	0xbe28a707	-0.16469966
106	0xbe3ac9ba	-0.18241015
107	0x3d524670	0.051336706
108	0x3abd4601	0.0014440418
109	0xbe80489a	-0.2505539
110	0x3e2b7267	0.1674286
111	0xbe2a9fe3	-0.16662554
112	0xbe34e93a	-0.17667094
113	0xbdcf37c0	-0.10118055
114	0xbdb18254	-0.08667436
115	0x3eb1b1a1	0.34705833
116	0xbe81eaed	-0.25374547
117	0x3e8e2327	0.27761194
118	0xbe50733f	-0.20356463
119	0xbe5393dd	-0.20661874
120	0x3c483834	0.012220431
121	0x3db8cf7e	0.09023951
122	0x3eaabf7b	0.33349213
123	0xbeae3964	-0.3402816
124	0xbe97899e	-0.2959718
125	0xbeb471bf	-0.3524303
126	0xbe1afb2e	-0.1513488
127	0xbe08d232	-0.13361433
128	0xbe8ee1b0	-0.2790656
129	0xbe8a0062	-0.26953417
130	0xbdd489ee	-0.103778705
131	0x3e1cc8dd	0.15310998
132	0x3e825ffc	0.25463855
133	0x3e91a825	0.28448597
134	0x3da1c67e	0.078991875
135	0xbd97522a	-0.073887184
136	0x3e6558c4	0.22397143
137	0x3c27f744	0.010251824
138	0x3e81bfa4	0.25341523
139	0x3e468b36	0.19389042
140	0xbd161323	-0.036639344
141	0x3e376a89	0.17911734
142	0xbc9efa7a	-0.019406546
143	0xbe8e7ea4	-0.27830994
144	0xbea3b9cc	-0.3197769
145	0xbe8fdfd6	-0.2810046
146	0xbe9d71ed	-0.3075098
147	0x3ea2478d	0.31695214
148	0xbe3529da	-0.17691746
149	0xbd817c2d	-0.06322513
150	0xbe5945d5	-0.21218045
151	0xbded5456	-0.115883514
152	0x3e383b9d	0.1799149
153	0xbe5e8070	-0.21728683
154	0x3d6063c1	0.054782633
155	0xbe851b27	-0.25997278
156	0xbe1b58ab	-0.15170543
157	0x3e5282c4	0.20557696
158	0x3dcd557c	0.100260705
159	0x3cdf9316	0.027291816
160	0x3e867828	0.26263547
161	0xbdf38dd4	-0.11892286
162	0xbe4009f6	-0.187538
163	0x3e894bcb	0.26815638
164	0xbe5f09fb	-0.21781151
165	0xbdaeb7ee	-0.085311756
166	0x3e8c9296	0.27455586
167	0xbc2d27ce	-0.010568572
168	0xbe042231	-0.12903668
169	0xbea334d5	-0.31876245
170	0x3eb9deed	0.3630289
171	0x3e08b5ec	0.13350648
172	0xbdd3781d	-0.10325644
173	0xbdb1c86b	-0.08680805
174	0xbdf4a1a8	-0.11944896
175	0xbe5d63b4	-0.21620065
176	0xbe0a2294	-0.13489753
177	0xbe89c4d0	-0.2690797
178	0x3e975820	0.29559422
179	0xbde72d40	-0.11287928
180	0xbe7ee778	-0.24892986
181	0x3e9bd6e0	0.30437374
182	0x3e3877f8	0.18014514
183	0xbe190e3d	-0.14946838
184	0xbe9f8bf9	-0.31161478
185	0xbe28f7eb	-0.16500823
186	0x3e31bd31	0.17357327
187	0x3e818999	0.2530029
188	0x3d514729	0.051093254
189	0xbd226ce1	-0.039654616
190	0xbb4c720a	-0.0031195902
191	0x3df8decc	0.1215187
192	0xbe7825dd	-0.24233194
193	0x3d78a3db	0.06070314
194	0x3de8c8fe	0.11366461
195	0xbc08711d	-0.00832775
196	0xbe95a6db	-0.29228863
197	0xbc87cb35	-0.016576389
198	0xbd97eedd	-0.074186064
199	0x3e93ed43	0.28891954
200	0x3e026882	0.12735179
201	0xbe04792e	-0.12936851
202	0x3e2b3054	0.16717654
203	0xbe309c32	-0.17247084
204	0xbeac28ab	-0.33624777
205	0xbe2c2c32	-0.16813734
206	0xbd24524d	-0.04011755
207	0x3e5e80dc	0.21728843
208	0xbe8f6d9e	-0.2801332
209	0xbea7c79b	-0.32769474
210	0xbe8bcec3	-0.27306184
211	0x3e19b27a	0.1500949
212	0xbe5e6676	-0.21718773
213	0xbdd043c9	-0.10169179
214	0x3d0a2c27	0.033733513
215	0x3e7fdfbb	0.2498769
216	0xbdde831f	-0.10864853
217	0xbdabf64f	-0.08396589
218	0xbcab819c	-0.020935826
219	0x3e8dd56e	0.27701896
220	0x3e62a4ad	0.22133131
221	0xbeb2a2e7	-0.3488991
222	0xbe2daf17	-0.16961323
223	0x3dbe0469	0.09278185
224	0xbdbcfaf7	-0.09227555
225	0x3d707f19	0.05871496
226	0xbe59d06e	-0.21270916
227	0x3e2c2ac3	0.16813187
228	0x3e1e7672	0.15474871
229	0xbe0153da	-0.12629643
230	0xbeaa57f1	-0.3327022
231	0x3e9235c5	0.28556648
232	0x3d530971	0.051522676
233	0x3e434bb7	0.19071852
234	0xbde181d1	-0.11011089
235	0xba4a0871	-0.00077069463
236	0xbdb52fb6	-0.08846991
237	0xbe26e531	-0.16298367
238	0x3d36211c	0.04446517
239	0xbeb34d89	-0.35020092
240	0x3ea05c79	0.3132055
241	0x3e33f0f2	0.17572382
242	0x3df51abb	0.11967989
243	0x3d0620c0	0.032746077
244	0xbe79c507	-0.24391566
245	0xbe124322	-0.14283422
246	0xbc206fd4	-0.009792287
247	0x3e254b83	0.16142087
248	0xbe96e568	-0.29471898
249	0x3de078d1	0.10960544
250	0x3e2abdc1	0.16673948
251	0x3e4faa7f	0.20279883
252	0x3d9ff38d	0.078101255
253	0xbdddc2bb	-0.108281575
254	0x3e98247f	0.29715344
255	0xbe0bb370	-0.13642669

bias f4 [32]
0	0xbda7cc81	-0.08193303
1	0x3d45491f	0.048165437
2	0xbc457a75	-0.012053122
3	0xbba5f8f3	-0.0050650775
4	0xbcb283dc	-0.021791391
5	0x3d0df7d7	0.034660187
6	0x3e557450	0.20845151
7	0x3e779fd4	0.24182063
8	0xbdaed214	-0.08536163
9	0xbdf22952	-0.118242875
10	0x3be704e4	0.0070501436
11	0x3d2e6c27	0.04258361
12	0xbe00252a	-0.12514177
13	0x3c76cf2f	0.015064045
14	0x3cd7bd6c	0.02633544
15	0x3da7f505	0.08201031
16	0x3c42fa1a	0.011900449
17	0xbda7a0ec	-0.0818499
18	0x3e972f21	0.29528144
19	0xbe0d6e2c	-0.13811558
20	0x3eb401d1	0.35157636
21	0xbda30308	-0.079595625
22	0xba6f3048	-0.0009124321
23	0x3e1c3fb9	0.15258683
24	0x3e2a1148	0.16608155
25	0xbdb1e224	-0.08685711
26	0xbe6cca64	-0.23124081
27	0x3d82bc05	0.06383518
28	0xbea6ae23	-0.3255473
29	0x3d69121c	0.056902036
30	0xbe315e95	-0.17321236
31	0xbe30764f	-0.17232631

weight f4 [64, 32, 3]
0	0xbe49cc8d	-0.19706936
1	0x3e30a91d	0.17252012
2	0xbd331f50	-0.043731034
3	0x3e4391ca	0.19098583
4	0x3e03c3a0	0.12867594
5	0xbdff2ccb	-0.124597155
6	0x3e6bbfa9	0.23022331
7	0x3ea19f96	0.31567067
8	0x3d9bc255	0.07605425
9	0x3e363d1c	0.17796749
10	0x3d5e0a40	0.054208994
11	0xba0a8894	-0.0005284634
12	0x3e193077	0.14959894
13	0xbe0a68c3	-0.13516526
14	0x3e25393b	0.16135113
15	0x3e1451e3	0.14484362
16	0xbdc25542	-0.09488918
17	0xbce406b1	-0.027835222
18	0x3e15bfeb	0.14623992
19	0xbe1faf5e	-0.15594241
20	0x3e4310b1	0.19049336
21	0xbe05820e	-0.13037893
22	0x3e0ee50e	0.13954565
23	0x3dd5d120	0.10440278
24	0x3de726bd	0.112866856
25	0x3e93020a	0.28712493
26	0x3d9c656e	0.07636534
27	0x3bb4f93c	0.005522875
28	0xbe891921	-0.26776984
29	0xbd5d85bb	-0.054082613
30	0x3d1ffce8	0.03905955
31	0x3d81f934	0.0634636
32	0x3e4a6d0e	0.19768164
33	0xbe5c9370	-0.21540618
34	0xbe740f86	-0.23834047
35	0xbe85f1cd	-0.26161042
36	0xbdb29230	-0.08719289
37	0xbe55bc7c	-0.20872682
38	0x3e76502c	0.2405402
39	0xbe2218ca	-0.15829769
40	0x3ba15ba1	0.004924253
41	0xbda819f7	-0.082080774
42	0x3dd5c106	0.10437207
43	0xbe5bdcfa	-0.21471015
44	0x3e4b391a	0.19846001
45	0x3e45ec0c	0.19328326
46	0xbdb068ab	-0.08613714
47	0x3e39d242	0.18146613
48	0xbd4a99fb	-0.049463253
49	0xbdaf9f2e	-0.08575283
50	0x3ddc017a	0.10742469
51	0xbe4a75e4	-0.19771534
52	0xbc14588c	-0.009054314
53	0x3e61496a	0.22000661
54	0xbdd6a3c3	-0.10480454
55	0xbe588296	-0.21143565
56	0x3e34a18b	0.17639749
57	0xbda1d0b9	-0.07901139
58	0x3de0b127	0.10971289
59	0x3deaf33b	0.11472174
60	0xbc46ed01	-0.012141467
61	0xbd422de6	-0.047407053
62	0xbd96c6c1	-0.07362128
63	0xbe56fe75	-0.20995505
64	0xbde8f7e7	-0.113754086
65	0xbdb79727	-0.08964377
66	0xbd0a6678	-0.033789128
67	0xbdf29295	-0.118443646
68	0x3dccc4e4	0.099984914
69	0xbe0ed317	-0.13947712
70	0x3c9ed0dc	0.019386701
71	0xbe26d4a2	-0.1629205
72	0xbe59542b	-0.21223514
73	0xbdb63f91	-0.08898843
74	0xbe316db5	-0.17327006
75	0x3d15c4cc	0.036564633
76	0xbdda3980	-0.106554985
77	0x3e1fec05	0.15617378
78	0xbdddba4d	-0.1082655
79	0xbdcb4fe9	-0.09927351
80	0xbd553124	-0.052048817
81	0x3dbd3230	0.09238088
82	0xbd113fef	-0.035461362
83	0xbe452a97	-0.19254528
84	0xbc6dcf1b	-0.01451471
85	0xbdceb5a3	-0.10093238
86	0xbe52490b	-0.20535676
87	0x3c99da15	0.018780747
88	0xbe7f7b4b	-0.24949376
89	0x3c4dbf98	0.012557887
90	0x3d9f0dfd	0.0776634
91	0xbcf1a9e1	-0.02949995
92	0x3d25e2b1	0.040499393
93	0xbd5e4c6e	-0.054272108
94	0x3cc5beac	0.024138771
95	0xbe0ab364	-0.13544995
96	0xbdae36b2	-0.08506526
97	0xbe4debe2	-0.20109513
98	0x3e5b7d8d	0.21434613
99	0xbc505190	-0.0127147585
100	0xbd19f8ae	-0.037590675
101	0x3e7aa910	0.24478555
102	0xbccb4d5e	-0.024817165
103	0xbe267638	-0.16256034
104	0x3e36dffd	0.17858882
105	0xbe55fdbd	-0.20897575
106	0xbe05f78b	-0.13082711
107	0xbde41e81	-0.11138631
108	0x3d775eea	0.06039325
109	0xbd6b6a18	-0.057474226
110	0x3e2dbf47	0.16967498
111	0x3d00d4e3	0.031453025
112	0xbd129f53	-0.035796475
113	0x3e56ddae	0.20983002
114	0x3d26bebb	0.04070924
115	0xbe0aaac4	-0.13541704
116	0x3e29c022	0.16577199
117	0xbe1b00c1	-0.15137006
118	0xbdbca579	-0.09211249
119	0x3e3ac358	0.1823858
120	0xbcfcbf21	-0.030852856
121	0xbe6b5a62	-0.22983697
122	0xbe7874ed	-0.24263354
123	0x3e39952b	0.1812331
124	0xbe4a66bc	-0.19765753
125	0x3d1b3a1e	0.03789722
126	0xbd65c34a	-0.056094445
127	0xbddeb178	-0.10873693
128	0xbd65feb3	-0.056151103
129	0xbe43d273	-0.19123249
130	0xbe31d9b7	-0.17368208
131	0xbe0ddd23	-0.13853888
132	0xbe8d2b39	-0.2757204
133	0xbe375575	-0.17903693
134	0x3e412418	0.18861425
135	0x3bf653db	0.0075173206
136	0x3e790bfd	0.2432098
137	0x3de25f95	0.11053387
138	0x3e421a47	0.18955337
139	0xbdcb561f	-0.09928536
140	0xbe451f84	-0.19250304
141	0xbd3de5c3	-0.046361696
142	0x3e1a2f89	0.15057196
143	0xbb0bcd4b	-0.002133208
144	0x3df0d37b	0.11759087
145	0xbe8256b7	-0.25456783
146	0x3c4341f0	0.011917576
147	0x3c98e45b	0.018663576
148	0x3dbe752a	0.09299691
149	0xbe31d9e7	-0.1736828
150	0x3d24bd72	0.04021973
151	0xbd5504ae	-0.052006416
152	0x3e278397	0.16358791
153	0x3e2619fc	0.1622085
154	0x3d9870eb	0.074434124
155	0x3d8c215e	0.06842302
156	0x3e1903a1	0.1494279
157	0xbd4a77bd	-0.049430598
158	0xbe39de35	-0.18151172
159	0x3e21955e	0.15779635
160	0xbe10aa98	-0.14127576
161	0xbd839716	-0.06425302
162	0x3d142cc4	0.036175504
163	0xbe10c406	-0.14137277
164	0xbe7d0cbe	-0.24711892
165	0x3de80400	0.11328888
166	0x3d0e464b	0.034735005
167	0x3d4d1cfb	0.050076466
168	0xbdc75171	-0.097323306
169	0x3da84dbb	0.08217951
170	0x3ded3093	0.115815304
171	0xbe60ebd2	-0.21964958
172	0x3deb4acd	0.114888765
173	0xbd5af89f	-0.05345976
174	0x3e1df8e7	0.1542698
175	0xbddd2bbd	-0.10799358
176	0x3e371348	0.17878449
177	0xbe5f81b9	-0.21826829
178	0xbe519e4d	-0.20470543
179	0x3dcd0056	0.1000983
180	0xbe378d44	-0.17924982
181	0x3d9ee894	0.077592045
182	0xbcd158cd	-0.025555039
183	0x3e446f15	0.19183
184	0xbd9114bc	-0.07084033
185	0x3ce3e1d5	0.027817646
186	0xbdaf83ef	-0.08570086
187	0x3e537fa6	0.20654163
188	0xbdd64611	-0.10462583
189	0xbbf9e60d	-0.007626301
190	0xbdba2fa6	-0.090911195
191	0x3e075aaa	0.1321818
192	0xbde970f0	-0.11398494
193	0x3e4dc935	0.20096286
194	0xbd938c4f	-0.07204496
195	0x3def2480	0.11676884
196	0x3dbfe750	0.09370291
197	0xbdb6fb23	-0.08934619
198	0x3da50d75	0.08059207
199	0x39c36343	0.00037267254
200	0x3d637f71	0.05554146
201	0x3d32f30c	0.04368882
202	0x3c66bc6a	0.014083007
203	0xbe4ece70	-0.20195937
204	0x3cbc681f	0.022998868
205	0xbcf8cedd	-0.030372078
206	0x3e146fe7	0.14495812
207	0xbe6934ac	-0.22773999
208	0xbda7b56c	-0.081889
209	0xbe3cbe28	-0.18431914
210	0xbe12a832	-0.14321974
211	0xbda7222c	-0.08160815
212	0x3e627314	0.22114211
213	0xbe233699	-0.15938796
214	0x3e710424	0.23536736
215	0x3e295e58	0.16539896
216	0xbde9d5c4	-0.11417726
217	0x3de75f22	0.11297442
218	0x3e181b79	0.1485423
219	0x3db580f2	0.08862485
220	0xbd4f5337	-0.05061647
221	0x3e236e8d	0.1596014
222	0xbdbff419	-0.0937273
223	0xbcfbcbd2	-0.030736838
224	0x3e3ec054	0.18628055
225	0x3d85c42b	0.06531557
226	0xbdab4526	-0.083627984
227	0x3e24e87b	0.1610431
228	0xbe2a78e7	-0.16647683
229	0x3e0cefe6	0.13763389
230	0xbd84ccef	-0.064844005
231	0xbd9a7347	-0.07541519
232	0xbd7bb080	-0.06144762
233	0x3e73f0d9	0.23822345
234	0xbd7bb964	-0.0614561
235	0x3c0e0f34	0.008670617
236	0xbde6b823	-0.1126559
237	0xbdc46410	-0.09589398
238	0x3db6802f	0.08911168
239	0x3c612a69	0.0137430215
240	0xbb092132	-0.0020924327
241	0x3e5880df	0.2114291
242	0xbe33d5ab	-0.17561977
243	0x3d450dc6	0.04810884
244	0xbc10f9f9	-0.008848661
245	0xbd0ea0c0	-0.034821272
246	0xbd637b43	-0.055537473
247	0xbe4fd59d	-0.20296331
248	0x3d956a18	0.072956264
249	0xbb35613f	-0.0027676371
250	0x3e2066c2	0.15664199
251	0x3c8d53d0	0.017251879
252	0x3e61ca71	0.22049882
253	0xbd8514f2	-0.064981356
254	0x3e7c2b6b	0.24625938
255	0x3e00977a	0.12557784

bias f4 [64]
0	0xbc85d323	-0.01633603
1	0x3d0c1651	0.03420097
2	0x3dc1f527	0.09470587
3	0x3d2083be	0.03918814
4	0x3dd8d8f8	0.105882585
5	0x3caeb41d	0.02132612
6	0x3c8ff841	0.017574431
7	0x3d2b352f	0.041798767
8	0xbc3cf7d1	-0.011533693
9	0xbe575c89	-0.21031393
10	0x3ce6cfc5	0.028175244
11	0x3eca3de4	0.39500344
12	0x3d2896e2	0.041159518
13	0xbbad5df9	-0.0052907434
14	0xbda0e283	-0.07855704
15	0x3c9eef82	0.019401316
16	0xbf09be2e	-0.53805816
17	0xbc6bf0f5	-0.01440071
18	0x3e383bea	0.17991605
19	0x3d20752f	0.039174255
20	0xbe8bd7a5	-0.2731296
21	0xbcc18566	-0.02362318
22	0xba2e07da	-0.0006638743
23	0x3e2534af	0.16133378
24	0xbc503316	-0.012707492
25	0x3bc36206	0.005962613
26	0xbd9db8bc	-0.07701251
27	0x3db55222	0.08853556
28	0xbefa7fcf	-0.48925635
29	0xbb02a55b	-0.0019934985
30	0xbc841ef5	-0.016128043
31	0x3d567444	0.052356973
32	0x3d35331f	0.044238206
33	0x3c0274b9	0.007962399
34	0x3d63fbf2	0.055660196
35	0x3d9cdd0b	0.07659348
36	0xbda9154d	-0.08256016
37	0x3dd8b683	0.10581686
38	0x3cc09dda	0.02351277
39	0x3db2c30a	0.08728607
40	0x3cf3e8b4	0.029774047
41	0x3cb4ddf3	0.02207849
42	0x3ca46b8e	0.020070817
43	0x3a1b806d	0.00059319177
44	0x3db01b0a	0.08598907
45	0x3c5deb41	0.013544858
46	0xbd0b876d	-0.0340647
47	0xbc8f483d	-0.0174905
48	0xbd3d8cde	-0.04627692
49	0x3ea7aeb5	0.32750478
50	0x3d8e3f61	0.06945682
51	0xbd49c2f3	-0.049258184
52	0xbde6b6e6	-0.11265354
53	0x3cb11125	0.02161462
54	0xbda49d4a	-0.08037813
55	0x3d205856	0.039146744
56	0xbd318a0e	-0.04334455
57	0xbd22eb6a	-0.03977529
58	0xbcb31a90	-0.021863252
59	0x3e170a4d	0.14750023
60	0x3cf85046	0.030311715
61	0xbea5fef4	-0.32421076
62	0xbcd5bf40	-0.026092172
63	0x3da1c091	0.07898057

weight f4 [3, 768]
0	0x3d0c40a4	0.034241334
1	0x3be12737	0.00687113
2	0xbcde6abe	-0.027150508
3	0x3d481e67	0.04885712
4	0xbcdf9576	-0.027292948
5	0x3b8507f6	0.004059787
6	0xbc41c848	-0.011827536
7	0x3d17e007	0.037078883
8	0xbcaddf7d	-0.021224732
9	0x3d9d1c70	0.0767144
10	0xbc9ee744	-0.019397385
11	0xbca53804	-0.020168312
12	0x3cf77bd3	0.030210411
13	0x3c076d05	0.008265738
14	0xbd07ce9c	-0.033156022
15	0x3ce2e7bf	0.027698396
16	0xbc5acefd	-0.013355014
17	0x3d5f5937	0.05452844
18	0x39b1ba19	0.00033898724
19	0x3c368eb3	0.011142421
20	0x3d94fcad	0.072747566
21	0x3c60ac8e	0.013713015
22	0x3d27fc61	0.04101217
23	0xbd5d0d93	-0.053968024
24	0x3d869979	0.06572241
25	0x3d7fb087	0.06242421
26	0x3d506a3f	0.050882574
27	0x3ca60958	0.020268127
28	0xbd233dcb	-0.039853852
29	0xbd159add	-0.036524642
30	0xbd6cfc79	-0.057857964
31	0xbd3bc14f	-0.04583865
32	0xbccede4c	-0.025252484
33	0xbd8a48d3	-0.06752171
34	0x3d8368ca	0.06416471
35	0xbdab25ee	-0.08356844
36	0x3d737bff	0.059444424
37	0xbd77a361	-0.060458545
38	0xbd33be10	-0.04388243
39	0x3c98582f	0.018596737
40	0x3d987256	0.07443683
41	0xbd0bded3	-0.03414805
42	0x3d6f0525	0.058354516
43	0x3d0f909b	0.035050016
44	0x3cc10312	0.023561034
45	0xba6a661a	-0.0008941606
46	0x3d295099	0.04133663
47	0xbcbf047a	-0.023317564
48	0x3c1212d7	0.008915625
49	0xbb64e181	-0.003492445
50	0xbd224415	-0.03961571
51	0xbc020d03	-0.007937673
52	0x3bf183dd	0.0073704557
53	0xbc105738	-0.008809857
54	0xbd94c5f7	-0.07264321
55	0xbc788541	-0.015168489
56	0x3d540bad	0.051768947
57	0x3db4f694	0.088360935
58	0xbc80c0f6	-0.015717011
59	0xbaae7ca0	-0.0013312288
60	0x3c2a477c	0.01039302
61	0xbd32ac30	-0.043621242
62	0x3bc5b467	0.0060334685
63	0x3cd935b8	0.026514873
64	0x3d2c0e01	0.042005543
65	0xbb45d2ff	-0.0030185578
66	0x3c6feb1b	0.014643456
67	0x3a756714	0.0009361368
68	0x3c12a484	0.008950356
69	0x3c04fed6	0.008117398
70	0xbd2edc3d	-0.042690504
71	0x3cc3e74c	0.023914002
72	0xbd727526	-0.059193753
73	0x3d1f8340	0.03894353
74	0xbbf06083	-0.007335724
75	0xb2c4ee1b	-2.2925681e-08
76	0xb89de791	-7.529476e-05
77	0x3ab8ffc8	0.0014114315
78	0xb7d5e1d7	-2.5496744e-05
79	0xbca5fba6	-0.020261597
80	0x388750ad	6.452329e-05
81	0xb00b8a16	-5.076414e-10
82	0xabd0a7c9	-1.4825859e-12
83	0xb83d5ded	-4.5148587e-05
84	0x3d249c4a	0.04018811
85	0x3d2e89d7	0.042611923
86	0x3cac4105	0.021027097
87	0x3d0ffe7b	0.0351548
88	0x3c25ddc5	0.010123675
89	0x3c084d5c	0.008319225
90	0x3bb01cf6	0.005374546
91	0x3d369149	0.04457215
92	0x3c65ffde	0.014038054
93	0xbae8269b	-0.0017711701
94	0xbcb6f0bb	-0.022331586
95	0x3c46dc94	0.012137551
96	0xbc3575bf	-0.011075436
97	0xbd4e3591	-0.050344054
98	0xbc92972f	-0.017894356
99	0x3c1f6a90	0.009729996
100	0x3c8017a0	0.015636265
101	0x3d4cda97	0.05001315
102	0xbd6b23d7	-0.057407226
103	0x3d33c4db	0.043888908
104	0x3cd94153	0.026520407
105	0xbd9263c5	-0.07147936
106	0xbd155f98	-0.03646812
107	0x3d9a5319	0.07535381
108	0xbb9a3601	-0.004706145
109	0xbc0105c1	-0.007874907
110	0x3c8524ec	0.016252957
111	0xbc8b57b1	-0.017009588
112	0xbc16cfed	-0.009204847
113	0x3b905cbd	0.0044055865
114	0x3cae7503	0.02129603
115	0xbc6804a9	-0.014161267
116	0xbcfecf88	-0.031104818
117	0xbb74e075	-0.0037365232
118	0xbd9845ba	-0.07435174
119	0x3d8fd9e3	0.070239805
120	0xbd61341f	-0.054981347
121	0x3c5d308a	0.013500342
122	0x3cdfa3eb	0.027299842
123	0xbcd3f2f3	-0.025872683
124	0xbd5b2abc	-0.05350755
125	0xbcc597ae	-0.024120178
126	0x3d223f78	0.03961131
127	0xb8d02bbb	-9.926358e-05
128	0xbc822de2	-0.01589102
129	0x3c7f3824	0.01557735
130	0xbcc6b6c3	-0.02425707
131	0xbde04a68	-0.10951692
132	0x3d6aa55c	0.057286605
133	0xbd6901a2	-0.056886323
134	0xbd36c875	-0.044624764
135	0xbb409565	-0.002938592
136	0x3c2cdfc9	0.010551401
137	0x3cfd2577	0.030901654
138	0xbd3af59c	-0.045644388
139	0xbd9915d0	-0.074748635
140	0xbd835167	-0.06412011
141	0x3e3c5ff4	0.18395978
142	0x3d1ede49	0.038786206
143	0x3da20275	0.07910625
144	0x3d88defa	0.066831544
145	0xbd42f9b7	-0.047601428
146	0xbca417b4	-0.020030834
147	0x3c164d51	0.009173707
148	0xbce47316	-0.027886909
149	0xbc729434	-0.014805842
150	0x3c188175	0.009308209
151	0xbb622553	-0.003450711
152	0x3bd2f587	0.0064379605
153	0x3ca35a1c	0.019940428
154	0xbd4658e1	-0.048424605
155	0xac14a5f3	-2.1124185e-12
156	0xbd1734e2	-0.036915667
157	0x3bff9309	0.0077995104
158	0xbc2c559c	-0.010518458
159	0x3d4e6175	0.05038591
160	0x3cce03ce	0.025148299
161	0x3d4cda10	0.050012648
162	0x3d4b73bf	0.04967093
163	0x3d1b9d9c	0.037992105
164	0x3d92872a	0.07154687
165	0x3ca9a0f4	0.020706631
166	0x3c8fb6f4	0.017543294
167	0x30f53bf5	1.7843137e-09
168	0x3b170c00	0.0023047924
169	0xbcc8d81c	-0.024517111
170	0xbd052c3a	-0.03251288
171	0xbc8af73e	-0.016963597
172	0xbc1fc75e	-0.009752123
173	0xbd62664f	-0.05527335
174	0xbc56a657	-0.013101182
175	0x3c3467c0	0.011011064
176	0xbcb844de	-0.022493776
177	0x3cb017f2	0.021495793
178	0xbdf4ab26	-0.119467065
179	0x3d6feec3	0.05857731
180	0x3d5694db	0.052388053
181	0xbd23773d	-0.039908636
182	0xbd642684	-0.055700794
183	0x3c930f0e	0.017951515
184	0xbcf7145a	-0.030161072
185	0x3d343390	0.043994486
186	0x3ca3bd6a	0.01998778
187	0x3ce7f101	0.028313162
188	0xbc7fa0b8	-0.015602283
189	0xbd561ee0	-0.05227554
190	0xbcd1fcae	-0.025633182
191	0xbc16b392	-0.009198086
192	0xaf6e4de1	-2.1673642e-10
193	0xbbc92f6e	-0.0061396873
194	0x2f5ae36e	1.9907784e-10
195	0x3111fbf0	2.1243487e-09
196	0x3d2e5ebe	0.042570822
197	0x319139d4	4.2266297e-09
198	0xb0b2fd10	-1.3023129e-09
199	0xb107abe1	-1.9742787e-09
200	0xb0c1d0be	-1.4101926e-09
201	0x3e03fad7	0.12888657
202	0x3b815fef	0.0039482038
203	0xbc0f0822	-0.008729966
204	0x3d447063	0.047958743
205	0x3bfc2f1a	0.0076960446
206	0xbd92f2f3	-0.07175245
207	0x3cb2d667	0.02183075
208	0xbd991494	-0.07474628
209	0x3cd3f64a	0.025874276
210	0x3d22d568	0.0397543
211	0x3b21adde	0.0024670283
212	0x3bb7456b	0.005592992
213	0xbd3d01b5	-0.046144206
214	0x3c14d16b	0.009083132
215	0x3c0d913b	0.008640583
216	0x3ddf08ab	0.10890325
217	0xbd07a4d9	-0.033116195
218	0x3b6f6357	0.0036527717
219	0xbba27bd1	-0.0049586077
220	0x3c8ed3b9	0.017434942
221	0xbc6b5794	-0.014364142
222	0xbd1d404f	-0.038391408
223	0x3cbb68b4	0.022877075
224	0xbd0ef820	-0.0349046
225	0x3c24d375	0.010060181
226	0x3d932a84	0.071858436
227	0xbc61a064	-0.01377115
228	0x3c1c63e8	0.009545304
229	0x3bbe7b82	0.005813063
230	0x3c3e67ff	0.011621474
231	0x3d3bf13e	0.045884363
232	0xbbf883f5	-0.00758409
233	0x3d35f94d	0.044427205
234	0xbc1baa01	-0.009500981
235	0x3d1f9a97	0.038965788
236	0xbcdf33f2	-0.02724645
237	0xbc34b3f9	-0.011029237
238	0x3cddffcc	0.027099513
239	0xbccaba41	-0.024747016
240	0x3c30428c	0.0107580535
241	0xbc419093	-0.011814254
242	0x3c4445c5	0.011979525
243	0xbb22e540	-0.0024855882
244	0xbcedcd6f	-0.029028622
245	0x3b60a93c	0.003428056
246	0x3c8bae57	0.017050905
247	0xbd1a7d1e	-0.037716977
248	0xbca1f771	-0.01977131
249	0x3c51fe26	0.012816941
250	0xbc89b70e	-0.01681092
251	0xbad9a966	-0.0016606271
252	0x3cc282e2	0.02374405
253	0xbd6b5cf9	-0.057461713
254	0xbc68c1ac	-0.014206331
255	0x3cb639b1	0.022244306

bias f4 [3]
0	0x3d462f6f	0.04838508
1	0x3c9c81ef	0.019104926
2	0xbcc5e07b	-0.024154892

weight f4 [3, 768]
0	0x3da358b2	0.07975902
1	0xbc941366	-0.018075656
2	0x3dcf4ced	0.10122094
3	0x3d0fbea6	0.035093926
4	0x3dc26f4c	0.094938844
5	0x3dcfaf68	0.10140878
6	0x3dc4a929	0.09602577
7	0xbd329ae3	-0.043604743
8	0x3d7f5fd7	0.06234726
9	0x3cdf5a95	0.027264873
10	0x3d8c6032	0.06854285
11	0x3c5dc534	0.013535786
12	0x3cd48c45	0.025945792
13	0xbd55b77b	-0.052176934
14	0xbcfd53ca	-0.030923743
15	0x3d2e0564	0.04248561
16	0x3d6a179c	0.057151422
17	0x3a7875ad	0.0009477984
18	0xbc8dd2a0	-0.017312348
19	0xbc7cfce4	-0.015441153
20	0x3d39e18f	0.045381125
21	0xbbb33d5b	-0.0054699606
22	0xbd7d4215	-0.0618306
23	0xbb9067c9	-0.0044069034
24	0xbc5a9ab1	-0.013342545
25	0xbb20be02	-0.0024527316
26	0x3d618f3d	0.055068243
27	0x3d6bf1a3	0.05760349
28	0xbdbe96eb	-0.09306129
29	0xbce64284	-0.028107889
30	0xbd4abdd1	-0.04949743
31	0x3d8406e0	0.06446624
32	0xbd52a437	-0.05142614
33	0xbd06f18a	-0.032945193
34	0x3c291200	0.010319233
35	0xbd98fd7a	-0.07470222
36	0x3d382f00	0.044966698
37	0x3c99537b	0.018716564
38	0xbd423827	-0.047416832
39	0xbd962d24	-0.07332829
40	0x3d698fb8	0.057021827
41	0xbccd8920	-0.0250898
42	0xbba899d4	-0.005145291
43	0xbd8a5271	-0.06754006
44	0xbc73cd91	-0.014880554
45	0x3d935feb	0.07196029
46	0x3d7a31e2	0.06108273
47	0x3c86df54	0.016463913
48	0x3c11bbaf	0.008894845
49	0xbd9ef574	-0.0776166
50	0xbd019bd3	-0.031642746
51	0xbc88b53a	-0.016687978
52	0xbd951889	-0.0728007
53	0x3c3d327b	0.01154768
54	0xbd0d83b9	-0.03454945
55	0xbd616d62	-0.055035956
56	0xbcb2a4db	-0.021807125
57	0x3d984e56	0.074368164
58	0x3cdd10bd	0.02698552
59	0x3d243904	0.040093437
60	0xbd3b725e	-0.045763366
61	0xbd4de03a	-0.050262667
62	0xbca95a6e	-0.020673003
63	0x3d822adc	0.06355831
64	0x3dbe1784	0.09281829
65	0x3d5cfe67	0.053953554
66	0xbd10d41e	-0.03535854
67	0xbd8bc865	-0.068253316
68	0x3cd7fabc	0.026364677
69	0x3d4042f7	0.046938863
70	0x3d4e7ffc	0.050415024
71	0xbd276e8d	-0.040876914
72	0x3d3eff84	0.046630397
73	0x3dd06a9f	0.10176586
74	0x39e217e8	0.0004312389
75	0x323884c3	1.0740396e-08
76	0x36ee0487	7.09348e-06
77	0x3ae4a173	0.0017443135
78	0x376fb7e4	1.42883255e-05
79	0x3c392e3a	0.011302525
80	0x3b59d80b	0.0033240344
81	0xaf1fd80d	-1.4537722e-10
82	0x2d53b0c4	1.2033211e-11
83	0x3861b63b	5.3813896e-05
84	0x3d7ffb04	0.062495247
85	0x3c15beac	0.009139698
86	0xbd6040b1	-0.054749195
87	0x3d8e7949	0.06956727
88	0xbd0b6a5f	-0.03403699
89	0xbd77bbb8	-0.060481757
90	0x3dc40b51	0.09572471
91	0x3bbe1e7a	0.005801973
92	0x3d5ba3ec	0.053623125
93	0xbc8f9740	-0.017528176
94	0x3d9a7ccb	0.075433336
95	0x3d595195	0.05305632
96	0x3c563ed7	0.013076506
97	0x3cab4ab9	0.020909654
98	0x3d15ede1	0.036603812
99	0x3c2e5e08	0.010642536
100	0x3e17e2fa	0.14832678
101	0xbce72d97	-0.028219981
102	0x3dc98162	0.09839131
103	0x3c96b73c	0.01839792
104	0xbd515871	-0.051109735
105	0x3d7978be	0.060906164
106	0x3cc545ae	0.024081077
107	0x3d833642	0.06406833
108	0xbda4aa28	-0.08040267
109	0xbd18ff1e	-0.037352674
110	0x3de022e3	0.10944154
111	0x3a055660	0.0005086418
112	0x3db01824	0.085983545
113	0xbd817464	-0.06321028
114	0x3ca1c076	0.019745093
115	0x3c51dc4a	0.012808869
116	0x3d160449	0.03662518
117	0x3e9abd85	0.30222717
118	0x3d60e843	0.054909002
119	0xbd84709e	-0.064667925
120	0xbd1b5aca	-0.03792838
121	0x3d057b57	0.03258833
122	0xbc96373f	-0.01833689
123	0xbddc448c	-0.10755262
124	0xbcf85ea4	-0.030318566
125	0x3bf9ef6e	0.007627419
126	0x3c4781ca	0.01217694
127	0x3d4ed229	0.050493393
128	0xbc759a13	-0.014990347
129	0xbd2d17f9	-0.04225919
130	0x3d281dec	0.04104416
131	0x3de0747f	0.1095972
132	0x3d23c4f1	0.03998274
133	0xbd497030	-0.049179256
134	0xbdc57d88	-0.09643084
135	0x3c8b995b	0.017040899
136	0x3c167927	0.009184158
137	0xbd31159e	-0.043233506
138	0xbdbf1b65	-0.09331397
139	0xbd34ec7b	-0.044170838
140	0xbc17d69a	-0.009267474
141	0x3e1ead14	0.15495712
142	0x3d04389e	0.032280557
143	0xbda920ee	-0.08258234
144	0x3dc906d5	0.09815756
145	0xbcead9df	-0.028668342
146	0x3d70aabf	0.058756586
147	0xbd19af18	-0.037520498
148	0xbba2f38a	-0.00497288
149	0xbd67b941	-0.056573156
150	0xbc8c4a09	-0.017125146
151	0xbcb761b2	-0.022385452
152	0x3dc4656f	0.095896594
153	0xbda836a0	-0.08213544
154	0x3cffd8fd	0.031231398
155	0x2d59c9ac	1.2379802e-11
156	0xbd791c85	-0.060818214
157	0x3d91e9ef	0.071246974
158	0x3d121bd0	0.035671055
159	0x3ce04b71	0.027379723
160	0x3d39d2c9	0.045367036
161	0x3d92c82d	0.07167087
162	0x3bdf1853	0.0068083196
163	0x3d03dd11	0.032193247
164	0x3d8bc087	0.06823831
165	0x3cd9006d	0.02648946
166	0x3d4d50a1	0.05012572
167	0xb17d3fc8	-3.68526e-09
168	0x3ca3ba42	0.019986276
169	0x3c7b434a	0.015335867
170	0xbd04a52f	-0.032384094
171	0x3d52548a	0.051350154
172	0x3d30e48c	0.04318671
173	0x3d652ae3	0.055949103
174	0xbd25320e	-0.04033094
175	0x3d50f61b	0.051015954
176	0x3ca7a0d6	0.020462435
177	0x3da23dd9	0.07921953
178	0xbbb4407f	-0.0055008526
179	0xbbfc5ad0	-0.0077012554
180	0x3db3b2e9	0.08774359
181	0xbd0800aa	-0.03320376
182	0xbd2da5be	-0.042394392
183	0xbd21fa9e	-0.039545648
184	0xbd84410f	-0.064577214
185	0x3d3a777c	0.045524105
186	0xbc9e4318	-0.019319102
187	0x3cdae373	0.026719784
188	0x3daf7c64	0.085686475
189	0x3d9b7738	0.075910985
190	0x3c5e56c6	0.013570493
191	0xbd86d42c	-0.06583437
192	0x2d56fef4	1.2221103e-11
193	0xbc8fdcf9	-0.017561423
194	0xaed6e381	-9.772006e-11
195	0xb1525615	-3.0607954e-09
196	0x3c823c5a	0.015897918
197	0x332ca694	4.0198373e-08
198	0x320634a6	7.811797e-09
199	0x3005280b	4.844202e-10
200	0xb0ce2240	-1.4998207e-09
201	0x3ecd2e9b	0.4007462
202	0x3b7ed7fb	0.0038886059
203	0x3c3bf98e	0.011473073
204	0x3d665bb4	0.0562398
205	0xbd2b54a7	-0.041828778
206	0xbd7cd05d	-0.06172215
207	0x3daabdde	0.083369955
208	0xbd40f684	-0.047110096
209	0xbb227d48	-0.0024793912
210	0x3d830cb9	0.06398911
211	0xbce50204	-0.027955063
212	0x3cbbd5d0	0.022929102
213	0x3b4a4ff5	0.0030870412
214	0x3d4e3a47	0.050348546
215	0x3d61c836	0.055122577
216	0xbcc90c5f	-0.024542032
217	0xbd921c9d	-0.07134364
218	0xbd162228	-0.036653668
219	0x3d6fca13	0.058542322
220	0xbc647182	-0.013943078
221	0x3d381746	0.04494407
222	0x3b29fa6c	0.0025936617
223	0x3d530f27	0.051528122
224	0xbdd221fc	-0.10260388
225	0xbd949ccc	-0.07256469
226	0x3e097cc5	0.13426502
227	0xbd60176f	-0.054709848
228	0xbd62eb3c	-0.05540012
229	0xbd708ba0	-0.058726907
230	0x3d542d06	0.05180075
231	0x3d3a8280	0.04553461
232	0xbc019ae0	-0.00791046
233	0x3d5cf352	0.053942986
234	0x3c9f671a	0.019458342
235	0x3d26baad	0.04070537
236	0xbd308a74	-0.04310079
237	0x3beb2606	0.0071761636
238	0xbb8787a0	-0.004136041
239	0xbd76669c	-0.06015645
240	0x3cd83503	0.026392465
241	0x3d9884c3	0.07447197
242	0x3ca6904e	0.020332482
243	0x3dde0587	0.10840898
244	0x3d1fb980	0.038995266
245	0xbc98c65f	-0.018649278
246	0x3d3e8b8c	0.0465198
247	0xbc81b3aa	-0.01583274
248	0xbd0a2c1d	-0.033733476
249	0x3e295cf0	0.16539359
250	0xbda71db9	-0.08159966
251	0x3a9f88d1	0.0012171512
252	0xbb8181d4	-0.0039522443
253	0xbd1bda11	-0.03804976
254	0xbbabaf5d	-0.005239411
255	0xbd1a7473	-0.03770871

bias f4 [3]
0	0xbe0d9eda	-0.13830128
1	0xbca4ab03	-0.020101076
2	0xbbada325	-0.0052989894

weight f4 [768, 3]
0	0xbf6e2af9	-0.9303432
1	0xbecfe931	-0.40607598
2	0x3f7be5e5	0.98397666
3	0xbf860101	-1.0469056
4	0xbf2ed57d	-0.6829451
5	0x3f763d22	0.9618703
6	0xbebb6280	-0.36598587
7	0xbf80f303	-1.0074161
8	0xbee4745e	-0.4462003
9	0xbf667fde	-0.9003886
10	0x3f571d87	0.8402943
11	0x3ebabb46	0.36471003
12	0xbef54b57	-0.47909042
13	0xbf7656c5	-0.9622615
14	0xbf2d7703	-0.6775972
15	0xbd91781e	-0.07102989
16	0xbd99f40e	-0.07517253
17	0xbee41d75	-0.44553724
18	0x3ef5b7d4	0.47991812
19	0xbf68f2a6	-0.9099525
20	0x3e7616d9	0.24032153
21	0xbf19fe72	-0.6015388
22	0xbf562f57	-0.83665985
23	0x3f011061	0.5041562
24	0x3dd7ca4c	0.10536632
25	0xbf261810	-0.64880466
26	0x3f140382	0.5781785
27	0x3edabeed	0.4272379
28	0xbf44c63e	-0.76864994
29	0x3b5c9f00	0.0033664107
30	0x3e4cfcf6	0.20018372
31	0x3efad3cd	0.48989716
32	0xbeba5f2f	-0.36400744
33	0xbfaab1f8	-1.3335562
34	0x3f4d9ce1	0.80317503
35	0xbe9c066b	-0.30473647
36	0x3f7720f0	0.96534634
37	0xbf5225c9	-0.82088906
38	0xbf99b0b3	-1.2007049
39	0xbf816822	-1.0109904
40	0xbf6f2522	-0.93416035
41	0x3f06501a	0.52465975
42	0x3e4610ec	0.19342393
43	0xbf463fb9	-0.77440983
44	0x3f33dfc9	0.70263344
45	0x3f57632f	0.8413572
46	0xbef24674	-0.47319376
47	0xbe5bc495	-0.21461709
48	0x3f489ec5	0.78367263
49	0x3f67870e	0.9044045
50	0x3f75ef76	0.96068513
51	0xbebc5d4e	-0.36789936
52	0x3f9135f1	1.1344587
53	0xbf8a9787	-1.0827492
54	0xbe099668	-0.13436282
55	0x3f8e5b8b	1.1121687
56	0x3f24d510	0.6438761
57	0x3ec9b398	0.39394832
58	0x3ea6becf	0.3256745
59	0xbf5225a9	-0.82088715
60	0x3e550fec	0.20806855
61	0x3f20fe78	0.6288829
62	0x3d1e5ee5	0.038664717
63	0x3dc417e2	0.09574868
64	0xbefa48f3	-0.4888378
65	0x3f76aeee	0.9636067
66	0x3f4dc43b	0.8037755
67	0x3bd244b3	0.006416881
68	0xbe9d7718	-0.30754924
69	0x3f2a938f	0.66631407
70	0xbe8069cf	-0.25080726
71	0x3f851663	1.0397457
72	0xbf581c34	-0.84418035
73	0x3f9c97bf	1.2233809
74	0x3d7cf2e6	0.061755084
75	0xbe81a8af	-0.25324008
76	0x3f8a207f	1.0791167
77	0xbd0309d8	-0.03199181
78	0x3f6342f2	0.88774025
79	0x3f425948	0.7591748
80	0x3f2ea913	0.68226737
81	0xbf88245e	-1.0636098
82	0x3dd16530	0.10224378
83	0xbe5a1341	-0.21296407
84	0x3e134dc8	0.1438514
85	0x3de5abaa	0.11214383
86	0x3e42d7e6	0.19027671
87	0xbf739076	-0.95142305
88	0x3eb45b6a	0.35225993
89	0x3d8fccf7	0.07021516
90	0xbf930edf	-1.1488913
91	0xbeece13e	-0.46265596
92	0xbd12c968	-0.035836607
93	0xbf811d4d	-1.0087067
94	0xbf7e22db	-0.99271935
95	0x3f6a63b3	0.9155838
96	0xbee2a45a	-0.44266015
97	0xbf2e6b43	-0.6813242
98	0x3da569de	0.08076833
99	0x3ead3b30	0.3383422
100	0x3e386e22	0.18010762
101	0x3e1c8f44	0.15289026
102	0xbe733487	-0.23750506
103	0xbe5e8c6b	-0.21733253
104	0xbee4df47	-0.44701597
105	0xbfc18a6f	-1.5120372
106	0x3f8779fd	1.0584103
107	0xbf46e122	-0.77687275
108	0x3e11b6d0	0.14229894
109	0xbf373a11	-0.7157298
110	0xbeec65cf	-0.46171424
111	0x3f4b4406	0.7940067
112	0xbf257bcc	-0.64642024
113	0xbeb878df	-0.36029717
114	0xbf3aedef	-0.7301931
115	0xbea71439	-0.32632616
116	0x3d54a052	0.051910706
117	0xbf130e9e	-0.5744418
118	0xbe8043c6	-0.25051707
119	0x3ebcb02e	0.36853164
120	0xbea18df7	-0.31553623
121	0x3eea6369	0.4577897
122	0xbf55e1e6	-0.8354782
123	0x3cfd9209	0.030953424
124	0x3e86aca7	0.26303598
125	0x3e895b0d	0.2682728
126	0xbef433d7	-0.476958
127	0x3dab2ce0	0.083581686
128	0xbe844382	-0.25832754
129	0x3d88c8d3	0.06678929
130	0xbe9d44d2	-0.30716568
131	0xbefd775d	-0.4950513
132	0x3f2400a0	0.64063454
133	0x3de43a67	0.11143952
134	0xbf24e820	-0.64416695
135	0x3f1ff465	0.6248229
136	0x3dd4a432	0.1038288
137	0xbbf24985	-0.007394018
138	0xbf26d1dc	-0.6516397
139	0x3d93ab20	0.07210374
140	0x3d383745	0.044974584
141	0x3f42eb90	0.7614069
142	0xbf6ef4b1	-0.9334212
143	0xbf9b446a	-1.2130253
144	0xbf8ec6ed	-1.1154457
145	0x3eceb756	0.4037425
146	0xbeba7f70	-0.36425352
147	0x3f1c06d3	0.6094791
148	0x3f0a59fa	0.54043543
149	0xbf28b383	-0.65898913
150	0x3f123ce8	0.57124186
151	0xbf53a6e7	-0.8267655
152	0xbf2a3d5a	-0.66499865
153	0xbf871c08	-1.055543
154	0x3f57cacd	0.84293824
155	0x3eec3b10	0.4613881
156	0x3f0f085f	0.5587215
157	0x3e0967f3	0.1341856
158	0x3f7022d4	0.93803144
159	0xbdcb0c72	-0.09914483
160	0x3f5366b6	0.825786
161	0xbf2ec637	-0.682712
162	0xbe951c2b	-0.29123053
163	0x3f299e6a	0.66257346
164	0xbf3deb5e	-0.74187267
165	0x3ee2743c	0.44229305
166	0xbf14d515	-0.5813764
167	0xbd103b22	-0.035212643
168	0xbf63921e	-0.8889483
169	0xbef44562	-0.47709185
170	0xbf43aa8e	-0.7643212
171	0xbe4362d9	-0.19080676
172	0x3d950150	0.07275641
173	0xbe2fb550	-0.17159009
174	0xbed5f468	-0.4178803
175	0x3f3157b9	0.6927448
176	0xbe01e470	-0.12684798
177	0x3de4a141	0.11163569
178	0x3fb615ad	1.4225365
179	0xbf29df42	-0.6635629
180	0x3c110e53	0.008853513
181	0x3e73139d	0.2373795
182	0xbe25e26d	-0.16199656
183	0xbe665e05	-0.22496803
184	0x3f2bc111	0.6709147
185	0xbd57a64c	-0.052648827
186	0xbf09e1af	-0.5385999
187	0x3f53ac9a	0.82685244
188	0x3f0213cf	0.50811476
189	0xbf2c86a5	-0.6739295
190	0x3e557118	0.20843923
191	0x3ea9405a	0.3305691
192	0x3e99786a	0.2997468
193	0x3ef68932	0.48151547
194	0xbe36ab5c	-0.17838806
195	0x3e6ed891	0.23324801
196	0xbe853077	-0.26013538
197	0xbe88e19c	-0.26734626
198	0xbf160855	-0.58606464
199	0xbf1fc3d7	-0.624082
200	0xbe75d861	-0.24008323
201	0xbea21e80	-0.31663895
202	0xbd1988f4	-0.037484124
203	0xbf0062b6	-0.5015062
204	0xbf0cccbd	-0.54999906
205	0xbe76153f	-0.24031542
206	0x3ee9d4e4	0.45670235
207	0xbf4e5ed0	-0.8061342
208	0x3e70716d	0.23480769
209	0xbeac915e	-0.33704656
210	0xbeccb8ef	-0.39984843
211	0x3da1736a	0.078833416
212	0xbed6d478	-0.41958976
213	0xbec7434d	-0.38918534
214	0x3ed43277	0.41444752
215	0x3f9b5b6c	1.2137275
216	0x3f6e25b7	0.930263
217	0xbed96e90	-0.42467165
218	0xbde38d9c	-0.11110994
219	0x3f5ab592	0.85433304
220	0x3dade0c1	0.08490134
221	0xbd8ef3aa	-0.06980069
222	0xbed109c1	-0.40827754
223	0x3df73c50	0.120720506
224	0xbddad380	-0.10684872
225	0x3f2ccdd8	0.6750159
226	0xbe6445c0	-0.22292233
227	0x3e0d0e9b	0.13775103
228	0xbf170cd5	-0.59003955
229	0x3f514ce6	0.8175796
230	0x3e4b26d7	0.19839035
231	0x3f4033ab	0.7507884
232	0xbf166b79	-0.5875774
233	0xbf03a4c8	-0.5142331
234	0xbdf2a7db	-0.11848422
235	0xbe1ac87d	-0.15115543
236	0xbf27cab1	-0.6554366
237	0xbf26799c	-0.6502931
238	0xbea9ff4f	-0.33202597
239	0x3ef22776	0.4729573
240	0xbd82d244	-0.06387761
241	0x3f4b99a2	0.795313
242	0x3f4d3f13	0.8017437
243	0x3e685d3f	0.2269182
244	0x3eaf3a24	0.34224045
245	0x3e81afbb	0.25329384
246	0x3e3d0ede	0.18462703
247	0xbf002660	-0.50058556
248	0x3ddb0108	0.10693556
249	0x3efc61b1	0.49293283
250	0xbfad7374	-1.3550858
251	0xbfb74d42	-1.4320452
252	0xbf5a02e2	-0.8516065
253	0xbba7664f	-0.0051086317
254	0x3cb59f66	0.022170734
255	0x3f08c27e	0.5342177

bias f4 [768]
0	0xba64e0ce	-0.0008731008
1	0xbc897996	-0.01678161
2	0xbd05904e	-0.032608323
3	0xbd3e5c54	-0.04647477
4	0x3d2aa497	0.04166087
5	0x3d90e829	0.07075531
6	0xbd08c0d8	-0.033387035
7	0x3d54a9a7	0.051919606
8	0xbd98b737	-0.074568205
9	0x3ac3f675	0.0014950769
10	0xbd426888	-0.04746297
11	0xbe912370	-0.2834735
12	0x3da3b0ef	0.07992732
13	0xbcb71fd1	-0.022354038
14	0x3dc068da	0.09394999
15	0x3e16d771	0.14730622
16	0x3c8274ac	0.015924774
17	0xbd18d4dd	-0.037312377
18	0x3deec12e	0.1165794
19	0x3daf9e0b	0.08575066
20	0x3d156897	0.036476698
21	0x3d13561f	0.035970803
22	0x3df735ca	0.12070806
23	0x3e60bf74	0.21948034
24	0xbd9137ae	-0.07090698
25	0xbd8989c0	-0.06715727
26	0xbe144866	-0.14480743
27	0xbdfa937a	-0.1223516
28	0xbdbf1acb	-0.09331282
29	0xbe3ceb08	-0.18449032
30	0xbd8692b3	-0.065709494
31	0xbc9c3e5d	-0.019072706
32	0xbdf26e0b	-0.11837395
33	0xbded5543	-0.11588528
34	0xbd87f331	-0.06638182
35	0xbe2eb6fd	-0.17061992
36	0xbe1ff632	-0.1562126
37	0x3e552579	0.20815076
38	0xbe369dcb	-0.1783363
39	0x3d11c042	0.035583742
40	0xbdfca386	-0.12335877
41	0xbe612808	-0.21987927
42	0xbe0aaa28	-0.13541472
43	0xbe2b35a9	-0.16719688
44	0xbd8a3293	-0.067479275
45	0xbe00407c	-0.12524599
46	0xbd94bdd2	-0.07262768
47	0x3ec229a0	0.37922382
48	0x3da55ccc	0.0807434
49	0x3ea54277	0.3227727
50	0x3e7cb381	0.2467785
51	0x3e04f580	0.12984276
52	0x3d503f5d	0.050841678
53	0x3e3612e1	0.17780639
54	0x3e4a21b1	0.19739415
55	0x3e72da6a	0.23716131
56	0x3e195616	0.14974245
57	0x3e3abfdb	0.1823725
58	0x3e2a79b5	0.1664799
59	0xbe8f5ec0	-0.28001976
60	0xbd2e523b	-0.04255889
61	0xbe59fcbd	-0.21287818
62	0xbd1589a2	-0.03650821
63	0xbd752299	-0.059847448
64	0xbe581f3f	-0.2110567
65	0xbe085c90	-0.1331656
66	0xbcfdeb4b	-0.030995985
67	0xbd55530a	-0.052081145
68	0xbd1d3d12	-0.03838832
69	0xbe1e2b99	-0.15446319
70	0xbe1a9efe	-0.15099713
71	0x3eec0c82	0.46103293
72	0x3c60f860	0.013731092
73	0x3e4f24b5	0.20228846
74	0x3b5acad4	0.0033385055
75	0x3cff51c5	0.03116692
76	0xbdf1bca0	-0.118035555
77	0x3d67292b	0.056435745
78	0x3d9e5725	0.07731465
79	0x3d4462c1	0.04794574
80	0x3db2a1fa	0.08722301
81	0x3dc93af0	0.098256946
82	0x3ca30d54	0.019903816
83	0x3e894eb8	0.2681787
84	0xbe608150	-0.21924329
85	0xbc6e8454	-0.014557917
86	0xbdc2bae4	-0.09508303
87	0xbe8c5723	-0.2741023
88	0xbe97d646	-0.29655665
89	0xbcdf5e17	-0.027266545
90	0xbe602ea8	-0.21892798
91	0xbdef5b4f	-0.116873376
92	0xbe9bb2b6	-0.30409783
93	0xbe7d9cf3	-0.24766903
94	0xbe846e7f	-0.25865552
95	0x3f2b6580	0.6695175
96	0xbdce3774	-0.100691706
97	0xbdd46c58	-0.103722274
98	0xbe452dd1	-0.19255759
99	0xbe276fa8	-0.16351187
100	0xbd035501	-0.032063488
101	0xbdf67318	-0.12033671
102	0xbda5262b	-0.080639206
103	0xbdfad6a1	-0.122479685
104	0xbd7db624	-0.06194128
105	0xbda18717	-0.078870945
106	0xbdd239ef	-0.10264956
107	0xbe31a521	-0.17348148
108	0xbdd7bd77	-0.105341844
109	0xbe3f6ba8	-0.18693411
110	0xbe42b1a8	-0.19013083
111	0xbe6af265	-0.22944029
112	0xbde202cc	-0.1103569
113	0xbe39db18	-0.18149984
114	0xbe3a81ad	-0.1821353
115	0xbe57eca2	-0.21086362
116	0xbdda2ded	-0.10653291
117	0xbe434804	-0.1907044
118	0xbe297f5f	-0.16552494
119	0x3f2f6e78	0.68527937
120	0xbd8a35f9	-0.06748576
121	0xbd5216f9	-0.05129144
122	0xbb0a6250	-0.0021115728
123	0xbd4d737d	-0.050158966
124	0x3e21e26a	0.15809026
125	0x3d4a4f5e	0.049392097
126	0xbe0283e6	-0.12745628
127	0x3d6dd341	0.058062796
128	0x3a4ea343	0.0007882604
129	0x3bc54a93	0.006020853
130	0xbcca8386	-0.024720918
131	0x3eee4a24	0.4654094
132	0x3d160d45	0.03663375
133	0xbd2ed6f2	-0.042685457
134	0x3d22dcdc	0.03976141
135	0xbd6c9cd1	-0.05776674
136	0x3d75ea0a	0.06003765
137	0x3c920ffb	0.017829886
138	0x3c8ccd5e	0.01718777
139	0xbc9e1179	-0.019295441
140	0x3d3467d1	0.04404432
141	0x3da46535	0.08027116
142	0xbd7b9569	-0.061421786
143	0xbea732f3	-0.3265606
144	0xbd84fc07	-0.06493383
145	0xbe0809e8	-0.13285029
146	0xbe19bb80	-0.15012932
147	0xbe236d65	-0.159597
148	0xbe8361b3	-0.25660476
149	0xbdde34ae	-0.108498916
150	0xbe261b5f	-0.16221379
151	0xbe2d4f42	-0.16924766
152	0xbe57a7e3	-0.21060137
153	0xbe6a9ce6	-0.22911415
154	0xbe46439a	-0.19361725
155	0xbdfde479	-0.12397093
156	0x3d273c65	0.04082908
157	0xbd950b55	-0.07277552
158	0x3d67a22d	0.056551147
159	0xbc6db90a	-0.014509449
160	0xbd52cd2c	-0.0514652
161	0x3cb2671d	0.021777684
162	0x3d52f1ce	0.051500134
163	0x3dec7fc9	0.115478106
164	0x3c44c5cb	0.012010048
165	0xbb5eb9ba	-0.0033985213
166	0x3bf00b21	0.0073255454
167	0x3e93e53b	0.28885826
168	0xbd70ef01	-0.058821682
169	0xbd52096a	-0.05127851
170	0xbd426493	-0.047459196
171	0xbd0f0185	-0.03491356
172	0xbd9e389c	-0.07725641
173	0xbd65c09f	-0.0560919
174	0xbd61741c	-0.05504237
175	0xbe016062	-0.12634423
176	0xbe376d35	-0.17912753
177	0xbe0b70ba	-0.1361722
178	0xbd88c32a	-0.066778496
179	0xbe73bc60	-0.23802328
180	0xbc1ed64e	-0.009694649
181	0xbd8c1c91	-0.06841386
182	0xbdb94cba	-0.090478376
183	0xbcc97fed	-0.024597133
184	0xbe53acd8	-0.20671403
185	0x3b73ecec	0.0037220074
186	0xbcbb0380	-0.022828817
187	0xbd8076df	-0.06272673
188	0x3d19ed2e	0.037579708
189	0xbdb63d04	-0.088983566
190	0xbd2a7f40	-0.04162526
191	0xbe92d9b3	-0.28681716
192	0x3d3a1879	0.045433495
193	0xbd024d59	-0.031812046
194	0x3d9ab7db	0.07554599
195	0x3df7fb4b	0.12108477
196	0x3d86cdf7	0.065822534
197	0x3ddf72cd	0.109105684
198	0x3d990233	0.074711226
199	0x3c0fe365	0.008782242
200	0x3d8d38fb	0.06895634
201	0x3d830fb8	0.063994825
202	0x3d8f668b	0.070019804
203	0x3e9087bf	0.28228566
204	0xbe88144e	-0.2657799
205	0xbe8ca492	-0.27469307
206	0xbe93b35f	-0.28847787
207	0xbe97d4e3	-0.29654607
208	0xbeec0321	-0.46096137
209	0xbeb5a351	-0.35476163
210	0xbecdade7	-0.4017174
211	0xbec6083c	-0.38678157
212	0xbeb4769f	-0.3524675
213	0xbec8707f	-0.39148328
214	0xbeb8af18	-0.36071086
215	0x3f878c01	1.0589601
216	0x3e3803c3	0.17970185
217	0x3d1732f3	0.036913823
218	0x3daf476d	0.08558545
219	0x3e04cf6d	0.12969752
220	0x3d1e3f0c	0.038634345
221	0x3debd169	0.11514551
222	0x3e1e6d6f	0.15471433
223	0x3df10d00	0.11770058
224	0x3e0c147e	0.13679692
225	0x3e2c7fa0	0.1684556
226	0x3e0748dc	0.13211387
227	0xbf04cb65	-0.51872855
228	0xbdf4a80a	-0.119461134
229	0xbdaac186	-0.08337693
230	0xbe272d3c	-0.1632585
231	0xbe2b62f1	-0.16736962
232	0xbcdd3d71	-0.027006837
233	0xbda63aee	-0.08116709
234	0xbe192987	-0.14957248
235	0xbd94a99f	-0.07258915
236	0xbd16d93c	-0.036828265
237	0x3ce3ab6e	0.027791705
238	0xbe22f11a	-0.15912285
239	0x3edfef56	0.43737286
240	0xbd72a3a7	-0.059238102
241	0x3e0cd475	0.13752921
242	0x3dd72639	0.10505337
243	0x3def5b8e	0.116873845
244	0x3dac8103	0.084230445
245	0xbd6669d6	-0.056253277
246	0x3dcc1b2a	0.09966119
247	0x3d9bec11	0.076133855
248	0x3db4a430	0.08820379
249	0x3d8ddbb5	0.069266714
250	0x3dbc84ef	0.092050426
251	0xbebc4cd1	-0.36777356
252	0xbc86f877	-0.0164759
253	0xbd21e858	-0.03952822
254	0xbd198785	-0.037482757
255	0xbca416d2	-0.020030413
