VAE/data/anomaly.pth (torch, 99168 bytes, 17 tensors)

weight f4 [16, 1, 3]
000000 14 94 89 3f 88 71 2b 3f 3d f7 8a bf 2f 7b 98 bf
       1.0748315 0.6697011 -1.0856701 -1.1912593
000010 5e ee 5f bf 22 d6 11 3f 13 2e d8 bc 49 1d 56 be
       -0.87473094 0.56967366 -0.026389157 -0.20909609
000020 4d f7 f2 be 4f c5 1c bf 6a 6e a5 3e ff 16 72 be
       -0.474543 -0.6123857 0.32310802 -0.23641585
000030 ef c5 a3 bf 8c 44 a7 bf 9d 21 5a bf 02 82 74 bf
       -1.279478 -1.3067794 -0.8520754 -0.95510876
000040 ad 81 97 3f d2 e1 69 bf d9 46 1b bd 2f b1 ac 3f
       1.1836449 -0.913602 -0.037909362 1.3491572
000050 cb 3f a1 bf 3b 1d 7b bf 2a 0e fc 3d 46 48 88 bf
       -1.2597593 -0.9809148 0.12307389 -1.0647056
000060 95 67 ff 3e f7 85 44 3f 22 32 54 bf b8 9e 91 3e
       0.49883714 0.76766914 -0.82888997 0.28441405
000070 4d 6a 37 3f 31 41 8f 3f 84 4a 1d 3f 50 e8 d4 3e
       0.7164658 1.119177 0.61441827 0.4158349
000080 f7 ff a8 3f 8f 55 77 bf 60 cb 8e be 04 ee 50 3f
       1.3203114 -0.9661493 -0.27889538 0.81613183
000090 f1 22 5a bf e0 33 6a bf 93 c9 81 3e 62 fa a2 bf
       -0.85209566 -0.91485405 0.253491 -1.2732661
0000a0 a3 6a 7f bf 50 b1 24 3f 69 98 8a 3f 6d 85 6c 3f
       -0.9977209 0.6433306 1.0827762 0.9239109
0000b0 7b 78 9b 3f ae 90 a6 bf 8a b7 3f 3f 97 e8 17 be
       1.2146143 -1.3012903 0.74889433 -0.1483482

bias f4 [16]
000000 9e ee 34 bc 34 1c 30 bc 83 91 d5 bb f5 48 94 3a
       -0.011043219 -0.010748912 -0.0065175905 0.0011313247
000010 32 ed f3 3b 91 35 c0 3a 48 e0 96 3c c5 71 34 bc
       0.0074440474 0.0014664402 0.018417493 -0.011013453
000020 d9 ca 64 bb 48 9c 6c bb ef 47 e2 bb d8 8b 36 bc
       -0.0034910946 -0.0036103893 -0.006905548 -0.01114174
000030 dc 4d a5 39 70 f0 51 bc 45 8a ab bb a3 40 ed bb
       0.00031529262 -0.012813672 -0.005234989 -0.0072403713

weight f4 [32, 16, 3]
000000 5d 43 bf bd a3 77 43 bd c4 84 28 3e 6f 35 08 be
       -0.093390204 -0.047721516 0.16456896 -0.13301633
000010 6c ce f6 bd 43 93 94 be 2c 4e 13 be 6e 9c 6f 3d
       -0.120510906 -0.29018602 -0.14385289 0.058498792
000020 29 cb ff 3d 37 6d 8c 3c 3d c0 78 3e c2 24 63 3e
       0.124899216 0.017141921 0.24292083 0.2218199
000030 b2 65 bc 3c 86 75 54 be de 8f 73 be 03 41 69 3e
       0.02299771 -0.20747957 -0.2378535 0.22778706
000040 87 d7 90 3e 7d a8 8b 3e b0 e9 90 be e3 67 9c 3e
       0.28289434 0.27276984 -0.2830329 0.3054801
000050 f4 82 41 3c 61 1e 19 be 17 a1 4c 3e 1a 90 d8 3c
       0.011811007 -0.14952995 0.19983326 0.0264359
000060 91 68 8b be 9d 71 60 be c0 f0 09 be 30 32 40 bc
       -0.27228215 -0.2191834 -0.13470745 -0.011730716
000070 e6 40 1c be 57 32 57 be 60 fd 35 3d e7 9d a4 3e
       -0.15259132 -0.21015297 0.04443109 0.3215172
000080 22 64 f0 bd bb 4a 8b 3e 10 b7 5f 3e 33 2e 3f be
       -0.11737849 0.27205452 0.21847177 -0.18669967
000090 48 8e b4 bd 50 e9 ef bd ab 2b 53 3e 81 05 ad 3d
       -0.088162005 -0.11714423 0.20622127 0.084483154
0000a0 cb 31 90 be 6e 25 d0 3d cd cc 49 3d 21 64 eb bd
       -0.2816299 0.10163389 0.04926758 -0.114937074
0000b0 75 a2 35 be c6 0b 0a 3d 0a af 35 3c e7 05 7e 3e
       -0.17737754 0.033702634 0.011089096 0.24806939
0000c0 d4 cd d3 bd 99 3d 7f be d2 b6 7a 3d 8f 9a 9f be
       -0.10341993 -0.24925841 0.061209507 -0.31172606
0000d0 17 a7 d2 3d 55 f7 ef bd b5 8b 9d be 27 c4 41 be
       0.10285776 -0.11717097 -0.3077065 -0.18922482
0000e0 1a 0a 85 be 16 af 99 be a4 8b 25 3d 7f f5 37 bc
       -0.2598427 -0.30016392 0.040416375 -0.011227964
0000f0 14 74 50 3e 6c 27 a5 3e b0 77 25 3e ac 9f dc bd
       0.2035678 0.3225664 0.16158938 -0.107726425
000100 18 42 b3 3e bf f3 8a 3d bf a6 99 3d da 40 63 be
       0.35011363 0.06784772 0.075025074 -0.22192708
000110 61 11 68 be 46 18 5d 3e e9 bf 6f be 1a 9b 91 bc
       -0.2266288 0.21591291 -0.23413052 -0.017774154
000120 cd 12 d7 bd 1c 9f d2 3d 9f ea 9c 3e 3c 26 00 be
       -0.10501633 0.10284254 0.30647752 -0.12514585
000130 49 f7 0e 3e 4b 5e d0 bd 78 2b 76 be cf 29 1a be
       0.1396152 -0.10174235 -0.2404002 -0.15055011
000140 f0 0a 02 be 98 42 5e 39 cd e2 89 3e 43 50 0e be
       -0.12699485 0.00021196378 0.26930848 -0.13897805
000150 26 23 eb bd 0d 94 56 3e a4 ad bd bc 72 12 7d 3e
       -0.114813134 0.20954914 -0.023154087 0.24714068
000160 2d 11 01 3b 8f 15 36 be ec 02 2c bd bc f7 7a 3e
       0.0019694075 -0.17781661 -0.041994974 0.24508566
000170 2b 99 2a 3e 4f 82 95 be ca 40 2e bd 6e c7 1f 3e
       0.16659991 -0.2920098 -0.042542256 0.1560342
000180 1b ee a1 be cd cf b1 3d 29 ea 45 3e 05 94 63 be
       -0.31626973 0.08682213 0.19327606 -0.22224434
000190 61 e9 a6 3e 2b b8 19 3e 9e 45 b3 bd 22 8d 75 3e
       0.3259993 0.15011661 -0.08753513 0.23979619
0001a0 2b 08 86 3d 28 cf 8f 3e 5b e3 1e be ff 42 5a be
       0.06544527 0.28087735 -0.15516417 -0.2131462
0001b0 0a 5f 89 3e ab 73 f7 3d a5 15 1e 3d 40 4d 39 3e
       0.26830322 0.12082609 0.03859486 0.18095875
0001c0 f4 ea 4b 3e b7 03 87 3e cf 6b e2 bd 59 60 f0 bd
       0.19913846 0.26370022 -0.11055719 -0.11737127
0001d0 98 b1 1b 3e bd 1e a3 be 6a c5 81 bd 7d 12 ce bc
       0.15204465 -0.3185939 -0.06336482 -0.0251553
0001e0 c4 ed a8 3e fa d5 be bd 1a ae 62 3e 73 d6 ca 3d
       0.329939 -0.093181565 0.22136727 0.09904184
0001f0 7e fb 1c bb 6b d8 94 3e 67 36 8f 3b a6 cb 4e 3d
       -0.0023953612 0.29071364 0.004370499 0.050487183
000200 b7 04 a3 bd 1b b4 4a be 39 51 7c be e0 62 67 3e
       -0.07959884 -0.19795267 -0.24640359 0.22596312
000210 90 0a a1 be 6d 04 1e 3c 48 d5 84 be 37 e3 71 3d
       -0.3145337 0.00964461 -0.2594397 0.05905458
000220 7d 24 1f 3c 06 87 a8 be 5c 73 97 3e 3b 35 79 3e
       0.009713289 -0.32915515 0.295802 0.24336712
000230 aa 44 06 bc a8 b9 98 be a5 ac f5 bd a1 b2 5e 3e
       -0.008195082 -0.29829144 -0.1199582 0.21747829
000240 1e 23 5c 3e 39 01 0f 3d 74 29 b2 bd 80 5c 5c be
       0.21497771 0.034913275 -0.08699313 -0.21519661
000250 fe fc 8a be 89 d7 91 be 64 4e 0c bd 27 19 8e 3d
       -0.27146143 -0.28484753 -0.034254447 0.06938391
000260 45 22 c4 3c 32 62 03 3e 51 79 8c 3e 18 3c 04 3e
       0.023942122 0.12830427 0.27436307 0.12913549
000270 2f da 54 3e 10 5c af bd ef 1b 8d 3e 8f 90 aa bc
       0.20786355 -0.085624814 0.27560374 -0.020820884
000280 6a 8e 31 bd 37 1a c9 3b c9 99 88 be eb 1a e6 bc
       -0.043348707 0.0061371583 -0.2667983 -0.028089007
000290 ab 43 d6 3d 35 29 b4 3d ac e2 a3 3e 0a c7 ba bc
       0.104621254 0.08796922 0.32008874 -0.022799987
0002a0 70 be 53 3d 3c 73 b7 bd e5 fa 0c bd d1 24 8a 3e
       0.051695287 -0.08957526 -0.03441896 0.26981214
0002b0 da 55 d4 bd 0a 6a 14 be 33 39 0b be f1 8a ef bd
       -0.103679374 -0.14493576 -0.13596039 -0.11696423
0002c0 45 e4 d4 bd dd b0 8a 3e 5d 8e 4d be b2 dc 38 3e
       -0.103951015 0.2708806 -0.20073839 0.18052939
0002d0 dd 9a 9a 3e a9 8a 71 3e 84 d3 8f 3c ba 0a 44 be
       0.30196276 0.23588051 0.017556913 -0.19144717
0002e0 e3 74 8f 3e 73 70 8b 3e d8 b8 72 3c 7f 92 e6 3d
       0.28018865 0.2723423 0.014814578 0.11258411
0002f0 4f 61 0c be 0e 65 19 3e 32 04 3a be 4d 35 99 be
       -0.13708995 0.14979956 -0.18165663 -0.29923478
000300 f2 0d 47 bd 9a 72 3e 3e 3e 8b ac 3d 67 05 9c be
       -0.048597284 0.18598405 0.08424996 -0.30472872
000310 eb d7 55 3e 24 e0 23 be 75 31 d8 bd 13 a6 07 be
       0.20883147 -0.16003472 -0.10556308 -0.13246946
000320 c5 69 68 3e 56 c7 50 3e 4b 7d 8c be 70 4b ef bd
       0.22696598 0.2038854 -0.2743934 -0.116843104
000330 a2 f0 13 3d e2 d5 0e be e6 0c 77 be 20 a2 59 3e
       0.036118157 -0.13948777 -0.24126014 0.21253252
000340 28 04 1c 3e 49 ae 2a be e0 a3 59 be d5 ae c5 3d
       0.1523596 -0.16668047 -0.2125392 0.09652487
000350 c8 01 8e 3e ae 79 8d be f0 84 69 bc 2a 52 ab 3d
       0.27735734 -0.27631897 -0.014252886 0.08365281
000360 79 31 65 bd ae 29 39 3e 8e 11 2a 3e a2 0d 86 3e
       -0.055955384 0.18082306 0.16608259 0.26182276
000370 a8 cc 8e 3e 16 e2 3e bc 57 79 ac be 68 08 82 3d
       0.27890515 -0.011650583 -0.33686325 0.063492596
000380 98 65 20 b9 6f 94 56 3e e1 55 5f be 46 11 43 bc
       -0.00015296636 0.2095506 -0.21810104 -0.011905974
000390 73 54 27 be a9 42 57 3e 95 2b 08 3d 97 a9 55 be
       -0.16340809 0.21021523 0.033244688 -0.20865475
0003a0 b8 a1 c3 bd f6 9d cb 3d e0 5d 47 3e ab c4 9a 3d
       -0.0955233 0.09942238 0.19469404 0.07557043
0003b0 55 dc 52 be b8 2e a1 bc 66 dc a0 be f9 6d f9 bd
       -0.20591862 -0.019675598 -0.3141815 -0.12179179
0003c0 1f 4a 89 bd 3b 9c 9d bd cd d3 1c 3d 8d 37 c8 bd
       -0.067035906 -0.07695814 0.038287926 -0.097762205
0003d0 d4 16 1a 3d 52 18 a8 3b 27 e6 92 bb 42 ad 57 bd
       0.037619427 0.0051298523 -0.0044830027 -0.052655466
0003e0 a0 8f da 3d 89 3e 46 be 66 24 e1 3c 43 e7 49 bd
       0.106719255 -0.19359793 0.027483176 -0.049292814
0003f0 a2 1a e6 3d ef 41 23 bd 7e e8 e9 bd ea 21 1a bd
       0.112355486 -0.0398578 -0.114212975 -0.03763

bias f4 [32]
000000 a1 01 1f bc fe c7 df 3c da 99 9b bc b7 10 29 bb
       -0.009704978 0.027317043 -0.01899426 -0.0025797316
000010 f0 d9 19 3c 1a 33 7f 3c 2c 9b bd 3b 3f 72 af bb
       0.009390339 0.015576148 0.00578632 -0.0053541954
000020 b7 91 ec 3b c6 0e 00 bc 36 cc 67 bc 0d 39 7c bc
       0.007219519 -0.007816022 -0.014147809 -0.015394461
000030 68 d0 bd 3b 2a f2 08 bc ff cd b7 bb d0 21 88 3c
       0.005792666 -0.008358518 -0.0056092734 0.016617686
000040 73 d7 03 3b 69 4c 88 bc 25 b7 79 3c c7 27 88 3b
       0.0020117431 -0.016637998 0.015241419 0.0041551325
000050 40 43 75 bc 40 0e 65 3b c1 57 ad bb 37 93 4e bc
       -0.014969647 0.003495112 -0.005290002 -0.012608341
000060 6c a6 e7 39 e6 32 ed bb 07 b8 c0 3a ca 79 03 3c
       0.00044183747 -0.0072387336 0.0014703282 0.008024642
000070 d4 d1 b1 3a ff d0 34 bb 40 40 02 3b 99 26 05 bc
       0.0013566562 -0.0027590392 0.0019874722 -0.008126878

weight f4 [64, 32, 3]
000000 75 0a 2b 3d ba 7f ea bc 7e 69 07 be 8e 04 a6 bd
       0.04175802 -0.028625358 -0.13223836 -0.081063375
000010 2a 02 b0 3d 69 b3 49 bd 17 7b d3 bd b2 d3 ae bd
       0.08594163 -0.049243364 -0.10326212 -0.085364714
000020 7b 62 03 3e 1d ea 27 bb 10 f8 2e bd 3c e8 8d bd
       0.12830536 -0.002562172 -0.04271704 -0.06929061
000030 4d e8 d0 bd f1 3b c5 bd 4d ad f7 bc ca 8f 40 bd
       -0.10200558 -0.096305735 -0.030234003 -0.047012128
000040 34 84 8c 3c e1 47 d7 bb e1 7c d5 3b ae cd 22 bd
       0.017152883 -0.006569848 0.006515131 -0.039746933
000050 ff db 26 3e dc 6d 4a 3d 69 92 3c 3b b4 34 eb 3a
       0.1629486 0.049421176 0.002877379 0.0017944784
000060 13 81 06 3d 08 3f 8f 3d bd 31 1b b9 66 08 29 3e
       0.03283794 0.06994444 -0.00014800481 0.1650711
000070 48 c6 07 be 99 d3 53 3d 05 93 7b bd 35 b4 1a be
       -0.13259232 0.051715467 -0.061419506 -0.15107806
000080 d1 ee 74 3d 84 85 de bd 9f c9 15 3e b2 21 18 3d
       0.059798066 -0.1086531 0.14627694 0.03714151
000090 a6 fd 81 bc 91 12 0a 3d d6 a3 fc bd c7 69 cf ba
       -0.01586802 0.033709113 -0.12335937 -0.0015824371
0000a0 ce 27 07 bd a8 7d fc bd a3 2a 92 3a d4 d4 13 3c
       -0.032996945 -0.123286545 0.0011151623 0.00902291
0000b0 5f 55 ac 3d a6 b1 e9 3a 86 c3 2f 3b 20 52 15 ba
       0.08414721 0.0017829433 0.0026819422 -0.00056961365
0000c0 d0 d7 2d 3e a2 f8 32 be 85 3b 21 be d1 15 25 3b
       0.16976857 -0.17477658 -0.15745361 0.0025190006
0000d0 89 56 75 bd 40 78 67 3e 99 34 2f bb b2 26 5b bc
       -0.05989698 0.22604465 -0.0026734232 -0.013375925
0000e0 d3 5f 57 be 3d c5 17 3d 61 d5 b9 bc 66 2b 92 bd
       -0.21032648 0.037053335 -0.022684755 -0.07137184
0000f0 52 cf 8d bd dc 4d 24 be 7a 42 05 be 53 90 4d 3b
       -0.06924309 -0.16045326 -0.1301364 0.0031366542
000100 f3 8c c6 bb e7 0c 20 3d 06 02 2b bd 04 b0 1c 3e
       -0.006059283 0.039074805 -0.041749977 0.1530152
000110 28 bb 2c be b3 f9 11 bb a5 cb 51 3a 12 6c 2f bd
       -0.1686827 -0.0022274076 0.00080030627 -0.042827673
000120 ab 86 04 3e 3d 36 4c 3e 1b 53 2d be db 19 e5 39
       0.12941997 0.19942565 -0.16926233 0.00043697548
000130 57 ad 5b ba bd d8 37 3a f1 74 48 bc dd 8e f5 bd
       -0.00083800167 0.00070131925 -0.012234912 -0.1199014
000140 08 58 23 3e a0 18 d0 bd a6 8b 84 3c ca 43 ab 3d
       0.1595155 -0.10160947 0.01617987 0.08362539
000150 e1 78 4c 3b e6 b3 93 bb 0d d9 55 3d dd 17 a2 ba
       0.003119998 -0.0045075295 0.05220895 -0.0012366731
000160 43 1e d9 ba e7 ad b6 b9 dd 02 98 3d ff 41 13 3e
       -0.0016564805 -0.00034843312 0.07422421 0.14380644
000170 12 1f 98 3d ab 81 fc ba 1d 1f 88 bb 1e dc fa 3d
       0.07427801 -0.0019264718 -0.0041540996 0.12249015
000180 5a 49 fd 3d cd 1d 96 bc 21 a7 cf bd 4c f7 64 be
       0.12367506 -0.018324757 -0.10139299 -0.22359961
000190 70 fd d1 bd 57 80 1b 3d 7f 3d e0 bc 3e cd c4 3d
       -0.102534175 0.03796419 -0.027373074 0.09609459
0001a0 2b ff bf 3d 58 5c 12 3e ea a7 13 3e c5 f7 23 3d
       0.09374841 0.14293039 0.14419523 0.040031213
0001b0 12 53 8c 3d e0 a4 9b 3d da 3d 55 3e 03 b1 8e 3c
       0.06851782 0.07599807 0.20824376 0.01741839
0001c0 c0 bb 28 3c a4 dc 62 bd dd 29 33 3e 13 aa 41 be
       0.010298669 -0.0553862 0.17496438 -0.18912534
0001d0 06 11 11 be d2 a5 98 bd 0f 33 8f bd 2a 9e 35 bc
       -0.1416665 -0.07453503 -0.069921605 -0.0110850725
0001e0 92 92 03 bd b1 a7 4f 3e db ef 32 3d 47 30 ab bd
       -0.032122202 0.20278813 0.043685775 -0.083588175
0001f0 d4 ef 01 3e 99 65 0f be b4 fb a4 3d 8e fd 26 3e
       0.12689143 -0.140036 0.08055821 0.16307661
000200 ee 84 7d bb 09 03 15 be e7 ad 35 be c7 05 45 3e
       -0.0038683969 -0.14551939 -0.1774212 0.19240485
000210 0b db 4c be 99 ea fb bc 66 07 04 be ca 1c 5b 3e
       -0.20005433 -0.030751513 -0.12893447 0.21397701
000220 bf ff 34 be 79 c1 54 3e f8 ef c3 3c 38 a0 fe 3d
       -0.17675684 0.20776929 0.023918137 0.12432903
000230 47 93 58 be ff c6 39 bc ce 84 71 be e1 b8 92 3d
       -0.21149932 -0.011338948 -0.23585817 0.07164169
000240 99 7a 54 3d 2c 3f 11 3e 31 7e 18 3e 53 cc f5 3d
       0.05187473 0.14184254 0.14891888 0.120018624
000250 a7 f8 ab 3d 46 55 02 be 59 1f 5a 3c eb e8 6f 3d
       0.08397036 -0.12727842 0.013313138 0.058571737
000260 0a 57 1b 3d 8f f7 3d 3e 07 ea 8d bc e6 79 e6 3d
       0.037924804 0.18551467 -0.017323507 0.11253719
000270 a9 c8 8c 3c c5 86 e8 bd 32 be 67 3e 84 82 b8 bd
       0.017185526 -0.1135383 0.22631148 -0.09009269
000280 0b f1 76 3d 29 14 37 bd ed ca bc 3d 3c 14 08 3e
       0.06028847 -0.04469696 0.092183925 0.13288969
000290 86 3b 27 3d 88 cf 19 3e c7 c2 4d 3e 0a 43 0a 3e
       0.04082825 0.15020573 0.20093833 0.13502136
0002a0 48 cc 1f 3d 6a bb 07 3e c9 69 d1 3d 1f 2a 84 bd
       0.039013177 0.13255087 0.10225255 -0.064533465
0002b0 4c f6 54 3c 72 6a 19 3e 6c e2 55 be 27 c0 81 3d
       0.012998175 0.14982012 -0.20887154 0.06335478
0002c0 60 3f 69 3e 07 6b 69 3e 59 1d 36 3c 6f 8c 7b bd
       0.22778082 0.22794734 0.011115395 -0.061413225
0002d0 d9 b2 8f bc 68 03 54 3e b4 46 83 bd a0 e4 65 3b
       -0.017541336 0.20704424 -0.0640997 0.0035078898
0002e0 f6 86 be bd 22 69 d1 bd 51 d9 2d be 6c 91 1b be
       -0.093030855 -0.102251306 -0.16977431 -0.15192193
0002f0 a7 39 05 3e 03 a7 ef 3d d7 4c 44 bd 4b a1 14 3d
       0.13010274 0.11701777 -0.047924843 0.036286633
000300 39 27 eb bd af bb 71 3e 2f 38 80 3b 67 b1 1d be
       -0.114820905 0.23606752 0.0039129476 -0.15399705
000310 4b 45 22 bd f7 f6 7e bc a1 2b ca bd 90 ad 74 3e
       -0.039616864 -0.015561811 -0.09871603 0.23894334
000320 b2 02 c9 3d 4f f0 ce 3d be f4 b4 3d c0 e7 d2 bd
       0.09814967 0.10104429 0.08835743 -0.10298109
000330 ea 9e ac 3d 5d 5e 17 3e 9d 44 07 be f5 f0 92 3d
       0.08428748 0.1478209 -0.13209768 0.07174865
000340 94 5f 59 be 99 e0 33 3e 16 d4 35 be ca 6f 29 bd
       -0.21227866 0.17566146 -0.17756686 -0.041366376
000350 b6 e1 59 be 2d 12 cc bd fc a1 88 bd 9b 92 34 bd
       -0.21277508 -0.09964404 -0.06671521 -0.044085126
000360 85 00 38 bd 10 99 34 bd 4e 57 17 bd 6e ef 3b 3d
       -0.04492237 -0.044091284 -0.036948495 0.045882635
000370 bb 61 33 3e 11 01 04 3e a6 65 e8 3d 8b ae 45 be
       0.1751775 0.12891032 0.11347513 -0.19304864
000380 ba 35 5f be 8f fb 25 3e c4 46 48 be c6 b0 80 3d
       -0.21797839 0.16209243 -0.19558245 0.06283717
000390 a0 7d 10 3e 00 70 a9 3c 8a bc 58 3e d9 73 5d 3d
       0.14110422 0.020683289 0.21165672 0.05406556
0003a0 ea 46 19 3d d7 c9 8c 3d 25 90 d5 3c 1d 5c 4c 3d
       0.037421145 0.068744354 0.02606971 0.049892534
0003b0 1f ec 28 3e da 06 c9 3d 7f 46 36 3e e6 5e ca bd
       0.16496323 0.0981576 0.1780033 -0.09881382
0003c0 f3 4a 80 bd 10 bb 32 be ba 20 52 bd ac 7e f6 bc
       -0.062642954 -0.17454171 -0.05130074 -0.030089699
0003d0 d2 49 b4 bc bf e6 5d 3e a6 f1 24 3d 97 4a 9f bd
       -0.022007857 0.21670054 0.040269516 -0.07777899
0003e0 13 fd 0b be fe a9 7a bd 60 d2 88 3d ad 98 10 be
       -0.13670759 -0.061197273 0.06680751 -0.14120741
0003f0 ef 2c d4 bd 2a 4e b1 3d e1 d4 5e be fa 27 80 bd
       -0.10360133 0.08657487 -0.21760894 -0.06257625

bias f4 [64]
000000 1f 5c ce bb 5c 71 90 bc 73 fa 4a 3b 52 8c 2b 3c
       -0.006297603 -0.017632179 0.0030972033 0.010470467
000010 5f d8 7e 3b d2 a5 84 ba 91 75 37 3c 99 1e 94 bc
       0.0038886291 -0.0010120219 0.011197464 -0.018080996
000020 b4 4a 8c bb 17 cf ee 3b 42 a6 8d b9 f8 77 26 3c
       -0.0042813662 0.0072878706 -0.00027017487 0.010160439
000030 e0 67 d6 bc 77 69 01 3b 6f 39 bd bc b4 8a 5a 3c
       -0.026172578 0.00197467 -0.023098676 0.013338733
000040 5c 9f 00 3c eb 73 28 3c c8 d1 8d bc 93 3b 89 3c
       0.007850494 0.010281543 -0.017311946 0.01675204
000050 1e c8 ca bb 29 d0 ea 3b 08 1f 37 39 90 18 8b bb
       -0.0061884066 0.007165928 0.000174638 -0.0042448714
000060 df 19 3d 3c d3 81 1f 39 11 f8 55 3c e1 d1 64 3c
       0.011541813 0.00015211785 0.013059632 0.013966055
000070 91 6e a8 bb 13 c9 5b 3b 95 ac 60 3a 61 9e 6f bb
       -0.0051401337 0.0033536598 0.00085706386 -0.0036562907
000080 fd bd 39 bc 75 24 94 bc 40 7a 0d 3c 67 22 e7 bc
       -0.011336801 -0.01808379 0.008635104 -0.028214647
000090 84 4e c7 bc 57 e5 22 bc b9 78 bb bc 43 1c 8c 3b
       -0.024329431 -0.009942374 -0.022884713 0.00427583
0000a0 ae 9d c2 b8 5d d1 24 3c ba f2 f6 3c 25 4b 89 bc
       -9.280011e-05 0.010059682 0.030145038 -0.016759465
0000b0 5e f7 70 bc b8 58 ee 3b 22 95 36 bb 04 aa 31 bc
       -0.014707414 0.0072737597 -0.0027859886 -0.010843758
0000c0 b6 e1 4f 3b 23 27 4d bc 64 9e 83 bb a5 de 36 bc
       0.0031720228 -0.012521538 -0.0040166844 -0.011161481
0000d0 e4 d5 be bb 9d 39 cc 3b a0 98 94 3c 5f 76 6c 3c
       -0.0058238376 0.006232454 0.018139184 0.014432519
0000e0 48 53 5a bb 5c 67 bd bb b1 c5 8c bc c8 62 5f 3b
       -0.00333138 -0.0057801437 -0.01718411 0.0034085978
0000f0 06 73 9a bb 7b 23 b5 bc 48 26 88 bb 0a 53 2f 3a
       -0.004713419 -0.022111645 -0.004154954 0.0006688094

weight f4 [3, 768]
000000 a5 bb 72 3d d0 b9 1e 3d 54 61 2f 3b da 31 d4 39
       0.059260983 0.038751423 0.0026760893 0.00040472933
000010 61 71 e5 bb 31 75 83 3c e0 1b 00 00 21 63 87 bb
       -0.007002041 0.016047092 1e-41 -0.00413169
000020 7f a7 a4 3b 72 1b 00 00 a9 33 ee 3b 81 8a 79 38
       0.00502485 9.846e-42 0.007269342 5.9495218e-05
000030 44 42 9e 3d 97 9d 0e 3b 9a d9 67 bd 2f 0b a2 3c
       0.07727483 0.0021761411 -0.056604005 0.019780723
000040 ef ff 87 bd 43 b4 97 bd 67 b1 b4 bb cf e2 99 bd
       -0.06640612 -0.07407429 -0.005514312 -0.075139634
000050 3a 67 91 3d 29 8d 5f bd fe 94 a7 3d 88 19 c4 bc
       0.07099767 -0.05457798 0.08182715 -0.023937955
000060 80 a1 12 3c e1 cc 62 3d 40 97 83 bd 55 e0 8d 3c
       0.008949637 0.05537117 -0.06425333 0.017318884
000070 ba 1a cf 3c 42 7a 78 3d 81 ad 97 bd c5 11 4f 3d
       0.025281299 0.06066347 -0.0740614 0.050554056
000080 74 02 d0 3c 73 25 61 bd 39 61 fa 3b 31 f9 af 3d
       0.025391795 -0.054967355 0.0076409844 0.08592451
000090 1c 2f a0 3d 1b e4 60 3d 43 d3 b2 3d 0b 76 d6 3b
       0.078214854 0.05490504 0.08731701 0.0065448335
0000a0 6e 48 3c bd fb ea 81 3c 41 65 15 bc ae 37 e8 39
       -0.04596751 0.015859118 -0.009118379 0.00044291973
0000b0 2f 1a 1a bb cd d1 e6 3c fa fa 94 bc f8 35 84 bc
       -0.0023514142 0.028176213 -0.018186081 -0.016139016
0000c0 60 cd 82 3d e6 35 41 3d d3 ce 19 3d d3 c2 8b bc
       0.063868284 0.047170542 0.03755076 -0.017060673
0000d0 dc 7c a1 3d 02 cc 2a 3d 73 09 59 3d 39 5f 84 3d
       0.07885143 0.041698463 0.052987527 0.06463475
0000e0 e4 51 c0 bc 03 c4 71 3d 5a 62 34 bd 54 44 00 bd
       -0.023476548 0.059024822 -0.044039108 -0.031315163
0000f0 3e 8e 42 bd f3 3a 48 bd f6 01 99 3c 88 b8 c9 bc
       -0.047498934 -0.048884343 0.018677693 -0.024624124
000100 19 00 38 bd a4 b4 46 3c e1 af 95 bd d3 7e e2 3c
       -0.044921968 0.012128029 -0.07308937 0.027648365
000110 d6 a8 c4 3c f2 3f 0b 3d f9 68 3a 3c 79 06 04 bd
       0.024006288 0.03399653 0.0113775665 -0.032232735
000120 89 47 3c bd 97 ff af 3d af 57 09 3d 57 67 57 3c
       -0.04596666 0.08593672 0.033530887 0.013147197
000130 0a 38 2d bc 3c de 65 bd 82 ce d2 3c 12 f4 2c 3d
       -0.010572443 -0.056120142 0.025733236 0.04222495
000140 ac 07 9b 3d 1e 09 4d ba 9e 63 99 bd ae 6b 76 3d
       0.07569823 -0.0007821488 -0.074897036 0.060161285
000150 0b f3 3b bd 8b f6 af 3d a8 ef 39 bd 55 41 44 bd
       -0.04588608 0.08591946 -0.04539457 -0.047913868
000160 83 23 9e bd 97 a3 a5 3d 6e 97 69 bd 50 25 8c bb
       -0.07721617 0.08087843 -0.05702918 -0.004276909
000170 c1 78 f3 3b 27 0c 56 3b 46 f2 8c bd 39 d6 5b bd
       0.0074301665 0.0032661052 -0.068821475 -0.053671096
000180 95 2c 88 bb b4 44 34 3c 2a 8e 8e bd 23 62 e1 bb
       -0.004155705 0.011002708 -0.069607094 -0.006878154
000190 77 49 d1 bc 73 af d6 bc 03 2b 1a bc 51 08 04 3d
       -0.025547726 -0.026206708 -0.009409669 0.032234494
0001a0 03 8d 41 3d 14 a9 97 bd b6 a7 e1 3c 65 f1 ee 3c
       0.04725362 -0.07405296 0.027545791 0.02916784
0001b0 8c 94 0e 3b 8f a8 22 3b ff 16 b1 3d 4c 29 13 3d
       0.0021756021 0.0024819707 0.08646964 0.035928056
0001c0 15 50 10 3d 3d ef 64 3d 03 99 ea bb 24 62 91 3c
       0.035232622 0.055892218 -0.0071593537 0.017746992
0001d0 12 5b a5 3d 7b fa 89 bd d3 7f 17 38 cf 20 40 3d
       0.08074011 -0.067372285 3.612025e-05 0.04690629
0001e0 f4 ce 48 3b 2e d5 97 bd c9 27 48 bd b7 ba 5b bd
       0.0030640932 -0.07413708 -0.048866067 -0.053644862
0001f0 34 cb f0 3c 5f cf 41 3d 3e 75 ed 3c 35 32 fd 3c
       0.02939377 0.047316905 0.02898657 0.03090773
000200 20 2a bf bc 44 4e 9c bd 19 4b 79 3d c1 00 0a bd
       -0.023335516 -0.076321155 0.060862634 -0.033692125
000210 74 bf d9 3c 3d 94 9b 3d 9a c8 55 bc 81 8d 3f 3d
       0.02658055 0.075966336 -0.013048315 0.046765808
000220 8f 8b 75 bd 15 84 99 3d 94 7c 7b 3d 28 3a 64 bc
       -0.059947547 0.07495896 0.061398104 -0.013929881
000230 20 a2 81 3b 42 c4 79 3b 85 df e8 bc 1e 16 d5 3c
       0.0039560944 0.0038111364 -0.028426895 0.026011523
000240 aa fc b7 3c e1 7e ae bc 84 c6 a5 3d e1 76 46 3d
       0.022459347 -0.021300735 0.080945045 0.048453216
000250 d6 e9 5c 3c 1d a6 5f bd 10 f3 86 3c 1c ee 38 bc
       0.013483485 -0.054601777 0.016473323 -0.011287238
000260 e0 a3 34 3d e7 6b 8a bc c7 f3 8c bd fa e4 2e 3d
       0.044101596 -0.016897155 -0.06882434 0.042698838
000270 81 1b 00 80 92 1b 00 00 10 10 72 bb 84 1b 00 00
       -9.867e-42 9.89e-42 -0.0036935844 9.871e-42
000280 c8 7c 68 3a 8f 1b 00 80 9c 1b 00 80 87 fd 7c b8
       0.00088686915 -9.886e-42 -9.904e-42 -6.0317598e-05
000290 45 e8 4d 3d 11 2c 6f 3c c2 ad 84 3b d7 14 14 bc
       0.050270338 0.014597909 0.004049034 -0.009038172
0002a0 52 1c a8 bd db c0 51 bd 4b 48 8c bd 1e e4 39 bd
       -0.08208527 -0.051209312 -0.06849726 -0.045383565
0002b0 6b 6d ce bc 10 6e 94 bd e7 4c b6 3b d8 86 26 3d
       -0.025198659 -0.07247555 0.0055633667 0.04065594
0002c0 40 c8 be 3c ef fd 52 3c a1 97 a4 bd c2 32 2f 3d
       0.023288846 0.012877925 -0.080367334 0.042773016
0002d0 21 a2 e5 3c c4 32 c8 bc fb dc d2 bc 87 8b d5 3b
       0.02803141 -0.02443827 -0.025740137 0.006516877
0002e0 01 fc 13 bd a3 f0 96 3d a2 f5 0a 3d f6 cd 37 3d
       -0.036129 0.073701166 0.03392566 0.044874154
0002f0 9a 29 88 bc 81 d0 04 bc 36 78 9b bb 8a a8 8e 3d
       -0.0166214 -0.008106352 -0.004744555 0.0696574
000300 4c 5b 11 bd 18 3a 9d bd cf 17 ee bb 9a 6a 16 bd
       -0.035487458 -0.07677096 -0.007266022 -0.036722757
000310 c2 2d 5f 3d 3c ea 9e 3d 5c 21 9b 3d d8 d6 d5 bc
       0.054486997 0.077595204 0.07574722 -0.026103422
000320 bb bd 6a 3d 1e 32 30 bb e0 e1 21 bd b2 33 81 bd
       0.057309847 -0.002688534 -0.03952205 -0.06308688
000330 48 1c 00 00 74 87 29 3d 37 9d 9a 3d 4e 35 6a bd
       1.0145e-41 0.041388944 0.075495176 -0.05717974
000340 69 48 61 bd 84 37 6c bd 28 74 31 bd 8c 57 60 3d
       -0.055000696 -0.05767013 -0.043323666 0.05477099
000350 9a bf 85 bd 77 79 29 bc 5c 5d aa 3c fd f9 1c 3d
       -0.06530686 -0.010343901 0.02079647 0.038324345
000360 2d e0 fe 3c ce f9 f1 3b 2f 43 80 3a 22 c6 55 bd
       0.031112755 0.0073845154 0.0009785647 -0.052190907
000370 10 0d 86 bd da a7 84 3d c6 b6 15 bc 1d b9 bd 3b
       -0.0654546 0.06477328 -0.009137815 0.0057898895
000380 5e 8a 3d bd 9f 33 4b bd 81 41 ac bc 35 17 9c 3d
       -0.046274535 -0.049609777 -0.021027328 0.07621614
000390 13 43 59 3d ec 21 16 bc d1 5d 04 bd 83 a1 be bc
       0.053042483 -0.009163361 -0.032316033 -0.023270374
0003a0 22 9d 82 3d c7 c7 a5 bc 53 0f f7 bb 96 1b 00 00
       0.06377627 -0.020236863 -0.0075396686 9.896e-42
0003b0 1c 99 38 3b f4 1c 00 00 7b 88 02 bb b9 ec a2 bd
       0.0028167432 1.0386e-41 -0.0019917774 -0.079553075
0003c0 f2 8c 2f 3c b3 77 c1 39 3d c0 71 3c 03 44 95 3b
       0.010714756 0.00036901011 0.014755306 0.004555227
0003d0 f7 5f ff 3a 85 a7 2c bd 30 6b 05 3c af 06 96 bc
       0.0019483556 -0.042151947 0.008143231 -0.018313734
0003e0 d8 45 a2 3b 09 92 a5 bc 54 c9 0d 3a 19 ef a6 bd
       0.0049521737 -0.020211237 0.00054087234 -0.08151073
0003f0 24 72 37 3d 60 32 36 bd f5 ee 26 bd a2 53 4a 3c
       0.044786587 -0.044481635 -0.04075523 0.012349041

bias f4 [3]
000000 f4 78 f0 3b 05 4e 87 3c f7 ab ed bb
       0.0073386375 0.016516695 -0.007253166

weight f4 [3, 768]
000000 3f 14 ec 3c 3d 25 60 bc 4d 72 c0 3a 30 37 b2 39
       0.028818248 -0.013680753 0.0014682502 0.00033991924
000010 fb 46 98 3c 8a be 51 3b 81 1b 00 00 08 dc 38 b9
       0.018588534 0.003200444 9.867e-42 -0.00017629575
000020 21 31 66 3b ae 1b 00 00 ca 8e f9 bb 84 b2 a1 3b
       0.0035124498 9.93e-42 -0.0076158987 0.004934611
000030 7b 8e ef bc 2a 78 72 3c c4 04 af 3c 70 ea 52 3d
       -0.029242745 0.014799157 0.021364577 0.05149311
000040 4b 42 d2 3c 7b b3 85 bd 41 7c 1b bc a4 a5 8c 3d
       0.025666377 -0.06528374 -0.009490074 0.06867531
000050 7c b4 14 bc 0f f4 79 3d cd 5c 8f 3d fe 5b 14 bd
       -0.009076234 0.061023768 0.07000122 -0.036220543
000060 60 c7 43 bd 17 84 80 bc 31 14 18 3c d8 85 a8 3a
       -0.04779756 -0.015687985 0.009282158 0.0012857271
000070 76 59 b2 3b b7 f6 54 3c 93 e9 43 3d a5 35 79 bd
       0.0054427935 0.0129982745 0.047830176 -0.060842175
000080 9c bf b0 3c 62 8f 40 bc 15 88 c0 3a 91 c5 61 3d
       0.021575741 -0.011752935 0.0014688993 0.055120055
000090 ba f1 f9 bc 4b fb 7b 3d 7c d3 af bc 13 6c d9 bc
       -0.030510772 0.06151895 -0.021463148 -0.026540792
0000a0 f1 92 50 3d 60 b4 34 3c 50 f3 78 ba de 46 94 bc
       0.050921384 0.011029333 -0.00094967056 -0.018100198
0000b0 a9 dd 90 39 ac dd b3 3b ba 69 a8 bd 9e 67 82 3b
       0.0002763097 0.005489072 -0.08223291 0.0039796373
0000c0 01 0f 27 3d 7a 15 16 bd 31 81 0a 3d 0f 62 63 3d
       0.040785793 -0.036641575 0.033814613 0.055513438
0000d0 ab 87 79 3d bf 99 67 3c 31 87 ea 3c 6f c3 34 bb
       0.0609204 0.014135777 0.028628917 -0.0027582308
0000e0 df bb 50 bc 38 d3 a6 3d 25 c1 c9 3c 5a 87 07 3b
       -0.012740104 0.081457555 0.024628231 0.002068004
0000f0 60 0a 07 bd 28 58 9e bd 2e 1b 76 3c 30 b5 5a bc
       -0.03296888 -0.07731658 0.015021129 -0.0133488625
000100 03 8a 36 bd 45 15 06 3d 46 75 1d bc 50 6f 5a bc
       -0.044565212 0.032735128 -0.00961048 -0.013332203
000110 7a 97 23 bd 18 8a 7a 3c c3 21 8d bc b0 e1 ff 3c
       -0.03993938 0.015291713 -0.017228013 0.031235546
000120 3d 3d e7 3c 01 2f 04 bd b4 ec 69 bd 94 b5 91 bd
       0.028227443 -0.03227139 -0.057110503 -0.071147114
000130 25 f0 c2 3c 82 e3 91 3d 34 79 d0 bc a9 5a a8 3b
       0.02379615 0.07123472 -0.02544842 0.0051377607
000140 92 6b 46 3d 20 b6 3a bb 18 98 3e 3d 74 6e 24 3c
       0.04844243 -0.0028489903 0.046531767 0.0100361
000150 79 31 61 bc e9 48 27 bd 0a db 0d bb ea e3 53 bc
       -0.013744705 -0.040841017 -0.002164545 -0.012932757
000160 11 85 7c bd 8a 29 9c 3d 45 d7 cd bc 35 bf cb 3c
       -0.06165034 0.076251104 -0.025127063 0.024871448
000170 8b 7c 21 bc 56 0e 09 3c 61 6d a9 bc 82 46 84 3d
       -0.0098563535 0.008365234 -0.020682039 0.06458761
000180 90 b1 76 3a da 3f 04 bd 16 90 2d bc db 05 17 bc
       0.0009410614 -0.032287456 -0.010593435 -0.009217705
000190 93 a6 72 bd d8 48 92 bd 9c 56 8f bb 0d 86 6b bd
       -0.05924089 -0.071428 -0.0043743383 -0.057500888
0001a0 fc b2 0e 3d 1f 31 8a 3d c7 ec 2a 3c 48 62 a6 bc
       0.03483866 0.0674765 0.010432429 -0.020310536
0001b0 e7 22 8a bd fb c1 4f bd a5 71 4e 3c b3 96 8d 3c
       -0.06744938 -0.050722104 0.012600337 0.017283773
0001c0 9d 63 68 bd 79 e1 db bc e5 68 6c 3d 07 7c 7c 3b
       -0.056735624 -0.026840912 0.057717223 0.0038526074
0001d0 8a 79 22 3d c8 ee 04 3d cf bd 7c bd fa 17 be 3c
       0.03966669 0.032454282 -0.061704453 0.023204792
0001e0 de 56 92 3d 27 d4 eb 3c 25 a0 01 3d 34 fa 88 3c
       0.07145475 0.028787686 0.031646866 0.016720869
0001f0 8c 83 06 3d 8e 8b 84 bd aa 59 af bd 63 5e 3e 3c
       0.032840297 -0.064719304 -0.08562024 0.011619183
000200 0f ea 88 bd f4 ec 60 3d eb b3 57 bd 3c f7 e9 3c
       -0.06685268 0.054913476 -0.052661818 0.028560273
000210 af ae 44 3c b0 1f 9a 3d 54 6b b6 3b 86 2f d0 3a
       0.012004538 0.07525575 0.0055669937 0.0015883304
000220 f5 4d 79 3c 78 e7 af bb 9e 28 b5 bb ca 2b 97 3c
       0.01521634 -0.0053681694 -0.0055285236 0.018453497
000230 4a fd c5 3c 3e c6 91 3d af 5f 05 bd a3 6b 07 bd
       0.02416863 0.0711789 -0.032561954 -0.033061635
000240 fe ee 92 3d a7 21 e6 3b 3c ec 63 3d dc 51 18 3d
       0.071744904 0.0070230546 0.055645213 0.037187442
000250 b8 8e 26 3d 01 e9 af 3c 7e cf 07 3c 71 a8 f3 bc
       0.04066345 0.02147341 0.008289216 -0.029743405
000260 e5 f6 60 3d c1 74 1e bd 58 3b fb 3b e3 2f fc bc
       0.054922957 -0.038685564 0.0076669864 -0.030784553
000270 9e 1b 00 00 62 1b 00 80 1f c3 c1 b9 9a 1b 00 00
       9.907e-42 -9.823e-42 -0.00036957205 9.902e-42
000280 63 78 03 3b 7d 1b 00 80 59 1b 00 00 a4 3e 9b b9
       0.002006077 -9.861e-42 9.81e-42 -0.00029610575
000290 ce b0 5b bc 91 df 4e bc 93 40 fe 39 d4 46 48 3b
       -0.013408853 -0.012626545 0.00048494767 0.0030559795
0002a0 54 c3 92 bd 6c 2e 8c 3d df 7f 79 bd fe a9 f5 3c
       -0.07166162 0.06844792 -0.060912963 0.029988285
0002b0 d0 01 1c 3d f8 0b 73 3c a3 af 0c 3d cc 64 d6 3c
       0.038087666 0.014834397 0.034347188 0.02617111
0002c0 81 54 69 bd 68 05 98 3d ed 7a 56 3d 2e f0 53 3d
       -0.056965355 0.07422906 0.052363325 0.051742725
0002d0 24 67 e8 bc 90 f7 58 bd db e7 bb bd 3b c4 5c bd
       -0.028369494 -0.05297047 -0.09175082 -0.053898077
0002e0 79 61 00 3d 0c 9a d4 bc 39 c7 89 3d ae b6 78 bd
       0.031342957 -0.025952362 0.06727452 -0.060721092
0002f0 4e 08 4a bd 55 e5 af 3c 96 10 48 bd df 73 61 b9
       -0.049324326 0.021471659 -0.048843943 -0.00021500837
000300 9f 99 15 bd 97 db ce bb b5 f4 fc 3b 16 74 6d bd
       -0.036523458 -0.0063127982 0.007719601 -0.057972036
000310 e5 48 8e bd cc ca 65 3d 30 38 5f bd 7e d4 71 bd
       -0.06947497 0.056101605 -0.054496944 -0.05904054
000320 3d 8a ad 3c 74 95 ad bd ef fc cb bc 8e 7f 59 bd
       0.021184081 -0.084757715 -0.024900882 -0.05310016
000330 83 1b 00 00 e0 bf 9c 3b e2 dc 3a bd 1b f5 c1 3b
       9.87e-42 0.0047836155 -0.045620807 0.0059191114
000340 40 90 6a 3d af c3 18 3d c6 90 a3 3b 3e 4a 20 bb
       0.057266474 0.037295993 0.0049916236 -0.0024458314
000350 f7 e6 36 bd a0 eb 3a bd ff 10 ca 3b d0 82 2f 3d
       -0.04465386 -0.045634866 0.006166577 0.042849362
000360 5f c4 62 3d 49 a9 86 3c a3 28 7c bb c0 ab 5a 3d
       0.055363055 0.016438143 -0.003847637 0.05338645
000370 54 8f 31 3b a1 ad 8b bd d7 36 af bb 13 44 03 3d
       0.0027093487 -0.068202265 -0.0053471136 0.032047343
000380 cf 77 ae bd 6b a6 75 bb f0 7e 16 3b 73 ff 2a 3b
       -0.085189454 -0.0037483226 0.0022963844 0.00260922
000390 97 24 27 bc b2 43 ba ba bb 2e 7a bb 79 f7 bf bc
       -0.010201595 -0.0014210849 -0.0038174826 -0.023433434
0003a0 95 fc c9 3a 60 bd 5e bc de 9d 20 bb c5 1c 00 80
       0.0015410358 -0.013594955 -0.0024508159 -1.032e-41
0003b0 dd 90 fc bb 5d 1b 00 80 8d 7d 08 bd 2e 76 89 bd
       -0.0077076987 -9.816e-42 -0.03332286 -0.06711994
0003c0 6a 7e 25 bc b0 86 02 3c 94 57 ca bb d1 7b 57 ba
       -0.01010094 0.007966682 -0.006174991 -0.0008220049
0003d0 5e 8d 09 bc df 2f 87 bc 66 5f 12 bc 9c 84 48 bb
       -0.008395521 -0.016502319 -0.008933878 -0.003059662
0003e0 07 ee 8e bc df ac 07 bc 67 a8 49 3a 5e f5 4c 3d
       -0.017447485 -0.008280962 0.00076926354 0.050038688
0003f0 30 12 1b bd 33 e8 82 3c 12 06 34 3d 8e d9 11 bd
       -0.03785914 0.015979862 0.0439511 -0.035607867

bias f4 [3]
000000 75 9a fa bc 5a cf 79 bc e4 8d cd bc
       -0.030591229 -0.01524719 -0.025092073

weight f4 [768, 3]
000000 ad 8c 74 bf 9b a9 45 3f b3 bb 5e bf 5a 3d b8 be
       -0.95527154 0.7721192 -0.87005156 -0.35984308
000010 6e 17 32 bf 99 9e c2 be ad a1 83 3c 81 25 8c 3f
       -0.69567 -0.38011625 0.016068304 1.0948945
000020 bb f3 8d 3f 4c ba 8d be 0e d4 1b 3e 6e 1f 0d 3f
       1.1090006 -0.27681196 0.15217611 0.5512608
000030 f7 83 25 3d 28 d9 64 bf 17 78 1f 3f 1a 9a e6 3e
       0.040409055 -0.89393854 0.6229262 0.45039445
000040 db 42 c5 be 90 2a 35 bf 89 d5 c5 3c 80 67 17 3f
       -0.3852757 -0.7076807 0.024149673 0.59142303
000050 59 b0 a0 3d df 1d 53 3f 2f 5c 5c 3d ea 18 9c be
       0.07846136 0.82467455 0.05379885 -0.30487758
000060 54 d0 4d bf 40 b8 30 bf 01 e8 7f 3f 43 c0 20 bf
       -0.8039601 -0.69031143 0.99963385 -0.6279337
000070 e0 91 77 3f 1f 91 0a 3f 64 af c8 39 ba 93 0d bf
       0.9670696 0.5412769 0.0003827765 -0.5530354
000080 53 d5 3d 3f ec 79 65 3f bb d0 60 3e 74 20 1a bf
       0.7415363 0.89639163 0.21954624 -0.6020577
000090 d9 55 17 3c cf 96 63 3f 07 41 35 3f 82 05 f4 3c
       0.009236776 0.8890199 0.7080235 0.029787783
0000a0 69 11 67 3e c1 6b 30 3f 17 77 c2 3d 16 fa 8c bf
       0.22565235 0.6891442 0.09495371 -1.101382
0000b0 0d 61 10 3f e8 00 90 3d 4c a0 9b 3d d0 91 6d 3f
       0.5639809 0.07031423 0.075989336 0.9280062
0000c0 2a f7 08 bf 2d 16 5b bf f2 ae 56 be 21 2f 66 bf
       -0.5350214 -0.8558071 -0.20965174 -0.89915663
0000d0 79 8e a0 3d c5 76 2d 3d 58 3f 32 3f 44 5a 70 3f
       0.078396745 0.042349596 0.69627905 0.93887734
0000e0 79 f6 99 be af f5 fc 3e 81 a7 24 bf 08 a3 15 bf
       -0.30070856 0.49406192 -0.6431809 -0.5845189
0000f0 cd 6e 8f be 9e f9 6b 3e e7 97 e8 3e da e7 51 3f
       -0.28014222 0.2304444 0.45428392 0.819944
000100 0e ff db bd 90 fb 0b 3f 38 63 0e bf 4a 3c 62 be
       -0.10742007 0.5468073 -0.55620146 -0.22093311
000110 b2 75 09 bf c5 d0 8c bf c8 48 70 be 4f 41 82 bf
       -0.53695214 -1.1001211 -0.23465264 -1.0176181
000120 c9 9b 1b 3d 7b b3 33 bf 0e 77 e1 3e c4 34 a0 3e
       0.037990365 -0.7019574 0.44036144 0.31290257
000130 ad 54 00 be d0 56 a6 3d 01 2a 41 bf 78 8f 14 bf
       -0.12532301 0.08122027 -0.7545472 -0.58031416
000140 0b 3f 87 bf 02 d1 86 3f 15 0f 23 3f ce e8 35 bf
       -1.0566114 1.0532534 0.6369489 -0.71058357
000150 6b 91 4e bf 72 b7 8a 3a b6 fc 01 bc 44 0c e8 be
       -0.8069064 0.0010583235 -0.007933786 -0.45321858
000160 d9 08 26 3f bd 95 7f bf b8 f8 4a be b1 cc 2f 3f
       0.6485725 -0.9983786 -0.19821441 0.6867171
000170 8d c2 82 3f 5a ad 9c 3e 5e d5 8f bf f5 fb 8e be
       1.0215622 0.30601007 -1.123699 -0.27926603
000180 3b 0e 8a 3f 1b b3 6b 3f ae fc 8f bf d4 eb 8c 3f
       1.0785593 0.9207017 -1.1248987 1.1009469
000190 71 96 56 3f b9 74 d5 bd 88 fd 7c 3d a4 dd 4a bf
       0.83823305 -0.10422654 0.061765224 -0.79244447
0001a0 e2 ac 5c bf 61 88 8c 3f 82 ba 71 3c 66 6b 36 3f
       -0.862013 1.097912 0.01475394 0.71257627
0001b0 c0 09 c2 3c 48 6d 26 bb 95 f9 8c 3f fc 6e a8 be
       0.02368629 -0.0025394727 1.1013666 -0.32897174
0001c0 fc 8a 1c bf 68 bd 44 3f ec 32 07 bc eb 7e 7a be
       -0.61149573 0.7685151 -0.008251887 -0.24462478
0001d0 f0 b8 50 be 0e e5 07 bf 1b 9f 89 bd 2b 54 82 bf
       -0.20383048 -0.53083885 -0.067198 -1.0181936
0001e0 78 a3 ff 3e f0 70 2a 3b 8c 6f 5e 3d 53 a6 7f 3f
       0.49929404 0.0026007257 0.0543056 0.99863166
0001f0 62 f9 db 3e e8 bb 33 3f 1b 52 90 bc 4f 21 9b 3e
       0.429637 0.702086 -0.017617276 0.3029885
000200 f3 a1 55 3e 13 73 ea 3d cc 72 63 3f 10 06 55 bf
       0.2086256 0.1144773 0.8884704 -0.83212376
000210 41 0b e5 3e 48 5f 8c 3e 9f 11 80 3e d8 5f 51 bc
       0.4473515 0.27416444 0.25013444 -0.012779199
000220 a0 4d a4 3e 80 c6 fe 3e dc e0 e3 be 98 02 09 bc
       0.32090473 0.49760818 -0.44507492 -0.008362435
000230 30 f6 b2 3b cf 2d d9 be 36 c3 47 be f1 85 19 be
       0.0054614767 -0.42417762 -0.19508061 -0.14992501
000240 7a 66 e1 bb b0 4d 10 3b 9f 17 06 3d 1d e0 2e be
       -0.0068786712 0.0022018962 0.03273737 -0.1707768
000250 b8 5c 88 3f 90 5a b8 be 4b e4 07 bf 48 80 80 3e
       1.0653296 -0.36006594 -0.5308272 0.2509787
000260 82 19 83 3f fd 3e ac be 91 ec ca be 97 a4 34 be
       1.0242159 -0.33641806 -0.3963361 -0.17640911
000270 34 fe 57 bf 32 d2 2f bf 34 fc 86 bf d2 a6 4a 3f
       -0.8437226 -0.6868011 -1.0545716 0.791608
000280 64 5e 0e be 1d f5 00 bd ae b1 1d be 67 25 19 3f
       -0.13903195 -0.03148376 -0.1539981 0.59822696
000290 ba db 0d bf ef 38 16 3e 40 df 26 bf 12 76 78 3f
       -0.554134 0.14670156 -0.651844 0.9705516
0002a0 34 bb 4c bf b1 26 82 bd df f7 69 3e 9b 38 05 be
       -0.7997315 -0.06355036 0.22848462 -0.13009875
0002b0 b9 68 59 3f 59 ab e8 bc 66 7c e7 3e cd 6a 57 be
       0.8492542 -0.028402017 0.45212096 -0.21036835
0002c0 85 45 45 3f ee 9d 0f 3f 7b 95 16 bf f0 78 f5 3c
       0.77059203 0.56100357 -0.5882184 0.029964894
0002d0 34 2a a7 be ab 76 b5 3c 28 e5 a1 3e e8 21 2b 3d
       -0.32649386 0.022151312 0.31620145 0.041780382
0002e0 12 b5 da bc c3 f8 62 bf be 1b df 3e 30 47 d4 bd
       -0.02669767 -0.8866083 0.43575853 -0.103651404
0002f0 fa f6 15 3d 8b b4 6e 3e 4b 7d 41 3f e5 e2 a6 3e
       0.03661249 0.23311059 0.75581807 0.32594982
000300 f2 70 2a bf ec 5e c1 3e be 67 3a 3f 53 3b 25 bd
       -0.6657859 0.37767732 0.7281455 -0.04033978
000310 9c 68 45 3f 63 e9 15 3d d1 0f 0a bf 1a f7 b4 3b
       0.77112746 0.036599528 -0.53930384 0.005522621
000320 93 40 b2 3c c0 ff fa bc d6 74 eb 3c b2 f1 66 3f
       0.021759307 -0.03063953 0.028742235 0.9021255
000330 23 3c 8f 3e cb bf cc be 5e e0 1c be fc fc 44 3f
       0.27975568 -0.39990076 -0.15319964 0.76948524
000340 31 ba c4 3c b9 b1 1c 3e 09 2c 58 3e 7d 43 47 3f
       0.024014564 0.15302171 0.21110548 0.77837354
000350 63 77 33 3f 23 3b 81 3f fa 55 3f bf ba 4c b3 3c
       0.70104045 1.0096172 -0.74740565 0.021887172
000360 d1 f0 84 bf 82 7a de bd 9b 8b 09 3f 12 a6 37 3f
       -1.0385991 -0.1086321 0.53728646 0.7173778
000370 5d cf d2 bc ba 50 a3 3e ae 2d 0e 3f a3 78 4f 3f
       -0.025733644 0.31897527 0.5553845 0.8104345
000380 96 52 a1 be 8d 22 5b 3f 14 20 f6 be e0 06 8f bf
       -0.3150832 0.85599595 -0.4807135 -1.1173973
000390 b4 f3 af be cc 10 d5 3c d5 fb fe 3e c1 07 31 bd
       -0.34365618 0.026008986 0.49801508 -0.043220285
0003a0 77 04 d5 bd cf 00 44 3f af 14 06 bf a0 4d 0c 3c
       -0.10401242 0.76563734 -0.5237531 0.008563429
0003b0 9a a5 76 be b8 cb c6 3c 5d 57 bc be af c1 8e 3e
       -0.2408661 0.024267063 -0.36785403 0.27882144
0003c0 d4 88 4a bd 73 4a d8 be 6e 47 8e 3b ec c3 83 3f
       -0.049446896 -0.422443 0.004342011 1.0294166
0003d0 82 43 94 3c 83 9e 3a 3d 77 e5 ce be 45 48 5f 3d
       0.018098596 0.045561325 -0.40409443 0.05451228
0003e0 74 c3 3a 3d 6b 64 82 3f f9 f1 01 bf 75 f3 ce bd
       0.045596555 1.0186895 -0.50759846 -0.101050295
0003f0 42 0c 4a bf c2 0e 4f be 67 e6 86 3b 08 d5 80 3e
       -0.78924954 -0.20220473 0.0041168216 0.2516253

bias f4 [768]
000000 55 3e 18 3a f5 0e 1a 3b 07 4c 9e 3c e8 12 e2 3c
       0.0005807628 0.002350745 0.019323362 0.027596906
000010 92 d2 2a 3d ce 4e 20 bd 74 b0 09 3c 6d bf b0 3c
       0.04170472 -0.039137654 0.008403886 0.021575654
000020 6b 00 14 39 f9 97 9d bc d7 11 4e bc 78 07 88 bc
       0.00014114536 -0.019237505 -0.012577496 -0.016605124
000030 c3 c0 28 3c 56 dd d0 3b 91 43 95 bc 51 07 e8 bc
       0.010299864 0.0063740415 -0.018220695 -0.028323801
000040 cd 8c 35 bd 3b 2c 25 3d 4f dc c8 bc eb 96 e0 bc
       -0.04432373 0.040325385 -0.024519114 -0.027415713
000050 fd 3b 53 3b 05 f8 bc 3c 11 e3 7a 3c 71 9e 7e 3c
       0.00322318 0.023067484 0.015312926 0.015540705
000060 ef 1b 93 3b 42 cb 45 3c a1 74 31 3b c4 0d be 3c
       0.004489414 0.012072386 0.0027077573 0.023199923
000070 49 f2 21 3d f2 a5 1e bd 51 7b 35 3d ef 72 e3 3c
       0.0395377 -0.038732477 0.044307057 0.027764766
000080 33 30 b8 bb d6 3b aa bc 41 1b 89 bc ec 1a 96 bc
       -0.00562098 -0.020780485 -0.016736628 -0.018323384
000090 88 b9 52 3c b7 81 b8 3c c8 c9 72 bc 8d 04 58 bc
       0.012861617 0.02252279 -0.014818616 -0.013184679
0000a0 e3 d0 dd bc fa e6 a7 3b e9 a0 96 3b 62 73 4a bc
       -0.027077144 0.00512397 0.0045968187 -0.012356611
0000b0 16 f8 8c 3c f1 2a 48 3c 17 f3 57 3c de d0 38 39
       0.01720814 0.012217269 0.013180516 0.00017625417
0000c0 48 52 a5 3c 6e d0 83 3c 47 b3 77 3c 8b 0a b8 3c
       0.020180836 0.016090598 0.015118427 0.022465965
0000d0 b0 5c bc 3b e3 8b 22 bd 90 26 fc bc 3f b7 16 3c
       0.005748354 -0.039684188 -0.030780107 0.009198963
0000e0 44 05 de 3b 85 c2 d2 39 aa a1 8b 3b 1b e9 82 bb
       0.00677553 0.0004019925 0.004261215 -0.0039950735
0000f0 bf fa 84 3b 8d 1d 12 3b 9d 9b 41 3c f8 37 c4 3c
       0.0040582116 0.0022295446 0.011816886 0.02395247
000100 e7 ce 28 3d 6a e2 35 bd 20 d1 26 3d de ce 09 3d
       0.041212942 -0.04440538 0.04072678 0.03364455
000110 1a ac 21 bc 35 30 c6 bc a5 d4 a8 bc cf 21 ac bc
       -0.009867692 -0.024192909 -0.02060921 -0.021012215
000120 73 64 ec bb ef 80 e4 37 19 15 82 3c 63 a8 a0 3c
       -0.007214123 2.7239757e-05 0.0158792 0.019611543
000130 8d fc 49 3d ae b5 79 bc 1a da 0e 3d 32 43 c7 3c
       0.049313117 -0.01524107 0.034875967 0.024324033
000140 16 cb 68 bc d6 e0 c7 bc c2 af 9f bc a2 2b 36 bc
       -0.014208576 -0.024399202 -0.019492988 -0.011118801
000150 5e 73 1d 3b 47 2e 41 bc 48 bb 87 3c 15 11 81 3c
       0.0024025063 -0.011790819 0.016568795 0.015755216
000160 5c 6c c5 3c 0d 6d 8b bc 8e 5f 20 bd 2b f2 e6 bb
       0.024099521 -0.017019773 -0.039153628 -0.0070479116
000170 20 75 8d bb 25 86 ef bb 36 0b 0c ba 24 0a bd 3b
       -0.004316941 -0.0073096924 -0.0005342247 0.005769031
000180 57 50 05 3a 56 f7 83 3c ff 74 ee 3a 3d c3 ca 3c
       0.0005085519 0.01610915 0.0018192827 0.0247513
000190 1c 08 07 3d 46 ba 1d bd 9f 7b 38 3a e5 bc 44 3c
       0.032966718 -0.038507722 0.0007037464 0.012007927
0001a0 b1 a2 b8 3b 00 03 90 bc 64 ea fc bb 96 45 31 bc
       0.0056346287 -0.017579556 -0.007718371 -0.010819813
0001b0 de 5e 48 3c fe 22 41 bc c8 ec 27 3c f8 35 2d 3b
       0.012229649 -0.011788128 0.010249324 0.0026429873
0001c0 d2 db a7 bc c8 1b 3c 3b 29 bb 24 bd be c4 9c bc
       -0.02049056 0.0028703082 -0.040217552 -0.019136783
0001d0 d9 ed df 3b 02 d7 ab 3c 42 fa 7a 3c 9f 93 15 3c
       0.0068337736 0.020976547 0.015318455 0.009129434
0001e0 ff 28 a5 3c e0 a4 50 3d 6c f7 90 3b 9f 76 fa 3c
       0.02016115 0.050938487 0.0044240262 0.030574141
0001f0 69 4e 13 3d 0c 05 73 bd 27 75 10 3d 01 f3 0e 3d
       0.03596345 -0.059330985 0.035267975 0.034899715
000200 95 c0 7b 3a 8f 4b ae bc 34 d9 69 bc f5 44 c5 bc
       0.0009603587 -0.021276264 -0.014272977 -0.024080733
000210 a8 85 4a bc cb 1c 74 bc 5b c6 8a bb 06 63 70 b9
       -0.012360968 -0.014899443 -0.0042350716 -0.00022925073
000220 f9 6e 79 3c 19 b0 02 3c a4 e4 84 bc e7 05 5a bc
       0.015224212 0.007976555 -0.016222306 -0.013307071
000230 92 f8 15 3c 29 fd df 3b 67 3f 26 3b 0c 51 23 3c
       0.009153502 0.006835599 0.002536738 0.009968054
000240 29 c1 62 bc 49 36 39 bd f7 21 a3 bb 5b 54 83 bc
       -0.013839998 -0.045217786 -0.004978414 -0.016031435
000250 9f d7 ea bc 71 8c 32 3d 4b e1 24 bd 08 1b ce bc
       -0.02866727 0.043590967 -0.04025392 -0.025159374
000260 02 0e f1 3b 99 a0 a3 3c fa 08 77 3c 45 33 a6 3c
       0.007356406 0.01997404 0.015077824 0.02028812
000270 ae 2f 52 3c 0a 7f 98 bc c4 c1 df ba d1 2f 9c bc
       0.012828751 -0.018615264 -0.0017071296 -0.01906577
000280 1b c5 27 bd 15 3d 1e 3d 71 12 28 bd 9e e5 ec bc
       -0.04095946 0.03863247 -0.041033212 -0.028918084
000290 90 78 ef b7 b7 0e b7 3c 9d 45 7d 3c da 00 84 3c
       -2.8547161e-05 0.022345884 0.015458492 0.016113687
0002a0 82 2b c3 3c b1 e5 d8 3c 8e 27 be bc ac 99 71 bc
       0.023824457 0.026476713 -0.02321222 -0.014746111
0002b0 24 8d 42 bd 47 5f 24 bc ec b1 10 bb 2e dc 41 bc
       -0.047497883 -0.0100324815 -0.0022078706 -0.01183228
0002c0 78 94 84 3c bb 80 a5 3c 88 26 7b 3c 29 90 d4 3b
       0.016184077 0.020202985 0.015329011 0.006486912
0002d0 5c fa a5 bb f6 53 a4 3c 13 78 89 3b c6 38 84 3c
       -0.0050652456 0.020059567 0.004195222 0.016140353
0002e0 a7 9a 19 3d 6c cc c4 bc 62 05 fd 3c a9 e0 6e 3c
       0.037501004 -0.024023257 0.030886356 0.01457993
0002f0 e4 90 e8 bb 03 bd 9d bc 87 5d 87 bc 3a 2e 33 bc
       -0.0070973504 -0.019255167 -0.01652409 -0.010936314
000300 1f ea d6 3b be 80 94 3b b1 c2 ab 3a b2 49 b4 3c
       0.006558671 0.004531949 0.0013104287 0.022007797
000310 e3 68 d4 3c 4f a5 18 bd b6 65 be bb 70 9f 45 3c
       0.02592892 -0.037267026 -0.0058104647 0.012061939
000320 42 df d4 3b 02 f2 63 bc fb 4f 1a bc ce 2e c5 bb
       0.006496341 -0.01391268 -0.009418483 -0.0060175424
000330 80 c7 f3 bb 8a f4 b3 bc e3 f5 81 bc 64 73 f9 bc
       -0.0074395537 -0.021967191 -0.015864318 -0.03045053
000340 ff f9 60 bd 73 7d 3f 3d 7b 6c 6a bd df a4 31 bd
       -0.054925915 0.046750497 -0.05723236 -0.043370124
000350 d9 d8 87 3c bd ad ef 3c b7 8b c3 3c 05 4b f9 3c
       0.016582893 0.02925765 0.023870332 0.03043128
000360 a0 86 84 bc a4 8f 38 bd 42 e9 48 bc 1b a7 01 bd
       -0.016177475 -0.04505886 -0.012262644 -0.031653505
000370 6e ac 47 bd bd d6 68 3d aa 5c 4c bd 32 47 3f bd
       -0.048748426 0.056845415 -0.04989306 -0.046698757
000380 68 95 e5 3b 1e 29 d7 3c 92 a6 a9 3c ac 50 f6 3c
       0.007006336 0.026264723 0.02070931 0.030067764
000390 f8 8a d4 3b c0 6d 9e bc 38 79 26 bc 50 6b c9 bc
       0.006486293 -0.019339442 -0.010160737 -0.024587303
0003a0 b5 3f 67 bd 14 7f 15 3d 85 76 75 bd 90 6d 2b bd
       -0.05645724 0.036498144 -0.059927482 -0.041852534
0003b0 79 7d 17 3c e5 59 f1 3c 37 6a b0 3c 5d 32 bf 3c
       0.009246224 0.02946181 0.021535022 0.023339445
0003c0 c3 41 49 3c 8f 3d ef 3c 33 28 2e 3c 53 30 f8 3c
       0.012283745 0.029204158 0.010629701 0.03029648
0003d0 82 9f 1a 3d c5 32 56 bd fd c6 e0 3c 44 37 e5 3c
       0.037749775 -0.05229451 0.027438635 0.027980454
0003e0 e9 20 54 3b 61 a3 aa bc dd 09 66 bc 08 6a 91 bc
       0.0032368249 -0.020829858 -0.0140404375 -0.017750755
0003f0 57 c9 37 3c 02 49 06 3c ab 9e b9 bb d1 03 9a bc
       0.011217437 0.008196117 -0.0056646666 -0.018800648
