VAE/data/normal.pth (torch, 98634 bytes, 17 tensors)

weight f4 [16, 1, 3]
0	0xbd3adf27	-0.04562297
1	0xbbaf8b67	-0.005357194
2	0x3ebf205c	0.37329376
3	0xb7dbb104	-2.6189264e-05
4	0x3d368e94	0.044569567
5	0x39ae402b	0.00033235675
6	0x3b8a353a	0.004217771
7	0x3a9087f7	0.0011026849
8	0x3ee314b4	0.44351733
9	0xbac63439	-0.0015121765
10	0x3e3f28e5	0.18667944
11	0x3c9deb70	0.019277304
12	0x00001b6d	9.839e-42
13	0x8889bf6b	-8.29039e-34
14	0x80001e36	-1.0838e-41
15	0x398dbcec	0.00027034373
16	0xb9f1e678	-0.00046138815
17	0xb8a74025	-7.9751284e-05
18	0xbc077f63	-0.008270117
19	0x3e390cd8	0.18071306
20	0xb8c4307f	-9.3550414e-05
21	0xbd3aa347	-0.04556587
22	0x3c3cbfa4	0.0115203
23	0xb8fdaf31	-0.00012096612
24	0x38d9f19d	0.0001039237
25	0x3a2e3e8f	0.0006646895
26	0x3a312164	0.000675699
27	0x39992f68	0.00029217754
28	0xb9181400	-0.000145033
29	0x3a122c2f	0.0005576042
30	0x385ef7ce	5.315971e-05
31	0x3a570dee	0.0008203675
32	0x3a2ff9f9	0.0006712969
33	0x399ba586	0.00029687228
34	0xb72a9d52	-1.0169419e-05
35	0xba0a2473	-0.00052697136
36	0x3b271a14	0.0025497722
37	0x3c218d0f	0.009860291
38	0x3f5ee9e5	0.87075645
39	0xbd7b81f8	-0.061403245
40	0xbd9ba87a	-0.07600494
41	0x3e82e613	0.25566158
42	0x3b34d87f	0.0027594862
43	0x3c129010	0.00894548
44	0x3f1f71b0	0.6228285
45	0x1395f6fb	3.785643e-27
46	0xad27888b	-9.52317e-12
47	0xae5bb2b4	-4.9953555e-11

bias f4 [16]
0	0x3ecfde1d	0.40599146
1	0x39b37ba2	0.00034233654
2	0xba90fa5e	-0.0011060943
3	0x3b6c4d60	0.0036056861
4	0xa282767f	-3.5362033e-18
5	0x3a1c3c4d	0.0005959913
6	0x3d4f8184	0.050660625
7	0x3e9e511b	0.30921254
8	0x3a4e689e	0.00078738655
9	0x3a2f80f6	0.0006694937
10	0x3a4b01bf	0.00077440956
11	0x3a22a729	0.00062047184
12	0xbd8f3908	-0.069933
13	0x3eef2a25	0.4671184
14	0xbd71b040	-0.059005976
15	0xb483146e	-2.4415516e-07

weight f4 [32, 16, 3]
0	0xbb9e238d	-0.0048260153
1	0xbb5dd6e5	-0.003385001
2	0xbcb852b8	-0.02250038
3	0xb974244d	-0.00023283176
4	0xb8891e4b	-6.5383116e-05
5	0x38d73ae7	0.0001026297
6	0xba3ec361	-0.00072770385
7	0x3a299a01	0.0006469787
8	0xbc8b25a1	-0.016985716
9	0xba02e204	-0.00049927854
10	0xb9946696	-0.00028305192
11	0x3a7814b2	0.0009463533
12	0x00001e7d	1.0937e-41
13	0x00001dae	1.0647e-41
14	0x00001de1	1.0719e-41
15	0xb7eb3419	-2.8038443e-05
16	0xb8ac7ef1	-8.225244e-05
17	0xb91eac5f	-0.00015132267
18	0xba74e723	-0.00093423034
19	0xba4e59b9	-0.0007871646
20	0xba056e7b	-0.000509001
21	0xbb84eeb3	-0.0040567755
22	0xbb82c94d	-0.003991282
23	0xbb83b291	-0.0040190895
24	0xb833027e	-4.2679247e-05
25	0xb7f8e36d	-2.9669807e-05
26	0x3995786f	0.00028509225
27	0xb80739fb	-3.2240507e-05
28	0xb8492567	-4.7956968e-05
29	0x399ae647	0.0002954474
30	0xb82bc38f	-4.0951705e-05
31	0xb7fec12a	-3.0369109e-05
32	0x3993a6b3	0.00028162225
33	0xb85b8070	-5.2333286e-05
34	0xb8bb7662	-8.9389054e-05
35	0xb866edc5	-5.5057713e-05
36	0xba78af99	-0.00094866153
37	0x3b13ed29	0.0022571778
38	0x3d0452d6	0.03230556
39	0xbbb51785	-0.0055264854
40	0xbb97ce5d	-0.0046327547
41	0xbb08b82f	-0.0020861735
42	0xba43e45b	-0.0007472687
43	0x3ab1b160	0.001355689
44	0x3da5f7aa	0.08103879
45	0x9105a9b1	-1.054414e-28
46	0x0f21eacd	7.983134e-30
47	0x928a130d	-8.713721e-28
48	0x063904ff	3.4798303e-35
49	0x0002a191	2.4163e-40
50	0xb7487249	-1.1947538e-05
51	0x80001c84	-1.023e-41
52	0x80001b81	-9.867e-42
53	0x80001cb4	-1.0297e-41
54	0x80001b97	-9.897e-42
55	0x80001b76	-9.851e-42
56	0xb7355949	-1.0809229e-05
57	0x80001b6e	-9.84e-42
58	0x00001b6b	9.836e-42
59	0xb1c2a784	-5.6651874e-09
60	0x00001e5d	1.0892e-41
61	0x00001d54	1.0521e-41
62	0x80001c8d	-1.0242e-41
63	0x00001f0f	1.1142e-41
64	0x80001e9c	-1.098e-41
65	0x00001c81	1.0225e-41
66	0x00001b80	9.865e-42
67	0x00001b6c	9.837e-42
68	0x8000208f	-1.168e-41
69	0x00001b91	9.889e-42
70	0x00001b89	9.878e-42
71	0x00001b71	9.844e-42
72	0x00001d53	1.052e-41
73	0x80001c5c	-1.0173e-41
74	0x80001ca5	-1.0276e-41
75	0x80001c98	-1.0258e-41
76	0x00001e35	1.0836e-41
77	0x80001d00	-1.0403e-41
78	0x80001b7f	-9.864e-42
79	0x00001edb	1.1069e-41
80	0x00001df1	1.0741e-41
81	0x00002168	1.1984e-41
82	0x80001db8	-1.0661e-41
83	0x00001bcc	9.972e-42
84	0x8df161b7	-1.4876296e-30
85	0x00001b92	9.89e-42
86	0xb74603e9	-1.180263e-05
87	0x88bdf230	-1.1431962e-33
88	0x0585ebd2	1.2593887e-35
89	0xb73c5538	-1.1225515e-05
90	0x80001b6a	-9.834e-42
91	0x00001b75	9.85e-42
92	0xb73b41f9	-1.1161429e-05
93	0x80001c9c	-1.0263e-41
94	0x00001f38	1.1199e-41
95	0x00001cc7	1.0323e-41
96	0x3e006cc9	0.12541498
97	0x3d9cbbd5	0.076530136
98	0x3df455bd	0.11930416
99	0x3a88490f	0.001039775
100	0x3c6fe0da	0.014641011
101	0x3855cad0	5.097204e-05
102	0x3db9c3f9	0.09070582
103	0xbb92d08a	-0.004480426
104	0xbcf55d3c	-0.029951684
105	0x3d0330ea	0.03202907
106	0x3dd260c3	0.10272362
107	0x3b2581eb	0.002525444
108	0x00001bb4	9.938e-42
109	0x00001b7f	9.864e-42
110	0x80001ba4	-9.916e-42
111	0x3a220320	0.0006180275
112	0x3a0eaad3	0.0005442325
113	0x3a290601	0.0006447733
114	0x3c2690fe	0.010166405
115	0x3e1150c6	0.14190969
116	0x3b9a1743	0.00470248
117	0x3da5e2f1	0.08099926
118	0x3d8ae32e	0.06781612
119	0x3d901982	0.07036115
120	0x39b53de3	0.0003456912
121	0x39b4ebcd	0.0003450796
122	0xb7997420	-1.8293096e-05
123	0x39b75193	0.00034965258
124	0x3a26568a	0.0006345293
125	0xb6c8aadc	-5.980355e-06
126	0x39b8e4af	0.00035265597
127	0x39b3b319	0.0003427498
128	0xb74bb9c1	-1.2142992e-05
129	0x3a288e3f	0.0006429888
130	0x3a26d550	0.00063641835
131	0x3a2e630c	0.00066523324
132	0xbde34cb3	-0.110986136
133	0xbc7d96a1	-0.015477807
134	0x3e02716b	0.12738578
135	0x3e03aebd	0.12859626
136	0x3dcc958d	0.09989462
137	0x3cbd465d	0.02310484
138	0xbd01d450	-0.031696618
139	0xbc431bcf	-0.011908486
140	0xbe602496	-0.21888956
141	0x1353d8a5	2.6738758e-27
142	0x932264ed	-2.0497035e-27
143	0x9326f2c0	-2.107183e-27
144	0x3d2496bc	0.040182814
145	0xbc15931e	-0.009129314
146	0x3d54fd61	0.051999453
147	0xb9d1349c	-0.00039902783
148	0xbcfbd88c	-0.030742906
149	0xb9e805fa	-0.0004425494
150	0x3de4d9fe	0.11174391
151	0x3b2e9906	0.0026641502
152	0xbe47220d	-0.19446583
153	0xbaeb8949	-0.0017969991
154	0xbd1e7b58	-0.03869185
155	0x3bbc3f5e	0.0057448586
156	0x80001c8c	-1.024e-41
157	0x00001c17	1.0077e-41
158	0x00001ea8	1.0997e-41
159	0xba0c57f4	-0.0005353682
160	0xb9f16cb5	-0.00046048095
161	0xba1501a7	-0.0005684145
162	0x37ff15f3	3.040859e-05
163	0x3c266104	0.010154966
164	0x38d9c1ee	0.000103834886
165	0xbc9541fb	-0.018219939
166	0xbc8ca6fb	-0.017169466
167	0xbc49e004	-0.012321476
168	0xb9cc8bbe	-0.00039014028
169	0xb9c8bc83	-0.00038287425
170	0xb9dd9839	-0.0004226582
171	0xb9c91501	-0.00038353357
172	0xba191cfd	-0.00058408064
173	0xb9d72e63	-0.00041042556
174	0xb9cf8e96	-0.00039588352
175	0xb9ccce2b	-0.0003906352
176	0xb9dfdc04	-0.000426978
177	0xba061b3b	-0.0005115752
178	0xba1a99e2	-0.0005897564
179	0xba1fcc68	-0.00060958276
180	0x3e4f19ce	0.20224687
181	0x3bd23014	0.0064144228
182	0x3dcf5d32	0.101251975
183	0x3caf996a	0.021435458
184	0xbc98d2c9	-0.018655198
185	0xbe127db1	-0.1430576
186	0x3e63c555	0.22243245
187	0x3b8fb11d	0.004385127
188	0x3e6b827d	0.22998996
189	0x12b3c452	1.1344885e-27
190	0x8fd5dbef	-2.1088137e-29
191	0x0b822b25	5.0139095e-32
192	0x3dfb7e49	0.12279946
193	0x3db16659	0.086620994
194	0x3dcad9c8	0.0990482
195	0x3a6eb45c	0.0009105855
196	0xbc8c3f0c	-0.017119907
197	0xb9eab657	-0.00044767812
198	0xbdaf0dd6	-0.08547561
199	0xbb91bfdc	-0.0044479202
200	0xbda79aa3	-0.081837915
201	0x3c323c0c	0.010878574
202	0xbd46312d	-0.04838674
203	0xbb91723e	-0.0044386676
204	0x80001b92	-9.89e-42
205	0x00001b70	9.843e-42
206	0x00001bb2	9.935e-42
207	0x3a0e4956	0.0005427798
208	0x3a1fea06	0.0006100241
209	0x3a264654	0.0006342877
210	0x3c4928fe	0.01227784
211	0x3dc61e2a	0.09673722
212	0x3b955375	0.004557068
213	0x3d9dc006	0.07702641
214	0x3d969ffd	0.07354734
215	0x3d8a09d0	0.06740153
216	0xb90de704	-0.00013532868
217	0xb8a1f80c	-7.7232806e-05
218	0xba05e951	-0.0005108314
219	0xb89a1e65	-7.348954e-05
220	0x3a10f586	0.000552975
221	0xb9e7634e	-0.0004413374
222	0xb90d420b	-0.00013471411
223	0xb91b2ff8	-0.00014799822
224	0xba05901d	-0.0005095022
225	0x3a116df1	0.00055476936
226	0x3a111524	0.0005534461
227	0x3a2910c5	0.0006449337
228	0x3e664504	0.22487265
229	0xbc85847e	-0.016298529
230	0xbd59aa5a	-0.053140976
231	0x3d88eef3	0.06686201
232	0x3dbae2c3	0.091252826
233	0x3dcec9f6	0.10097115
234	0xbe69f49f	-0.22847222
235	0xbc4f0783	-0.012636068
236	0x3cf5ca6a	0.030003745
237	0x93074cdc	-1.707729e-27
238	0x1289fa1c	8.707572e-28
239	0x136cdc7c	2.9896095e-27
240	0x3a76c183	0.0009412991
241	0x3a2988fa	0.00064672495
242	0x38cf1747	9.874865e-05
243	0x3a1a6757	0.00058900326
244	0x3a6edf32	0.0009112238
245	0x39dc212b	0.00041986382
246	0x3a6fb34c	0.0009143844
247	0x3a15d26d	0.0005715255
248	0xb7d582b2	-2.5452438e-05
249	0x3a73de1c	0.0009302811
250	0x3a6fc008	0.00091457414
251	0x3916dfd3	0.00014388496
252	0x80001e8b	-1.0957e-41
253	0x80001ec5	-1.1038e-41
254	0x80001b67	-9.83e-42
255	0x398452d6	0.0002523872

bias f4 [32]
0	0xbc492a92	-0.012278216
1	0xa4f5b5af	-1.065596e-16
2	0x3e852d0e	0.26010936
3	0xbd708372	-0.058719106
4	0x3e8cb2fd	0.27480307
5	0x3a3ce9a4	0.0007206446
6	0x3e1e330b	0.15449159
7	0xbb87e4f8	-0.0041471682
8	0x3e5a5ca7	0.21324407
9	0x3a38d09e	0.00070501294
10	0xb26c3bd6	-1.3750613e-08
11	0xb3069b30	-3.134045e-08
12	0x3dc12f43	0.094328426
13	0x9626d0c7	-1.3475252e-25
14	0xbdc66575	-0.0968732
15	0x3a3a3b65	0.00071041874
16	0x3e618705	0.22024162
17	0x3ea07ee6	0.31346816
18	0x3dcd277b	0.10017296
19	0x3a50738c	0.0007951788
20	0x3c6f4290	0.014603272
21	0xbd0685b1	-0.03284234
22	0x3c73846f	0.014863118
23	0xbcb87ccc	-0.022520445
24	0x3e60854a	0.21925846
25	0xbdfb68cd	-0.122758485
26	0xb26474e1	-1.3297922e-08
27	0xbcf6dbc5	-0.030134091
28	0xbd83f95c	-0.06444046
29	0xbc8d7738	-0.017268762
30	0x3e6f9c8e	0.23399565
31	0x3e2b31b5	0.1671818

weight f4 [64, 32, 3]
0	0x8d5c5b48	-6.790261e-31
1	0xa7fc4973	-7.0023684e-15
2	0x0e029bcc	1.609875e-30
3	0x80001c46	-1.0143e-41
4	0x00001c64	1.0185e-41
5	0x80001cf0	-1.0381e-41
6	0x8fa9d789	-1.6747708e-29
7	0x9302a74d	-1.6490792e-27
8	0xa783264a	-3.6401317e-15
9	0x0eeb72a7	5.804238e-30
10	0xb30c19a6	-3.2619617e-08
11	0xb75cadc0	-1.3153476e-05
12	0x8fcb72da	-2.0061585e-29
13	0x9495319f	-1.5064727e-26
14	0xaeff547b	-1.1611064e-10
15	0x80aa6454	-1.5648025e-38
16	0x800f78a0	-1.420805e-39
17	0x00578057	8.035728e-39
18	0x8e03b31a	-1.623323e-30
19	0x8e4bdd12	-2.5128123e-30
20	0x8e3e8057	-2.3481102e-30
21	0x9e5299e5	-1.1149132e-20
22	0xb6bea03a	-5.681094e-06
23	0x0e69cad2	2.8817122e-30
24	0x8eb97f3a	-4.5728536e-30
25	0x8ff2fd89	-2.39607e-29
26	0xae90217b	-6.554309e-11
27	0x80001cf4	-1.0386e-41
28	0x00001e44	1.0857e-41
29	0x80001ef8	-1.111e-41
30	0x0068872a	9.59938e-39
31	0x004db7cc	7.137267e-39
32	0x0008268c	7.48512e-40
33	0x00001c18	1.0078e-41
34	0x80001b7c	-9.86e-42
35	0x00001c58	1.0168e-41
36	0x8c935346	-2.2699055e-31
37	0x8ded2b39	-1.4616658e-30
38	0x8cf45cc2	-3.764998e-31
39	0x80001dd2	-1.0698e-41
40	0x80001ed1	-1.1055e-41
41	0x80001e43	-1.0856e-41
42	0x89a8b7e4	-4.061746e-33
43	0x8da6e262	-1.028504e-30
44	0x0ecdd36d	5.0739997e-30
45	0x00001d04	1.0409e-41
46	0x800ff2c8	-1.464626e-39
47	0x8013a4c0	-1.803976e-39
48	0xa203f68c	-1.7884331e-18
49	0xb66c345b	-3.5197215e-06
50	0x1613fdc3	1.1954639e-25
51	0x8fd72581	-2.1215083e-29
52	0x10a3af40	6.456218e-29
53	0x11bbee84	2.9650394e-28
54	0x9f5c7761	-4.668556e-20
55	0xb666a7e8	-3.4370405e-06
56	0x12db4834	1.38386425e-27
57	0x00001e50	1.0874e-41
58	0x80001e98	-1.0975e-41
59	0x00001e4c	1.0868e-41
60	0x0cd2cea9	3.2480002e-31
61	0x0bfc9ad7	9.7299846e-32
62	0x0bfe0100	9.7838746e-32
63	0x8d3aab79	-5.752208e-31
64	0xb00b299d	-5.062704e-10
65	0xa416ddbc	-3.271388e-17
66	0x0e03b2c5	1.6233071e-30
67	0x0dc73ad7	1.2278487e-30
68	0xb12d32ac	-2.5203617e-09
69	0x0914fc1d	1.7933395e-33
70	0x0d5c9908	6.797694e-31
71	0x0d331fa4	5.519672e-31
72	0x8ea3724b	-4.0292662e-30
73	0x8ea04bc6	-3.9516012e-30
74	0x0f50ae7f	1.02887985e-29
75	0x8dc58f11	-1.2175504e-30
76	0xb3ca865f	-9.4308e-08
77	0xb091e5a5	-1.0615407e-09
78	0x80001d97	-1.0615e-41
79	0x00001b77	9.853e-42
80	0x00001d1c	1.0442e-41
81	0x0a1248c2	7.0433285e-33
82	0x8efe8f68	-6.275393e-30
83	0x0e23e7de	2.0202941e-30
84	0x8f5e5507	-1.0961821e-29
85	0xb53c615a	-7.017712e-07
86	0x8f1383f8	-7.273076e-30
87	0x8df712b4	-1.5227053e-30
88	0x8e5a0116	-2.6871097e-30
89	0xb2f3f248	-2.83991e-08
90	0x8f2926fa	-8.33985e-30
91	0xae55ffd7	-4.8657824e-11
92	0x8feb3045	-2.3191382e-29
93	0x0ce9ee32	3.6042693e-31
94	0x0e825245	3.2126697e-30
95	0x99a3a471	-1.6920222e-23
96	0xba2832c4	-0.0006416256
97	0xbb5da099	-0.0033817647
98	0xbcd43009	-0.025901811
99	0x80001b81	-9.867e-42
100	0xa92295c1	-3.6101117e-14
101	0xb5566bed	-7.9878265e-07
102	0x3c072d37	0.008250526
103	0x3bb9b9a2	0.005667881
104	0x3b6a7ca7	0.0035779865
105	0x3a0f0ee0	0.00054572336
106	0xbc0e9bb1	-0.008704112
107	0x3d5a4691	0.053289954
108	0x3c0aba07	0.008467204
109	0x3c1002d4	0.008789737
110	0x3ce112e3	0.027474826
111	0xb9f02d20	-0.00045809988
112	0xb9ca5970	-0.00038595079
113	0xb9f1cffc	-0.00046122062
114	0x3b485a0c	0.003057125
115	0x3b56de36	0.0032786257
116	0x3b12022e	0.0022279131
117	0xbae2649d	-0.0017272417
118	0xbcf65339	-0.03006898
119	0x3e08b726	0.13351116
120	0x3bf54aaf	0.0074857096
121	0x3ba94ed9	0.00516687
122	0x3c455af3	0.01204561
123	0xb9bc3056	-0.00035894167
124	0xb9c9c4e0	-0.0003848439
125	0xb9cf0317	-0.0003948442
126	0xb1bcbc65	-5.492938e-09
127	0x330f13ce	3.3312794e-08
128	0xb37d6e6a	-5.9006574e-08
129	0x00001ba3	9.914e-42
130	0xb20277c0	-7.594224e-09
131	0x360597af	1.9906836e-06
132	0x3afc8f4e	0.0019268782
133	0x3b0bc1fb	0.0021325338
134	0x3ad84868	0.0016501071
135	0x13832536	3.3105742e-27
136	0x149bba11	1.572439e-26
137	0x942216f3	-8.183436e-27
138	0x38008fdf	3.065157e-05
139	0xbb1df97d	-0.0024105005
140	0xbbc5d3e7	-0.0060372236
141	0xb9ef09f6	-0.00045593054
142	0xb9c9c732	-0.0003848612
143	0xb9f11f53	-0.0004599044
144	0x3b029ee2	0.0019931127
145	0xbba65ab9	-0.005076733
146	0xbe048112	-0.12939861
147	0x3bda7696	0.0066669686
148	0x3bd99345	0.0066398703
149	0x3b8b4ad3	0.004250863
150	0x3b2fc936	0.0026822812
151	0xbca37a98	-0.019955918
152	0xbcf22e10	-0.02956298
153	0xb9f4acd3	-0.0004666807
154	0xb9f7f68f	-0.00047295212
155	0xb9bc9dc0	-0.00035975687
156	0x3910a842	0.00013795591
157	0x39c481b7	0.00037480678
158	0x3a6b78be	0.00089825306
159	0xbaa713c0	-0.0012746975
160	0xbb7d2f22	-0.003863283
161	0x3ce2af22	0.0276714
162	0x3a510dbb	0.0007974763
163	0xba974ce6	-0.0011543303
164	0xbaff1558	-0.0019461317
165	0x379d44b1	1.8747845e-05
166	0xba5cac6c	-0.0008418027
167	0xbb50c290	-0.003185425
168	0x3bb0b7e1	0.005393014
169	0x3ba2cf59	0.0049685654
170	0x3b46ea07	0.0030351894
171	0xbb4e53ee	-0.0031483131
172	0xbbdc680e	-0.0067262715
173	0x3db297d3	0.087203644
174	0x80001bfc	-1.0039e-41
175	0x2e6da304	5.4032348e-11
176	0x3791b597	1.7369906e-05
177	0xb9eecfb6	-0.00045549654
178	0xba9822bc	-0.0011607031
179	0x3b769aa5	0.0037628796
180	0xbb1897ba	-0.0023283795
181	0x3cc6541b	0.024210026
182	0x3d33bba9	0.04388014
183	0x3a3ca9dc	0.0007196942
184	0xbada07f6	-0.0016634453
185	0xbc8645ee	-0.016390767
186	0x3b9c9954	0.0047790203
187	0x3b2a3eaf	0.0025977304
188	0xbd3e19ae	-0.04641121
189	0x3b853a33	0.004065776
190	0x3b55735d	0.0032569983
191	0x3a77aec8	0.00094483467
192	0xbd97ecbe	-0.07418202
193	0xba344832	-0.0006877213
194	0x3922dc5a	0.00015531611
195	0x353c7b65	7.021502e-07
196	0x00001b5e	9.817e-42
197	0x80001cd6	-1.0344e-41
198	0x3c074d02	0.008258106
199	0xbd9315a7	-0.07181864
200	0xba5a5fe5	-0.00083303294
201	0xbc22f002	-0.009944918
202	0x3e375926	0.17905101
203	0xbbd006e8	-0.0063484795
204	0x3ca9d706	0.020732414
205	0x3d52b824	0.05144514
206	0xbac4985f	-0.0014999023
207	0x38d3ebab	0.000101051606
208	0xb98fa29a	-0.00027396233
209	0x39c5d640	0.00037734397
210	0x3baa169b	0.005190683
211	0x3b913f84	0.0044326205
212	0x3959b60e	0.00020762553
213	0x3d6bc456	0.057560287
214	0xbbf294ee	-0.0074030077
215	0xb947836f	-0.00019027082
216	0x3c23dd2e	0.010001464
217	0xbb90b039	-0.0044155386
218	0xbabc4755	-0.001436452
219	0xb95df38b	-0.00021166929
220	0xb95a288c	-0.00020805205
221	0x39924454	0.00027898198
222	0x2e421ad9	4.413434e-11
223	0xb5e654d5	-1.7161025e-06
224	0x32444f22	1.1426694e-08
225	0xb86e4fd4	-5.6817968e-05
226	0xb8bbb12d	-8.9498564e-05
227	0x80001b9d	-9.906e-42
228	0x3b7331a7	0.0037108453
229	0x3b4f9d1c	0.0031679338
230	0x3919cde4	0.00014667917
231	0x91073687	-1.0666425e-28
232	0x14c0a737	1.9453e-26
233	0x0ddb3023	1.3508506e-30
234	0xbc31d8dc	-0.010854926
235	0xbd1c770c	-0.03819947
236	0x38dd9697	0.00010566151
237	0x38b8a10d	8.803802e-05
238	0xb98ecb6c	-0.00027235912
239	0x39c5d285	0.00037731617
240	0xbdfcf3aa	-0.12351163
241	0xb95c4328	-0.00021005853
242	0xb9919d5f	-0.00027773806
243	0x3c1dc44f	0.009629323
244	0x3c019058	0.007907949
245	0x391a6c19	0.00014726854
246	0xbda55455	-0.08072726
247	0xbb50ebdb	-0.0031878862
248	0xb96fc1b4	-0.00022864976
249	0xb98a0ce0	-0.00026331004
250	0x39e5e068	0.0004384548
251	0xb88b3841	-6.6385146e-05
252	0x3ad5b36c	0.0016304082
253	0x3a8bc1ba	0.0010662593
254	0xb938f331	-0.00017638203
255	0x3d205df6	0.039152108

bias f4 [64]
0	0xa6beed6e	-1.3248254e-15
1	0x3c48e893	0.012262481
2	0x3c43f556	0.011960348
3	0xbbf36f9c	-0.0074290764
4	0x3b6ba5b7	0.0035956928
5	0xba6503ce	-0.00087362237
6	0xa95e6f52	-4.9390457e-14
7	0x3d79bdbe	0.060971968
8	0xb780b6ea	-1.5343965e-05
9	0x3d953773	0.07285967
10	0x3d5a40bc	0.05328439
11	0x3d3fbc89	0.04681066
12	0x80001eaa	-1.1e-41
13	0x3a2b60f2	0.00065375783
14	0x390d4ee4	0.00013476197
15	0xbde95878	-0.11393827
16	0xb67d4674	-3.7740947e-06
17	0xbb556a14	-0.0032564448
18	0x2e1670e1	3.4206308e-11
19	0x3d904635	0.07044641
20	0x3a7a4d1a	0.0009548232
21	0x3baf9246	0.0053580133
22	0xbe9fccfe	-0.31211084
23	0x3d99aef6	0.07504074
24	0x3c734274	0.014847387
25	0x3db57c5d	0.08861611
26	0x9f807351	-5.4400884e-20
27	0xbb949990	-0.0045349076
28	0xbaaac0c3	-0.0013027418
29	0xbb63703b	-0.0034704346
30	0x3a5ef993	0.00085058174
31	0x3c6a985d	0.014318553
32	0xbe113148	-0.14178956
33	0x3dda5524	0.106607705
34	0x3cff4d95	0.031164924
35	0x3e82db2d	0.25557843
36	0x80001bac	-9.927e-42
37	0xbc82b110	-0.01595357
38	0x392f3c99	0.00016711875
39	0x80001b6c	-9.837e-42
40	0xb80e6fc2	-3.395952e-05
41	0x3d6d8c7c	0.057995304
42	0xb10d8437	-2.0593356e-09
43	0x95cbe3df	-8.2350564e-26
44	0xb94112ed	-0.00018412965
45	0x3d8c731b	0.06857892
46	0x3a929290	0.0011182595
47	0x3d80d683	0.06290915
48	0x80001b80	-9.865e-42
49	0x3c38d993	0.0112823425
50	0x3aa0421a	0.0012226731
51	0xbc36f78e	-0.01116742
52	0xbd194221	-0.03741658
53	0x2fa4e0f6	2.999127e-10
54	0xbb167773	-0.002295938
55	0xba28d4be	-0.00064403925
56	0x3c10268e	0.008798255
57	0x3d93291c	0.07185575
58	0x3bb09194	0.005388448
59	0x3c3a4a87	0.011370308
60	0x3cce85f6	0.025210362
61	0xbe55b4b8	-0.2086972
62	0x3c037602	0.008023741
63	0x3baafc33	0.005218053

weight f4 [3, 768]
0	0x087a5b84	7.5339215e-34
1	0x8b615e9d	-4.3404603e-32
2	0x8bd2dd70	-8.122224e-32
3	0x8b92cb31	-5.654288e-32
4	0x8bb5b4cf	-6.9990715e-32
5	0x8bb9a787	-7.1511475e-32
6	0x8bbd00e2	-7.280148e-32
7	0x8badc887	-6.6938896e-32
8	0x8bc652f1	-7.639162e-32
9	0x095b9d7a	2.6435211e-33
10	0x8e24bf15	-2.0306563e-30
11	0x891a6d07	-1.858834e-33
12	0x3634a33c	2.6917105e-06
13	0x368bdd31	4.168273e-06
14	0x3450c8f9	1.9444623e-07
15	0xb711b998	-8.685885e-06
16	0x3723df47	9.767543e-06
17	0x3815ef54	3.574726e-05
18	0x3804bc22	3.1646465e-05
19	0x38b39cc0	8.564582e-05
20	0x385b04a0	5.2217976e-05
21	0xb91ae1c4	-0.00014770689
22	0xb8e9a735	-0.000111414505
23	0xb8bf2690	-9.1147725e-05
24	0x36e50109	6.8248523e-06
25	0x3521f40a	6.03323e-07
26	0xb72673bb	-9.921317e-06
27	0xb7b29c4b	-2.1292033e-05
28	0xb34ed2a2	-4.8154682e-08
29	0x35d5cd12	1.592942e-06
30	0x37cb0bc0	2.4204957e-05
31	0x387a6dcc	5.97069e-05
32	0x382709c5	3.9825e-05
33	0x385b58c4	5.229634e-05
34	0xb821479e	-3.845209e-05
35	0xb93f554f	-0.0001824696
36	0x37328cd8	1.06424195e-05
37	0x3765fe59	1.3708684e-05
38	0x371f6483	9.500541e-06
39	0x37ac25c6	2.0521587e-05
40	0x36cd1b6c	6.1126684e-06
41	0x3806463e	3.2013508e-05
42	0x38852a2f	6.3497915e-05
43	0x36c4c7b5	5.864504e-06
44	0x377004fd	1.4306276e-05
45	0x3810f8ce	3.4563993e-05
46	0xb9974f51	-0.0002886006
47	0xb7cc8159	-2.4378927e-05
48	0xb62f0ab6	-2.6083267e-06
49	0xb501cedd	-4.835727e-07
50	0x36f2c52e	7.2351168e-06
51	0xb682d882	-3.8995067e-06
52	0xb72d4009	-1.0326513e-05
53	0x37d3f817	2.5268686e-05
54	0x37ff2c74	3.0419069e-05
55	0xb7fd46b3	-3.0192872e-05
56	0xb8fa3d58	-0.00011932355
57	0xba8e0c31	-0.0010837374
58	0xb98b3397	-0.00026550583
59	0xb704da63	-7.91866e-06
60	0x379b8878	1.8540988e-05
61	0x36d0b032	6.219395e-06
62	0x37b99a08	2.2125445e-05
63	0x37d761f5	2.5675612e-05
64	0x36fdf34b	7.5683106e-06
65	0xb69fb412	-4.759532e-06
66	0x388624eb	6.3964944e-05
67	0x38a04a7e	7.64327e-05
68	0xb7b20c70	-2.1225045e-05
69	0xb92e0e6a	-0.00016599303
70	0x3bc950ae	0.006143651
71	0xbad300cc	-0.001609826
72	0x02740195	1.7926743e-37
73	0x027d26a2	1.8598591e-37
74	0x02d04ec0	3.0608053e-37
75	0x02cf8c86	3.0496573e-37
76	0x02a2a427	2.389798e-37
77	0x025a4791	1.6036649e-37
78	0x024481da	1.4437071e-37
79	0x0294b313	2.184943e-37
80	0x02a8b561	2.4789488e-37
81	0x04beb60a	4.4835962e-36
82	0x85d83b9e	-2.0334442e-35
83	0x0594dc54	1.3998789e-35
84	0x36a22cb2	4.8331794e-06
85	0x3735b57f	1.0830699e-05
86	0xb63165c7	-2.6434298e-06
87	0x3645a184	2.9449302e-06
88	0xb7317c29	-1.057893e-05
89	0xb6b223b9	-5.308972e-06
90	0x3723fcd8	9.774427e-06
91	0xb6049b98	-1.97601e-06
92	0xb79535f7	-1.7787313e-05
93	0xb912fd58	-0.00014018023
94	0xb8fb532b	-0.00011984104
95	0xb858a99a	-5.1656367e-05
96	0xabb9311a	-1.3158669e-12
97	0x2c07ae78	1.9281503e-12
98	0xa9ade798	-7.7229184e-14
99	0x2bc4dae2	1.398739e-12
100	0x2b2dfd71	6.1813667e-13
101	0x2adba9c0	3.9020003e-13
102	0x2b2aae7e	6.063829e-13
103	0xaaf721c5	-4.3899446e-13
104	0xab983384	-1.0814548e-12
105	0xaccf9b9a	-5.900569e-12
106	0x2da38c87	1.8593361e-11
107	0x2a6897f6	2.0658461e-13
108	0x369d9571	4.696362e-06
109	0x370b8cf5	8.317865e-06
110	0xb6fdb191	-7.560659e-06
111	0x377e52dd	1.5158873e-05
112	0xb7a14605	-1.9225301e-05
113	0xb5b66b46	-1.3591277e-06
114	0x373342e8	1.0684809e-05
115	0xb6c50e9a	-5.8727574e-06
116	0xb62086d3	-2.3920336e-06
117	0xb877741c	-5.8997524e-05
118	0xb93e84ff	-0.00018169357
119	0x3b28f5fa	0.002578138
120	0x36d3ac05	6.3083157e-06
121	0x3758d3ae	1.2923889e-05
122	0xb7896afa	-1.6381488e-05
123	0x37347487	1.0755967e-05
124	0xb763fa08	-1.3588469e-05
125	0xb6e7cbb7	-6.908052e-06
126	0x3821824e	3.8506747e-05
127	0x36ffc1e3	7.6221636e-06
128	0xb81cd989	-3.7395894e-05
129	0xb902a8db	-0.0001246067
130	0xb94d57be	-0.0001958301
131	0xbc2bd3e5	-0.010487531
132	0xb587f6ac	-1.0130075e-06
133	0x37213f7f	9.611132e-06
134	0x369d4e4e	4.6880805e-06
135	0xb554d58e	-7.928692e-07
136	0xb6e215b4	-6.7378514e-06
137	0x373e9ad6	1.1360933e-05
138	0x366fb9a6	3.5721837e-06
139	0xb766111c	-1.3713052e-05
140	0xb827b62a	-3.9985556e-05
141	0xb8a51510	-7.871736e-05
142	0xb8cf1884	-9.8750956e-05
143	0xb8dbb47e	-0.00010476353
144	0x00001bbf	9.953e-42
145	0x80001ebf	-1.103e-41
146	0x00001fec	1.1451e-41
147	0x00001f52	1.1236e-41
148	0x00002054	1.1597e-41
149	0x80001d1c	-1.0442e-41
150	0x80001f05	-1.1128e-41
151	0x80001d2c	-1.0465e-41
152	0x0000221f	1.224e-41
153	0x80001c92	-1.0249e-41
154	0x80001bc5	-9.962e-42
155	0x00001c6c	1.0196e-41
156	0x368be926	4.169665e-06
157	0x376055ff	1.3371463e-05
158	0x35cfd86d	1.548569e-06
159	0xb73e48c2	-1.1341823e-05
160	0x373cb587	1.1247938e-05
161	0x369e68dd	4.7209746e-06
162	0xb6c96ee2	-6.0031753e-06
163	0x3872e05e	5.7906254e-05
164	0xb6e770dc	-6.897475e-06
165	0xb7d40b34	-2.5277586e-05
166	0xb84b5c93	-4.8485188e-05
167	0xb9204ade	-0.00015286679
168	0x36744700	3.640016e-06
169	0x369a6d62	4.6022915e-06
170	0x36f07b08	7.16688e-06
171	0x36e62a04	6.8594254e-06
172	0xb6a44758	-4.8958864e-06
173	0x3807ac59	3.234702e-05
174	0x37217a73	9.624858e-06
175	0xb6cd4d45	-6.1184714e-06
176	0xb7c940e0	-2.3991277e-05
177	0xba157310	-0.00057010446
178	0xb90fe426	-0.00013722535
179	0xb7fe2e6d	-3.0300778e-05
180	0x80001d96	-1.0613e-41
181	0x00001e20	1.0807e-41
182	0x00001cab	1.0284e-41
183	0x00001b69	9.833e-42
184	0x00001bf8	1.0033e-41
185	0x80001b96	-9.896e-42
186	0x80001eb1	-1.101e-41
187	0x00001e4b	1.0867e-41
188	0x80001ef7	-1.1108e-41
189	0xb8e52734	-0.00010926873
190	0xb7fd1248	-3.0168463e-05
191	0xb90b36bb	-0.00013276462
192	0x9e834515	-1.3898736e-20
193	0x9f8bdbd3	-5.923246e-20
194	0xa02efc2e	-1.4821813e-19
195	0x9e9290a7	-1.5518178e-20
196	0x20bf9684	3.2456261e-19
197	0x20a3aca3	2.7727515e-19
198	0x208e9831	2.4156448e-19
199	0x2096eb5d	2.556674e-19
200	0x204fb924	1.759484e-19
201	0x30270fa7	6.077649e-10
202	0x36bc7d6e	5.6174385e-06
203	0x349badd4	2.8997476e-07
204	0xb6a01635	-4.770957e-06
205	0xb72ff011	-1.0486708e-05
206	0xb5fe8ff0	-1.8966366e-06
207	0x37ac1c0f	2.0517064e-05
208	0x3793cc41	1.7618879e-05
209	0x38416f0a	4.61182e-05
210	0x383c0468	4.4826797e-05
211	0x384d94c6	4.9014365e-05
212	0x379097e7	1.7236873e-05
213	0xb96457a4	-0.00021776423
214	0xb8470976	-4.745411e-05
215	0xaf9ce3dd	-2.853814e-10
216	0xa82ec9d9	-9.702709e-15
217	0xa57fccde	-2.2187136e-16
218	0xa4bc82cc	-8.175358e-17
219	0x23ba1104	2.0173367e-17
220	0x80001d17	-1.0435e-41
221	0x22dbc78c	5.9571347e-18
222	0x80002056	-1.16e-41
223	0x00001dbe	1.067e-41
224	0x80002289	-1.2389e-41
225	0x00001b9e	9.907e-42
226	0x80001b6d	-9.839e-42
227	0x80001b99	-9.9e-42
228	0x36530357	3.1443394e-06
229	0x361a60f7	2.300423e-06
230	0x368b5256	4.152108e-06
231	0xb6d3d8d4	-6.313532e-06
232	0xb713a158	-8.799449e-06
233	0xb711c277	-8.687951e-06
234	0x36af8977	5.2314094e-06
235	0xb7ae8e8e	-2.0808799e-05
236	0xb82c75b9	-4.1117633e-05
237	0xb9281bd9	-0.00016032103
238	0xb4836ca3	-2.4479695e-07
239	0xb8c9c00d	-9.620199e-05
240	0x368f40dc	4.2692827e-06
241	0x371efcaa	9.476362e-06
242	0x357030ee	8.947817e-07
243	0x36b9e3cf	5.53995e-06
244	0x373633b1	1.0860081e-05
245	0xb6248696	-2.4516244e-06
246	0x37a5d117	1.9766898e-05
247	0x3825b4d1	3.9507464e-05
248	0xb5d827c2	-1.6104825e-06
249	0xb581569c	-9.636456e-07
250	0xb99bcad4	-0.00029715023
251	0xbae3ea7c	-0.0017388607
252	0x369936f6	4.5661536e-06
253	0x376fc749	1.429191e-05
254	0xb52636cd	-6.1919565e-07
255	0x34cfb857	3.869088e-07

bias f4 [3]
0	0x37c15188	2.3045359e-05
1	0x3ce52a92	0.0279744
2	0xb862dd96	-5.4088967e-05

weight f4 [3, 768]
0	0x0c574110	1.6582577e-31
1	0x8c3cbb17	-1.4539293e-31
2	0x0b83c86d	5.076093e-32
3	0x8ca23644	-2.4992712e-31
4	0x8c8cebd1	-2.1712342e-31
5	0x8c800ce1	-1.9729274e-31
6	0x8c776036	-1.905714e-31
7	0x8c854734	-2.0534748e-31
8	0x8bd1b429	-8.0774947e-32
9	0x08aa890c	1.0263722e-33
10	0x8f28691a	-8.303281e-30
11	0x09d02140	5.0105447e-33
12	0x32d1dcdc	2.4431237e-08
13	0xb78e5b44	-1.6970218e-05
14	0xb6d5a4d1	-6.367082e-06
15	0x37747d07	1.45726435e-05
16	0x36bfb130	5.712871e-06
17	0x379cd4a3	1.8695666e-05
18	0x37306328	1.0513504e-05
19	0x379e6c67	1.8885547e-05
20	0x3727a76d	9.9929575e-06
21	0x3795dcb7	1.7864963e-05
22	0x3765b1f4	1.3690897e-05
23	0xb63ec6ba	-2.842788e-06
24	0xb620ade4	-2.3943076e-06
25	0x372393eb	9.749997e-06
26	0x36c2b17b	5.802312e-06
27	0xb7a473cc	-1.9604246e-05
28	0x372e0a16	1.03735565e-05
29	0x37154ac2	8.898498e-06
30	0x3794325b	1.7666423e-05
31	0x375d4bd7	1.3190284e-05
32	0x36bd62c6	5.6441377e-06
33	0xb53b6277	-6.9806214e-07
34	0x36053787	1.9850866e-06
35	0x37fbb7ea	3.0007173e-05
36	0x371ad946	9.229703e-06
37	0xb6dd3501	-6.5924837e-06
38	0xb6f9d2b7	-7.4453087e-06
39	0x370aa5cc	8.264044e-06
40	0x36520c84	3.1299724e-06
41	0x373d7368	1.1292148e-05
42	0x371efce1	9.476412e-06
43	0x379d377f	1.87417e-05
44	0x374d1bb2	1.22254005e-05
45	0x38295b15	4.0377567e-05
46	0x3836a615	4.3546857e-05
47	0x3681b7f6	3.8659155e-06
48	0x37021846	7.754255e-06
49	0x36921430	4.353489e-06
50	0x361bbcd3	2.320671e-06
51	0x35a0f884	1.1993257e-06
52	0x368afd5e	4.1422163e-06
53	0x370e9a61	8.499804e-06
54	0x36f12f14	7.1878403e-06
55	0x36b74734	5.462114e-06
56	0xb67be750	-3.7536556e-06
57	0x385b438d	5.227658e-05
58	0x38408540	4.5900466e-05
59	0xb6bbc786	-5.596262e-06
60	0x36fb6531	7.492163e-06
61	0x371f26aa	9.486141e-06
62	0x3698eb32	4.5573333e-06
63	0x370e7c35	8.492779e-06
64	0x36aa8f45	5.0830736e-06
65	0x37835c7f	1.5659489e-05
66	0x37315d00	1.0571675e-05
67	0x37bd8400	2.2592023e-05
68	0x37ce81be	2.461753e-05
69	0x37a9b362	2.0229902e-05
70	0x395d5c61	0.00021110616
71	0x3896b8d9	7.186988e-05
72	0x82ac8264	-2.534797e-37
73	0x82685855	-1.7070018e-37
74	0x829f57bd	-2.341331e-37
75	0x8293b85d	-2.1705528e-37
76	0x826ec0e2	-1.7540833e-37
77	0x825f1f93	-1.6392514e-37
78	0x826fd9e1	-1.7621475e-37
79	0x826f12b9	-1.756432e-37
80	0x823ed9d9	-1.4021515e-37
81	0x05b710cc	1.7215407e-35
82	0x8553d7dc	-9.9608194e-36
83	0x85cf1f0c	-1.9477591e-35
84	0xb694c497	-4.43363e-06
85	0xb6ddda5e	-6.6117345e-06
86	0xb6fcd595	-7.5350495e-06
87	0xb7465d03	-1.1823376e-05
88	0xb73b1945	-1.1151952e-05
89	0xb7581de5	-1.2881564e-05
90	0xb741bdfc	-1.1547931e-05
91	0xb772b120	-1.4465564e-05
92	0xb77f1a4d	-1.5205308e-05
93	0xb68bc149	-4.165024e-06
94	0xb698bf4b	-4.5522224e-06
95	0x3803fdbe	3.146915e-05
96	0x2ae03e8b	3.983379e-13
97	0xab90f308	-1.029927e-12
98	0xabb4fb82	-1.2859577e-12
99	0xabbadf24	-1.3278029e-12
100	0xaba38cd9	-1.162094e-12
101	0xaba7c19d	-1.1919802e-12
102	0xabb23572	-1.2662495e-12
103	0xabc3015c	-1.3855961e-12
104	0xabbdd366	-1.3487933e-12
105	0x2cb2df4a	5.0838543e-12
106	0x2c8c07a5	3.979888e-12
107	0x2cc014f2	5.4592936e-12
108	0xb68c5f42	-4.1834146e-06
109	0xb6b58809	-5.410057e-06
110	0xb6be9b8f	-5.6805507e-06
111	0xb7724f9a	-1.4442858e-05
112	0xb7377f3c	-1.0937274e-05
113	0xb760614b	-1.3374093e-05
114	0xb734a818	-1.0767973e-05
115	0xb77e3c00	-1.515355e-05
116	0xb770ba16	-1.4348441e-05
117	0xb7902fb8	-1.7188358e-05
118	0xb664c86a	-3.4091304e-06
119	0xb845426c	-4.703032e-05
120	0xb6983bd7	-4.5369193e-06
121	0xb63952ff	-2.7615458e-06
122	0xb564b287	-8.519641e-07
123	0xb7066864	-8.011328e-06
124	0xb69f9485	-4.755859e-06
125	0xb70e476c	-8.480489e-06
126	0xb63c3ec8	-2.8050727e-06
127	0xb68c6fdd	-4.1853477e-06
128	0xb71b74b3	-9.265891e-06
129	0x3700e030	7.681592e-06
130	0xb6e94519	-6.951985e-06
131	0xba180450	-0.00057989825
132	0xb596ed3d	-1.1244916e-06
133	0xb6cd11ed	-6.111563e-06
134	0xb6eb45fc	-7.011693e-06
135	0xb714a19f	-8.859118e-06
136	0xb708963d	-8.141212e-06
137	0xb703b11f	-7.849448e-06
138	0xb72adf01	-1.0184712e-05
139	0xb73db45a	-1.1307269e-05
140	0xb76eae8b	-1.4226544e-05
141	0x363e8f24	2.8395525e-06
142	0xb6a8096f	-5.0078884e-06
143	0xb65ec7cb	-3.3196873e-06
144	0x80001e9e	-1.0983e-41
145	0x00001e62	1.09e-41
146	0x80002096	-1.169e-41
147	0x00001deb	1.0733e-41
148	0x00001c30	1.0112e-41
149	0x8000229e	-1.2418e-41
150	0x80002199	-1.2053e-41
151	0x00001b63	9.825e-42
152	0x00001c4b	1.015e-41
153	0x80001b5e	-9.817e-42
154	0x00001b7f	9.864e-42
155	0x80001cc3	-1.0318e-41
156	0x349b3594	2.8909983e-07
157	0x3699b94d	4.581327e-06
158	0x36dce2ae	6.5829e-06
159	0xb686a20a	-4.012375e-06
160	0x36b24d9b	5.313848e-06
161	0xb539f031	-6.9267395e-07
162	0x367a3936	3.7286204e-06
163	0x365b6d6a	3.269723e-06
164	0x3719e359	9.172444e-06
165	0xb587a457	-1.0106113e-06
166	0x3612660c	2.1815094e-06
167	0x378b77b5	1.6625834e-05
168	0x36b80e73	5.4853094e-06
169	0xb65e1806	-3.3094561e-06
170	0x3604348d	1.9700121e-06
171	0x34f6a71b	4.5942656e-07
172	0x36b124d3	5.279298e-06
173	0x362a3c0a	2.5366921e-06
174	0x36bc4eba	5.6120016e-06
175	0x36bffa35	5.7213715e-06
176	0x368696f6	4.0110854e-06
177	0x380f7100	3.4199096e-05
178	0x378a345a	1.647526e-05
179	0x37053341	7.939351e-06
180	0x00001f24	1.1171e-41
181	0x00001e43	1.0856e-41
182	0x00001cb0	1.0291e-41
183	0x00001e5c	1.0891e-41
184	0x80001e0c	-1.0779e-41
185	0x80001c58	-1.0168e-41
186	0x80001e88	-1.0953e-41
187	0x80001c81	-1.0225e-41
188	0x80001d7d	-1.0578e-41
189	0x36858204	3.9788447e-06
190	0x37f3f84b	2.9083478e-05
191	0x36781e54	3.6972533e-06
192	0x1eeac934	2.485893e-20
193	0xa0678dbf	-1.9613361e-19
194	0x207ec163	2.1578623e-19
195	0x20593875	1.8399295e-19
196	0xa0095604	-1.1632812e-19
197	0xa04df5ce	-1.7445505e-19
198	0xa06ad37d	-1.9890547e-19
199	0xa064b2ad	-1.937147e-19
200	0xa065915d	-1.9445151e-19
201	0xa79b227b	-4.3058526e-15
202	0xb5161795	-5.591367e-07
203	0xb15bc663	-3.1981464e-09
204	0x376da1a9	1.416394e-05
205	0xb76e841b	-1.4216664e-05
206	0xb68b51b5	-4.1520348e-06
207	0x36d6a8bb	6.39734e-06
208	0x3718f8ce	9.117835e-06
209	0x37b095f2	2.1050659e-05
210	0x3767f805	1.38264195e-05
211	0x379443e0	1.7674582e-05
212	0x37149f90	8.8586385e-06
213	0x37cdc1ad	2.4528092e-05
214	0x372b4f0e	1.0210801e-05
215	0x2c9cb5ac	4.4539563e-12
216	0x275c0d5b	3.0538373e-15
217	0xa5612185	-1.9526996e-16
218	0x2395d773	1.6245859e-17
219	0xa004a0ff	-1.1234104e-19
220	0x800020d7	-1.1781e-41
221	0x9f51030f	-4.426e-20
222	0x00001dfb	1.0755e-41
223	0x00001d1b	1.0441e-41
224	0x00001c16	1.0075e-41
225	0x00001b7a	9.857e-42
226	0x00001b59	9.81e-42
227	0x80001b64	-9.826e-42
228	0xb657653f	-3.209643e-06
229	0xb6f7cd1c	-7.3850515e-06
230	0xb74e9699	-1.2313621e-05
231	0xb75d882a	-1.320433e-05
232	0xb74e44ed	-1.2294605e-05
233	0xb763fc6d	-1.3589027e-05
234	0xb7868595	-1.6036249e-05
235	0xb7a2a130	-1.9386964e-05
236	0xb79f6e6a	-1.9005693e-05
237	0xb708cead	-8.154352e-06
238	0xb717b320	-9.042007e-06
239	0xb6b9d72f	-5.5384803e-06
240	0x37255035	9.853441e-06
241	0x374530e8	1.1753502e-05
242	0x3495567a	2.7816333e-07
243	0xb4cbdd63	-3.7972777e-07
244	0x36fe12b1	7.571966e-06
245	0x36911c9e	4.324668e-06
246	0x374bed91	1.2155056e-05
247	0x36a032b4	4.774274e-06
248	0x37b8401a	2.1964359e-05
249	0x36be62a2	5.6739236e-06
250	0x37f2abe6	2.8928695e-05
251	0x38025354	3.107202e-05
252	0xb4bbf528	-3.500984e-07
253	0x366287ee	3.3755746e-06
254	0x369ac504	4.6124933e-06
255	0xb6811436	-3.8468525e-06

bias f4 [3]
0	0xb81e7afb	-3.778467e-05
1	0xbd9e9089	-0.07742412
2	0x38566a5f	5.112064e-05

weight f4 [768, 3]
0	0xb4a213d2	-3.0189273e-07
1	0xb7e0ef48	-2.6814305e-05
2	0x3586533a	1.0008e-06
3	0x3400b818	1.1987902e-07
4	0xb750b21a	-1.2439234e-05
5	0xb49bad91	-2.8997286e-07
6	0xb501530b	-4.817709e-07
7	0xb8452945	-4.7006895e-05
8	0xb4220dbc	-1.5092422e-07
9	0xb985cfeb	-0.00025522648
10	0xbb1feca5	-0.0024402526
11	0x38efc2fe	0.00011432728
12	0xb55bc9f7	-8.1877755e-07
13	0x35e41311	1.6992873e-06
14	0xb3a21f1c	-7.5493716e-08
15	0xb49f9225	-2.9722392e-07
16	0x36dbde20	6.5525674e-06
17	0x348aa9f8	2.5828172e-07
18	0xb3cb63ff	-9.471113e-08
19	0x374cbdb1	1.22035135e-05
20	0xb45204b1	-1.9559481e-07
21	0xb538ad81	-6.8797823e-07
22	0x37614699	1.3427482e-05
23	0xb4959d62	-2.7867924e-07
24	0xb501d1ac	-4.836136e-07
25	0x36ead012	6.997966e-06
26	0xb4a6f767	-3.1099918e-07
27	0xb4800452	-2.3845e-07
28	0x37a9d7af	2.0246805e-05
29	0x34256e6b	1.5406992e-07
30	0xb4e6f847	-4.3021484e-07
31	0x37146503	8.845006e-06
32	0xb4562cf2	-1.9946654e-07
33	0x3984c972	0.0002532709
34	0xbf5a5201	-0.8528138
35	0x3a1a0489	0.00058753096
36	0x349aa296	2.8803032e-07
37	0x37da89ee	2.6051854e-05
38	0xb583617b	-9.788631e-07
39	0xb3ffa8f1	-1.1905093e-07
40	0x374a6b16	1.2065071e-05
41	0x349876fd	2.8398782e-07
42	0x34fbb60e	4.6884855e-07
43	0x383f8583	4.566229e-05
44	0x3419d908	1.4328191e-07
45	0x39063135	0.00012797567
46	0x3a75fa7a	0.0009383332
47	0xb8a1ff59	-7.7246405e-05
48	0x3555b5d4	7.961328e-07
49	0xb5ddae74	-1.6516556e-06
50	0x339762e5	7.049474e-08
51	0x34997248	2.858162e-07
52	0xb6d531b2	-6.35368e-06
53	0xb4870641	-2.515026e-07
54	0x33bfc99c	8.930803e-08
55	0xb7469ada	-1.1837774e-05
56	0x344bf163	1.8993664e-07
57	0x35344a4a	6.716333e-07
58	0xb75a9d18	-1.3030389e-05
59	0x34916d41	2.7087847e-07
60	0x34fb4c49	4.6807898e-07
61	0xb6e40ddf	-6.7965443e-06
62	0x34a1852b	3.008548e-07
63	0x34790add	2.3193884e-07
64	0xb7a4cdef	-1.9646219e-05
65	0xb41fbdd8	-1.4877094e-07
66	0x34e0833f	4.1818745e-07
67	0xb70ff097	-8.579481e-06
68	0x344fbc3e	1.934686e-07
69	0xb93f4fcc	-0.00018244906
70	0x3ea5e2a0	0.32399464
71	0xba3000d8	-0.0006713993
72	0xb491fe4d	-2.7193383e-07
73	0xb7d2f98e	-2.5150159e-05
74	0x357fa12c	9.522944e-07
75	0x33fdc22e	1.1816552e-07
76	0xb743062e	-1.1624345e-05
77	0xb4946eb6	-2.76477e-07
78	0xb4f37866	-4.5349879e-07
79	0xb838d97f	-4.4071578e-05
80	0xb4100abf	-1.3414954e-07
81	0xb7f4ae71	-2.9168297e-05
82	0xb9f943e2	-0.00047543558
83	0x37885635	1.6252607e-05
84	0xb54e70d1	-7.690515e-07
85	0x35d61927	1.5951563e-06
86	0xb38a8337	-6.4499936e-08
87	0xb49269a1	-2.7271474e-07
88	0x36cd562c	6.119508e-06
89	0x3482ca7b	2.436171e-07
90	0xb3b22396	-8.295244e-08
91	0x373f5be7	1.1405885e-05
92	0xb4445e8a	-1.8288316e-07
93	0xb52f0da7	-6.5212447e-07
94	0x3752be41	1.2561272e-05
95	0xb48c6afa	-2.6154868e-07
96	0xb4f164ae	-4.4963002e-07
97	0x36dc0bc2	6.5578797e-06
98	0xb49afb8a	-2.8867754e-07
99	0xb470b6e4	-2.2418277e-07
100	0x379eda99	1.893686e-05
101	0x34198c92	1.4300375e-07
102	0xb4d8dd41	-4.039412e-07
103	0x370aadb4	8.265884e-06
104	0xb447dccd	-1.8613646e-07
105	0x38fdb42f	0.00012097542
106	0xbe24b31a	-0.16083947
107	0x3a3bd7e9	0.0007165657
108	0xb49a8d05	-2.878734e-07
109	0xb7da7679	-2.6042793e-05
110	0x358359c8	9.78639e-07
111	0x33ff9ed4	1.19032535e-07
112	0xb74a57c1	-1.206057e-05
113	0xb4986d69	-2.8391813e-07
114	0xb4fb9fb9	-4.6868607e-07
115	0xb83f743a	-4.5646193e-05
116	0xb419bd28	-1.431805e-07
117	0xb904a09b	-0.00012648331
118	0xba73e060	-0.0009303149
119	0x38a07077	7.650343e-05
120	0xb555a044	-7.95819e-07
121	0x35dd9ab4	1.6510808e-06
122	0xb3974274	-7.043573e-08
123	0xb49960d1	-2.8568914e-07
124	0x36d51d9e	6.3513426e-06
125	0x3486fb51	2.5142302e-07
126	0xb3bfa509	-8.92415e-08
127	0x37468849	1.1833451e-05
128	0xb44be273	-1.898823e-07
129	0xb5343b5e	-6.7141616e-07
130	0x375a88d6	1.3025672e-05
131	0xb4916090	-2.7078613e-07
132	0xb4fb32eb	-4.678944e-07
133	0x36e3f932	6.7941373e-06
134	0xb4a17571	-3.0074037e-07
135	0xb478f2e2	-2.318516e-07
136	0x37a4bec2	1.9639152e-05
137	0x341fb19e	1.4872646e-07
138	0xb4e06fdb	-4.1804637e-07
139	0x370fe30f	8.57633e-06
140	0xb44fa8f8	-1.9339848e-07
141	0x393eaba7	0.00018183757
142	0xbea46f79	-0.32116297
143	0x3a3031c2	0.00067212817
144	0x3047ad87	7.2642375e-10
145	0x33e71ade	1.0761663e-07
146	0xb1c6ab70	-5.7820486e-09
147	0x2ff85951	4.51744e-10
148	0x334b1357	4.728221e-08
149	0x313abe92	2.717489e-09
150	0x31074850	1.968619e-09
151	0x3445355b	1.8366465e-07
152	0xaf3ea242	-1.7338045e-10
153	0xb7289f04	-1.0050604e-05
154	0x383ff393	4.5764795e-05
155	0x362ca55e	2.5726254e-06
156	0x3162b466	3.2989873e-09
157	0xb1f20537	-7.04372e-09
158	0xb0438531	-7.1129863e-10
159	0x30904a34	1.0498469e-09
160	0xb2d367cb	-2.4610832e-08
161	0x2faabb89	3.1056072e-10
162	0x2fec4658	4.2978132e-10
163	0xb341706e	-4.503857e-08
164	0x30908909	1.0516327e-09
165	0x316e19bc	3.4648187e-09
166	0xb357b759	-5.0225342e-08
167	0x3088399e	9.911678e-10
168	0x311e9e57	2.3082032e-09
169	0xb2e5d620	-2.6756481e-08
170	0x30d531a7	1.5511902e-09
171	0x30753439	8.9204694e-10
172	0xb3a1bb48	-7.531213e-08
173	0xacf55bc3	-6.9735064e-12
174	0x30e99a09	1.6996761e-09
175	0xb30ab9e9	-3.2299713e-08
176	0x3064bdfd	8.3215906e-10
177	0x36408478	2.8687336e-06
178	0xba229e52	-0.0006203401
179	0x376f0479	1.42465515e-05
180	0xb4533963	-1.9671783e-07
181	0xb7ad6a3b	-2.0672675e-05
182	0x355a0297	8.12151e-07
183	0x33f2ff29	1.13154165e-07
184	0xb71eb965	-9.460699e-06
185	0xb47be3cb	-2.3459067e-07
186	0xb4c9b5a3	-3.7571326e-07
187	0xb817bc29	-3.6176443e-05
188	0xb3c25ddc	-9.050902e-08
189	0x3728a201	1.00513e-05
190	0xb88644e9	-6.4024534e-05
191	0xb8252ac4	-3.9378894e-05
192	0xb529e20f	-6.3286365e-07
193	0x35b0353a	1.3128513e-06
194	0xb3192de8	-3.566484e-08
195	0xb463ad7f	-2.120414e-07
196	0x36a6d349	4.9717823e-06
197	0x345c5fba	2.0523922e-07
198	0xb3635ab0	-5.2935036e-08
199	0x371baac9	9.278484e-06
200	0xb41b63e7	-1.4471844e-07
201	0xb5147a2b	-5.5312074e-07
202	0x372be133	1.02448275e-05
203	0xb46675c5	-2.1463264e-07
204	0xb4c087d2	-3.586161e-07
205	0x36b4307c	5.3700624e-06
206	0xb4741467	-2.2731693e-07
207	0xb44708dd	-1.8536544e-07
208	0x37817e16	1.5436712e-05
209	0x33fe0f7a	1.1830612e-07
210	0xb4b2c730	-3.3300012e-07
211	0x36e18935	6.7214955e-06
212	0xb41f4b74	-1.4835479e-07
213	0x381aa070	3.686588e-05
214	0xbce9300b	-0.028465291
215	0x3a32938c	0.00068121473
216	0xb48c2970	-2.6107182e-07
217	0xb7cdca98	-2.4532244e-05
218	0x357aa1e5	9.3367845e-07
219	0x33fc791f	1.1756696e-07
220	0xb73df9a2	-1.13234e-05
221	0xb4919051	-2.711336e-07
222	0xb4edc792	-4.4289897e-07
223	0xb83447aa	-4.2982087e-05
224	0xb40957e9	-1.2791101e-07
225	0xb5a656b6	-1.23932e-06
226	0xb9b048b1	-0.00033623495
227	0xb6def94c	-6.6451375e-06
228	0xb549706d	-7.5041936e-07
229	0x35d0e40a	1.5563576e-06
230	0xb381affe	-6.0390434e-08
231	0xb48db61c	-2.63958e-07
232	0x36c7f8da	5.9596323e-06
233	0x347fd76c	2.3827096e-07
234	0xb3a8ea5b	-7.8657386e-08
235	0x373a67c1	1.1110621e-05
236	0xb43efc48	-1.7786908e-07
237	0xb52b7196	-6.3867753e-07
238	0x374d5ba5	1.224029e-05
239	0xb488fa6f	-2.5514188e-07
240	0xb4ea9bbb	-4.3699205e-07
241	0x36d68cd8	6.3940934e-06
242	0xb496745a	-2.8024334e-07
243	0xb46afb72	-2.1884424e-07
244	0x379ac833	1.8451456e-05
245	0x341581b1	1.3923888e-07
246	0xb4d39e61	-3.9417048e-07
247	0x370714e0	8.051487e-06
248	0xb44264a6	-1.8104274e-07
249	0x38b93b95	8.8325854e-05
250	0xbde67be3	-0.11254098
251	0x3a4033c1	0.00073319307
252	0xb49ff290	-2.9792545e-07
253	0xb7df1fd9	-2.6598502e-05
254	0x35857fa5	9.946422e-07
255	0x34007864	1.1964727e-07

bias f4 [768]
0	0x3891ec6d	6.9581765e-05
1	0x389800a0	7.248041e-05
2	0x38968d7e	7.178912e-05
3	0x3b059252	0.0020381403
4	0x38a10d71	7.679582e-05
5	0x38a4ae10	7.852551e-05
6	0x38a1be22	7.712493e-05
7	0x38a17d13	7.700375e-05
8	0x38a4585e	7.836589e-05
9	0x38a72ddf	7.971725e-05
10	0x38a6f54e	7.9611884e-05
11	0xbe03ecbb	-0.12883274
12	0xb88ded8f	-6.767653e-05
13	0xb893d3b2	-7.0489376e-05
14	0xb8925618	-6.977859e-05
15	0xba632f28	-0.00086663896
16	0xb89c993f	-7.467204e-05
17	0xb8a023e5	-7.6360804e-05
18	0xb89d41d0	-7.498602e-05
19	0xb89d088a	-7.487934e-05
20	0xb89fd283	-7.620922e-05
21	0xb8a29549	-7.7525685e-05
22	0xb8a24e39	-7.739332e-05
23	0x3d56726f	0.052355226
24	0x3889310d	6.5418055e-05
25	0x388ee03b	6.812854e-05
26	0x388d5756	6.7396715e-05
27	0x39faa229	0.00047804535
28	0x3897524a	7.2155686e-05
29	0x389ac38d	7.3797164e-05
30	0x3897f163	7.245203e-05
31	0x3897c1f7	7.23637e-05
32	0x389a7664	7.365344e-05
33	0x389d22a4	7.492796e-05
34	0x389ccb4a	7.476525e-05
35	0xbcdaa18c	-0.02668836
36	0x388de11f	6.765336e-05
37	0x3893c6bb	7.046523e-05
38	0x389248ff	6.975419e-05
39	0x3a617878	0.000860102
40	0x389c8b83	7.464646e-05
41	0x38a01632	7.633529e-05
42	0x389d3437	7.496069e-05
43	0x389cfae5	7.4853924e-05
44	0x389fc47f	7.618311e-05
45	0x38a28730	7.7499426e-05
46	0x38a23ffb	7.736679e-05
47	0xbd54a921	-0.051919106
48	0xb499c3a9	-2.8640832e-07
49	0xb49f3763	-2.9656357e-07
50	0xb498c8cf	-2.8458314e-07
51	0xb86677f2	-5.494798e-05
52	0xb4a718d0	-3.1124227e-07
53	0xb4abc284	-3.199276e-07
54	0xb4a6e737	-3.108814e-07
55	0xb4a8275f	-3.1321085e-07
56	0xb4ab857b	-3.1948352e-07
57	0xb4aed8f2	-3.2567874e-07
58	0xb4ab3df5	-3.1896312e-07
59	0x39748d61	0.00023322321
60	0x38630cde	5.4133e-05
61	0x386c4aa2	5.6336292e-05
62	0x3868e531	5.552656e-05
63	0x39163001	0.00014322998
64	0x3879f374	5.959296e-05
65	0x387fcfaa	6.099014e-05
66	0x387ad12e	5.979946e-05
67	0x387ad155	5.97996e-05
68	0x387f5f03	6.0885224e-05
69	0x3881ed25	6.195371e-05
70	0x388150aa	6.166224e-05
71	0xbba46538	-0.005016949
72	0x3885f0b2	6.386767e-05
73	0x388b7ab5	6.6508925e-05
74	0x3889ea26	6.5762826e-05
75	0x39bb1357	0.0003568183
76	0x3893b2f5	7.0428396e-05
77	0x3897124f	7.203651e-05
78	0x38944b37	7.0712e-05
79	0x389422bd	7.0636605e-05
80	0x3896c87b	7.1899e-05
81	0x389965bb	7.314557e-05
82	0x389903b8	7.296301e-05
83	0xbc9b1cd0	-0.018934637
84	0x3890caf8	6.904261e-05
85	0x3896d273	7.1917566e-05
86	0x38955bd5	7.121979e-05
87	0x3ac607d2	0.0015108532
88	0x389fcb17	7.619539e-05
89	0x38a3658a	7.791359e-05
90	0x38a0796a	7.65201e-05
91	0x38a03a5e	7.640266e-05
92	0x38a310eb	7.775597e-05
93	0x38a5e0f4	7.909714e-05
94	0x38a5a458	7.8984245e-05
95	0xbdc26952	-0.094927445
96	0x38907084	6.887413e-05
97	0x389673ca	7.174125e-05
98	0x3894fc82	7.104223e-05
99	0x3ab67364	0.0013919887
100	0x389f661f	7.600732e-05
101	0x38a2fecc	7.7722216e-05
102	0x38a013dd	7.633094e-05
103	0x389fd599	7.6214965e-05
104	0x38a2aa36	7.756466e-05
105	0x38a578e7	7.890333e-05
106	0x38a53b2e	7.878836e-05
107	0xbdb27193	-0.08713069
108	0x3864a11f	5.450949e-05
109	0x386df16e	5.6730052e-05
110	0x386a8d00	5.5921264e-05
111	0x391900c5	0.00014591504
112	0x387bb5a4	6.001223e-05
113	0x3880ccf9	6.141695e-05
114	0x387c95e7	6.022109e-05
115	0x387c9329	6.0218536e-05
116	0x38809435	6.131121e-05
117	0x3882d58b	6.2386585e-05
118	0x38823ae7	6.2098545e-05
119	0xbbaaa6a4	-0.0052078534
120	0x388eaf5d	6.8037516e-05
121	0x38949e6e	7.0867e-05
122	0x389322f5	7.0160175e-05
123	0x3a80e6fa	0.0009834461
124	0x389d7191	7.507497e-05
125	0x38a1007b	7.677168e-05
126	0x389e1be5	7.539223e-05
127	0x389de109	7.5282594e-05
128	0x38a0ae56	7.661867e-05
129	0x38a374bc	7.794189e-05
130	0x38a3304a	7.78144e-05
131	0xbd765395	-0.060138304
132	0xb891ff4a	-6.96169e-05
133	0xb89814c8	-7.2517956e-05
134	0xb896a15e	-7.182614e-05
135	0xbb088ce8	-0.002083594
136	0xb8a122bc	-7.683548e-05
137	0xb8a4c3a9	-7.856574e-05
138	0xb8a1d3cf	-7.716531e-05
139	0xb8a1927d	-7.704364e-05
140	0xb8a46e0a	-7.840626e-05
141	0xb8a743e8	-7.975829e-05
142	0xb8a70b88	-7.9653284e-05
143	0x3e06e369	0.13172688
144	0xb888d35e	-6.5243556e-05
145	0xb88e7e70	-6.7946385e-05
146	0xb88cf474	-6.721253e-05
147	0xb9f1a828	-0.00046092388
148	0xb896ea14	-7.196158e-05
149	0xb89a58f1	-7.359859e-05
150	0xb8978802	-7.2255745e-05
151	0xb897597c	-7.216909e-05
152	0xb89a0c69	-7.345604e-05
153	0xb89cb704	-7.472749e-05
154	0xb89c5ea5	-7.4562886e-05
155	0x3cd192a7	0.025582625
156	0x3890d7dc	6.906662e-05
157	0x3896df8e	7.194198e-05
158	0x3895697f	7.124524e-05
159	0x3ac86c6b	0.00152911
160	0x389fd8df	7.622106e-05
161	0x38a373f7	7.794046e-05
162	0x38a087c3	7.654682e-05
163	0x38a04885	7.642902e-05
164	0x38a31f57	7.778283e-05
165	0x38a5ef9a	7.9124424e-05
166	0x38a5b337	7.9011945e-05
167	0xbdc4dc7b	-0.09612366
168	0xb890a97b	-6.898023e-05
169	0xb896aecf	-7.185118e-05
170	0xb8953839	-7.115346e-05
171	0xbabff485	-0.0014645016
172	0xb89fa548	-7.612497e-05
173	0xb8a33f28	-7.7842094e-05
174	0xb8a05360	-7.644924e-05
175	0xb8a014df	-7.633282e-05
176	0xb8a2ea62	-7.768419e-05
177	0xb8a5b9df	-7.902434e-05
178	0xb8a57cb8	-7.891044e-05
179	0x3dbc316a	0.091891125
180	0xb65ad464	-3.260816e-06
181	0xb6625808	-3.3727865e-06
182	0xb65a58aa	-3.253614e-06
183	0x381d3c29	3.7487745e-05
184	0xb66d958b	-3.5402797e-06
185	0xb674d940	-3.648529e-06
186	0xb66d926b	-3.5400979e-06
187	0xb66f8dff	-3.5696428e-06
188	0xb674466b	-3.6399822e-06
189	0xb6793e37	-3.7140105e-06
190	0xb6742906	-3.6382712e-06
191	0xb93e80e8	-0.00018167833
192	0x3438b43c	1.7201904e-07
193	0x343e72b7	1.7736862e-07
194	0x34388771	1.7185609e-07
195	0xb81dedee	-3.7653306e-05
196	0x3447a37d	1.8592796e-07
197	0x344f0e0a	1.9283485e-07
198	0x3447e63b	1.8617077e-07
199	0x344a1bff	1.8822901e-07
200	0x344e0f39	1.9190783e-07
201	0x3452c056	1.9627745e-07
202	0x344ddf5a	1.9173368e-07
203	0x39156f75	0.00014251268
204	0xb890d43e	-6.905988e-05
205	0xb896dbea	-7.1935196e-05
206	0xb8956591	-7.123792e-05
207	0xbac7bee9	-0.0015239391
208	0xb89fd4d6	-7.6213546e-05
209	0xb8a36fc3	-7.793263e-05
210	0xb8a0839f	-7.653911e-05
211	0xb8a04464	-7.642133e-05
212	0xb8a31b3a	-7.777517e-05
213	0xb8a5eb73	-7.911669e-05
214	0xb8a5aefe	-7.900408e-05
215	0x3dc42974	0.09578219
216	0x388e6195	6.789264e-05
217	0x38944ce8	7.071515e-05
218	0x3892d05d	7.000633e-05
219	0x3a74ad1c	0.00093336566
220	0x389d1a5b	7.4912525e-05
221	0x38a0a820	7.66071e-05
222	0x389dc462	7.5229225e-05
223	0x389d8a25	7.512075e-05
224	0x38a05606	7.645418e-05
225	0x38a31ac2	7.77743e-05
226	0x38a2d5be	7.7645745e-05
227	0xbd68ab2d	-0.05680387
228	0x3888d205	6.5241045e-05
229	0x388e7d08	6.7943765e-05
230	0x388cf305	6.720986e-05
231	0x39f18801	0.00046068433
232	0x3896e87d	7.195862e-05
233	0x389a5758	7.359561e-05
234	0x38978677	7.225287e-05
235	0x38975805	7.216636e-05
236	0x389a0ad2	7.345308e-05
237	0x389cb56e	7.4724536e-05
238	0x389c5cf9	7.455977e-05
239	0xbcd1709f	-0.025566397
240	0x38903982	6.877167e-05
241	0x389639f0	7.163349e-05
242	0x3894c218	7.093343e-05
243	0x3aadeb75	0.0013269024
244	0x389f2840	7.589208e-05
245	0x38a2bfc1	7.760479e-05
246	0x389fd5df	7.6215474e-05
247	0x389f975e	7.609905e-05
248	0x38a26c04	7.7448814e-05
249	0x38a5391a	7.878449e-05
250	0x38a4faae	7.866822e-05
251	0xbda9abcc	-0.08284721
252	0xb521ec36	-6.0320906e-07
253	0xb52788be	-6.2411334e-07
254	0xb5211689	-6.0009967e-07
255	0xb87156c5	-5.7539688e-05
